experiments_generated_data/obs_5_pred_3/models/cnn_lstm.pt (torch, 710018 bytes, 11 tensors)

weight_ih_l0 f4 [480, 2]
00000000: 98bf babc 4863 01bc ac93 093e 5834 013e
00000010: 2121 04bc 28af a53b 3b32 11bd 0a60 5ebc
00000020: 9317 ffbc de4d 34bc cc08 a93e 77ef 5f3e
00000030: 127b 4abc 8e63 8eb9 2163 42bc 27b0 1fbb
00000040: 82ad 993e 93e7 273e 6b17 063f dba6 953e
00000050: 3016 c8bc 091e 48bb cbe4 81bc 1b24 d9ba
00000060: 27c2 fbbc fac1 7cbb 5a65 8d3e 3056 563e
00000070: c11f 2cbd fefd debb 7aa3 c1bc 1295 44bb
00000080: c3c5 d23c b678 453d b037 ed36 c78a 0cb8
00000090: 22bd 563d a998 423d 5da1 9abc c8f4 00bb
000000a0: 33ec aa3d dfe5 1f3d 746d c23e 5a39 5d3e
000000b0: 9c6b 2a3f 656f b73e 3e5c 22bd dcbd e7ba
000000c0: 8583 2fbc 6eea 42bb ed22 a8bc 7e2f 1dbb
000000d0: f938 663e 371c 3e3e ef12 0b3f 8df2 9c3e
000000e0: c8e4 073f 370e 7a3e b71d 8ebc eed2 73ba
000000f0: 7a05 823d cba9 913d cf15 3bbc d0ab e23b
00000100: af2e b1bd 62f0 5cbc fd53 1f3f 9b02 823e
00000110: 0cf0 f2bc 9632 8eba 686a 8cbc e6cc 92bb
00000120: a84c 4b3e a87d 3e3e 90ff c3bc 57f6 c3bb
00000130: bb3c 693c 2a89 0c3d a76f 6d3e d89a b83d
00000140: d46f ccbb 1122 c9ba f367 28bc e1cd 0ebb
00000150: f047 82bd c29e 13ba ef97 f53e 2b47 8c3e
00000160: 8579 27bc 2e3a f1ba c2c0 28bd fa25 3cba
00000170: d9e4 5ebd 7569 a5bb 24e6 ebbc 78ee 12bc
00000180: eb9f 0c3f ea17 a73e 4661 7ebd 5456 ddbb
00000190: d078 f1bb 2b8f f6ba 2079 8cbc 14ad 8cba
000001a0: 2be0 0b3f 2d34 643e d1cc c0bd ab68 8ebc
000001b0: 3040 f9bc 2686 b3bb 0855 14bd 4396 14bb
000001c0: e867 b73e 1488 5e3e 2ca0 d53d ce6f af3d
000001d0: d6ba 80bd 1b8a 1abc 2bd8 3ebc ad8d 33bb
000001e0: c813 813d 92ab a13d fcd5 873e b263 4a3e
000001f0: a613 97bc c0fd aaba 1f53 17bd a22e 1cbc
00000200: b67d 1d3f e14a 933e a713 07bd e33a 51bb
00000210: 1de6 c4bd 5839 8dbc 69ec 043e c19e fa3d
00000220: 063d f23d f203 c43d 1eab ddbc ad67 cebb
00000230: 2863 4d3d 3696 673d 9d1e 39bc 42bc e4ba
00000240: fc71 a8bc f78f aeba 9ffa 0c3f fadc 933e
00000250: 1e20 9ebc 9273 343a 88ee cfbc 4a03 053c
00000260: 5c33 62bc 3fe1 49bb c308 a83e 74ec 693e
00000270: 2ba7 163f f828 7a3e 8e33 d0bb d50a 96ba
00000280: aea3 41bc e088 3b3c 8e97 1b3f bda1 ab3e
00000290: d66b 98bc 2652 16bb c795 6ebc a56c 123c
000002a0: f020 153f fcc4 683e 56b3 383d 38ae 803d
000002b0: ca39 843c 7533 e63c f2f4 fabc 192d 31bc
000002c0: 3ddd 35bc b9b5 b6ba 84ec a8bc 5208 83bb
000002d0: 59be 06bd fef4 41bc 5cbd 9ebc 6e7b 39bb
000002e0: ec94 23bc b71c 46bb c4e6 3abd 8f49 32bb
000002f0: f7cd 9bbc f9b0 c1bb 8d0f 183f c2e2 9e3e
00000300: 7934 65bd 973d 4abc 6389 28bc 68cf 3abb
00000310: 9cc7 7abb c5a6 6a3b 0299 17bd 6b51 96bb
00000320: cadf dbbc 96f6 e6bb 1b4a 1dbd 6537 84bc
00000330: f728 bbbb 3d87 c4b9 a685 0a3f 2fab 5f3e
00000340: db4b 26bc 5ad3 593c 32e9 e9bb b7dc 4839
00000350: 5635 593e b046 443e f862 f13a 1d98 fdba
00000360: 3acb 013c 1824 843c 0631 063f 8363 983e
00000370: 56f0 55bd 183a a6bb 307b 2ebc e970 1ebb
00000380: 0781 473d 588b 6e3d 0b8b af3e acf3 733e
00000390: b47e b83e 0468 523e 20a3 70bc 00e1 d3ba
000003a0: 14f8 05bd c297 d8bb d51b 47bc e126 44bb
000003b0: 1205 2c3e fba6 0b3e 618a 963e 94dc 5c3e
000003c0: f080 80bb fe9b 8cbc 9783 fa3d c194 4b3e
000003d0: 9cac 7f3c f45e 8e3c 89c4 8fbb 4213 04bd
000003e0: aad8 383b a7e3 80bc 3f6f 893e 17fb ab3e
000003f0: 739f 99bb 6c36 23bc 43c8 013b 3877 06b8
-0.022796437 -0.007897206 0.13435239 0.12617624 -0.008064539 0.0050562806 -0.035448294 -0.013572702
-0.03113917 -0.011004893 0.33014524 0.21868692 -0.012358444 -0.00027158525 -0.0118644545 -0.002436647
0.30015188 0.16396932 0.52379483 0.29228863 -0.024424642 -0.003053548 -0.015856167 -0.0016566546
-0.030732227 -0.0038567767 0.27616388 0.20931315 -0.04202247 -0.0068051806 -0.023637522 -0.002999608
0.025729066 0.048210822 7.0696333e-06 -3.3507848e-05 0.052426465 0.04750887 -0.018875772 -0.001967715
0.08345833 0.03903758 0.3797413 0.21603909 0.6657045 0.35827175 -0.03963875 -0.0017680484
-0.010712509 -0.0029741782 -0.020524466 -0.0023984606 0.22482671 0.1856545 0.54325765 0.30653802
0.5308347 0.24419485 -0.017348154 -0.00093011453 0.06348701 0.071124636 -0.011418774 0.0069174543
-0.08651482 -0.013485046 0.6223753 0.25392613 -0.029655479 -0.0010848816 -0.017140582 -0.004479992
0.19853461 0.18602622 -0.023925573 -0.0059802937 0.014235671 0.034310497 0.23187123 0.09013909
-0.006238917 -0.0015345236 -0.01027869 -0.0021790194 -0.06361377 -0.0005631262 0.4796748 0.27398047
-0.010221844 -0.001840418 -0.041199453 -0.000717729 -0.054417465 -0.005047972 -0.028796263 -0.008967988
0.54931515 0.32635432 -0.062104486 -0.006754676 -0.0073691383 -0.0018810978 -0.0171476 -0.0010732734
0.5463893 0.22285528 -0.09414066 -0.017383894 -0.030426115 -0.005478638 -0.036213905 -0.002267257
0.35821462 0.21731597 0.10430941 0.08566247 -0.06285636 -0.009432341 -0.011648218 -0.0027397678
0.06302601 0.078940526 0.26530445 0.19764593 -0.018441986 -0.0013045594 -0.036944505 -0.0095326025
0.61519945 0.28768066 -0.032977726 -0.0031925968 -0.09614203 -0.017239258 0.12980808 0.12237311
0.118280455 0.09571065 -0.027059134 -0.00629898 0.05014339 0.056539737 -0.011298803 -0.0017451125
-0.020562164 -0.0013318051 0.5506992 0.2887953 -0.019302424 0.00068836764 -0.025382295 0.00811846
-0.01380619 -0.0030804423 0.32819185 0.22844106 0.5884883 0.24429691 -0.006353802 -0.001144732
-0.011818809 0.011446208 0.6077813 0.33521834 -0.018606108 -0.0022937148 -0.014562077 0.008937036
0.58253384 0.22731394 0.045092903 0.062832296 0.016140837 0.028100708 -0.030634377 -0.010813975
-0.011100111 -0.0013939656 -0.020620592 -0.0039987946 -0.032896373 -0.011838196 -0.019377403 -0.002830233
-0.009984236 -0.0030229518 -0.04563023 -0.002720449 -0.01901911 -0.0059109894 0.5939873 0.31032377
-0.055958245 -0.012343786 -0.010286662 -0.0028504971 -0.003826595 0.0035804969 -0.037011154 -0.0045873425
-0.02684011 -0.0070484383 -0.03840075 -0.016139695 -0.0057116705 -0.00037484794 0.5411018 0.21842645
-0.010149921 0.013295019 -0.0071383948 0.00019155709 0.21211752 0.1916759 0.0018416336 -0.0019347701
0.007921988 0.016130492 0.52418554 0.2976342 -0.052231155 -0.0050728433 -0.010649487 -0.0024176186
0.048707034 0.058238357 0.3428577 0.23823422 0.36034167 0.20547491 -0.0146873295 -0.0016165078
-0.03270729 -0.006609888 -0.012152632 -0.00299304 0.16798809 0.13637917 0.2940245 0.21568519
-0.0039216205 -0.017164227 0.1223213 0.19880964 0.015605118 0.017379262 -0.0043874425 -0.03224493
0.0028205314 -0.015733553 0.26842687 0.33590004 -0.0046881973 -0.009961706 0.0019803203 -3.205912e-05

weight_hh_l0 f4 [480, 120]
00000000: d138 55ba 9892 1bbb 8fbf ad3a 5516 17bb
00000010: be82 0cbb 11ff 4dbb f34a 25ba 5ae6 26ba
00000020: aea2 14bb c40e ac3b d189 a23a 18bd 6dba
00000030: bc55 c23a c430 6f3b 736d 3c3b 5b02 8e3a
00000040: 9664 e3ba f29a f136 b40a eb3a 520d 78ba
00000050: fade f1ba 4f2a 49bb 9952 a43b 4c61 bf3a
00000060: 08d6 4c3a 9e32 883a da95 19bb 25fd 933b
00000070: 51d3 e83b f9f9 6e3a 947f cc3a a8c4 fdb9
00000080: be04 bb3a ab94 09bc f079 81ba 23dd 673a
00000090: 8b0b 663b d6bd 70ba 28d1 55bb 84a6 0abb
000000a0: 7d09 a4b9 b1cb 14ba 2f25 f33a 32ad 9bbb
000000b0: 5e28 0d3a 2278 c83a 9bfd bcba cb9c 2abb
000000c0: 4f0b 87bb b93c e2ba ebb6 00ba 09e6 7f3a
000000d0: 96c7 16bc 2531 ce3a 32a0 1bbb 0d3b b6ba
000000e0: ad5f 223b 81ee 38bb c44b b53a eb0c 08ba
000000f0: a33c 5fbb 806c 3abb 19d1 933a a659 853a
00000100: f8ca d03b 5beb b0ba 7d73 beba b2a6 87bb
00000110: 4092 1b3b fac0 93ba c8bc 7c3b 5685 d9b9
00000120: 2b70 643a f23b 953b 9510 843a a988 8fbb
00000130: 1405 3aba 609c 8c3b f41f fb3b 8751 f139
00000140: 8780 47bb d6ec 7cbb a65e 62ba fe23 32bb
00000150: 14bc 0fbc f782 9ebb c81d 68bb b271 f53a
00000160: 10e8 43ba 391c 81ba 912d d6ba 7633 933a
00000170: aac6 e9b9 05c0 c83a e134 a53a 8f3a bcbb
00000180: 5984 31ba 0c36 2b3a c902 0bbb c9c6 8f3a
00000190: f751 803a 1e81 a33a e8ea 04ba 3a1d 1b3c
000001a0: 5950 74bb 9ab5 6a39 cbdd 6d3b 34a1 d3b8
000001b0: 1de7 02bb 93ea 9b3b 7dae beba a890 093a
000001c0: a89a 363b ce89 4b3b 4174 223b 3db5 56ba
000001d0: 53bd a3ba c08f 3a3a 1df3 5fbb 8211 413b
000001e0: 66ae ac3c f00e b63d 5258 31bd 4a79 1c3d
000001f0: 6072 2a3d 28d1 043e 985a 563c 9252 d73c
00000200: 32ae cf3d 4070 41be 6141 01bd e54f da3c
00000210: 3f85 75bc ca09 0ebe 95a6 7abd 6bca 06bd
00000220: 7d32 933d 590c 52b9 d215 84bd 8776 113d
00000230: 47a3 593d d673 063e 0c91 2fbe 3db1 1bbd
00000240: 0b03 e8bc f69a 02bd 67df d63d 33eb 34be
00000250: 5a03 4bbe d9ec a5bc 16c4 89bd cb65 aa3b
00000260: a316 34bd 0c8d 463e 338f cb3c f1ac cbbc
00000270: 92e2 02be 1a6d 073d d34b a43d e638 b03d
00000280: 9090 823c 8cba a53c 14e5 43bd c910 383e
00000290: 1961 8ebc 4d1e 23bd 6911 153d b9f7 363d
000002a0: 26a7 283e 6d69 3a3d 43dc a53c 28ba a8bc
000002b0: 04af 563e 45e2 3fbd 10e1 4b3d 6bb3 133d
000002c0: 550c d9bd a11f b63d 5214 1bbd 3874 b13c
000002d0: 9661 b03d a9fc e83d ccaf 08bd 8257 05bd
000002e0: 7c38 4dbe c601 183d 5dd3 4e3d 2eae e23d
000002f0: 48e4 b6bd 2bc7 f13c a428 a1bd cbbe 7c3c
00000300: 887f afbc 8c7a 31be d791 e4bc bae0 a93d
00000310: e388 a53c b24e 23be bc9a 3dbe 77dd 9bbc
00000320: 4285 853d f860 1c3e 8c06 ec3c f28b 6c3d
00000330: d268 523e afbd ca3d e1ed 893d a61e 30bd
00000340: c74f ef3c 3fa7 003d 394f 023d 66d9 17bd
00000350: 64e7 ae3c d80b 21bd 2580 84bc 7a3b 3a3e
00000360: eabe da3c f2fa d2bc 4260 253d 96d0 f4bc
00000370: 781c 05bd 5040 24bd 146a c53c dc87 50be
00000380: 9f51 9b3d e80e 17bc b505 08be 1265 d7ba
00000390: 8f2f 383d c778 3cbe b01e 193d 8cf7 cabc
000003a0: 6e9b aebd 6409 03be 6821 dabd 791c c63c
000003b0: 9ea2 0e3d 5a8c b8bc a6ac c13d 5326 f4bd
000003c0: ddd0 863a d77c cc3b 0a11 53bb 6332 2a3b
000003d0: 3dea 403b e7ab 103c 0291 0d3a ba8f ee3a
000003e0: c140 e23b 3bcd 5bbc 1bc2 0fbb 4117 ef3a
000003f0: fec5 a1b9 cc1f 20bc 475a 98bb 58e5 14bb
-0.00081337715 -0.00237385 0.0013255941 -0.0023054082 -0.0021440233 -0.003143255 -0.0006305419 -0.00063667225
-0.0022679972 0.0052507836 0.0012400692 -0.00090690097 0.0014826576 0.0036497572 0.002875176 0.0010834442
-0.0017348703 7.2003977e-06 0.0017932267 -0.0009462434 -0.0018453293 -0.0030695384 0.005014729 0.001460114
0.00078138756 0.0010391062 -0.0023435266 0.004516261 0.007105269 0.00091162283 0.0015601986 -0.0004840244
0.0014268381 -0.008397262 -0.0009878259 0.00088449026 0.0035102095 -0.0009183561 -0.0032625888 -0.002115638
-0.00031287587 -0.00056761043 0.001855051 -0.004750871 0.00053847383 0.0015294591 -0.0014418842 -0.0026033397
-0.004121221 -0.0017260528 -0.00049100694 0.0009761756 -0.009202858 0.0015731199 -0.0023746607 -0.0013903097
0.0024776265 -0.0028218331 0.0013831784 -0.0005189913 -0.0034063242 -0.0028446019 0.0011277526 0.0010173812
0.006371852 -0.0013497876 -0.0014530268 -0.0041397447 0.0023738295 -0.0011272721 0.003856467 -0.00041488808
0.0008714224 0.004554265 0.0010075743 -0.004380305 -0.00070960936 0.0042911023 0.007663721 0.00046027845
-0.0030441599 -0.0038593314 -0.00086353195 -0.0027182098 -0.008772869 -0.0048373896 -0.0035418142 0.00187259
-0.00074732397 -0.000985033 -0.0016340484 0.0011230547 -0.0004458924 0.0015316015 0.001260426 -0.0057442854
-0.00067717355 0.0006531186 -0.0021211377 0.0010969277 0.0009790052 0.0012474393 -0.0005070404 0.009467417
-0.0037279336 0.00022383631 0.003629553 -0.000100912905 -0.001997418 0.004758188 -0.0014547851 0.0005247691
0.0027863178 0.003105748 0.002478853 -0.0008190459 -0.0012492336 0.00071167573 -0.0034172006 0.0029459898
0.021079253 0.08889568 -0.04329712 0.038201608 0.041612983 0.12970412 0.013083123 0.02628449
0.10140647 -0.18890476 -0.03155649 0.026649425 -0.014985382 -0.13870922 -0.06119402 -0.032907885
0.07187364 -0.0002003176 -0.064494744 0.035513427 0.05313423 0.13130125 -0.17145175 -0.038010824
-0.028321764 -0.031886064 0.10491829 -0.17667846 -0.19825497 -0.02025454 -0.067268535 0.005200123
-0.0439669 0.19389743 0.024848556 -0.024862738 -0.12781742 0.03306303 0.08022275 0.086046025
0.015938073 0.020230554 -0.047825888 0.17975153 -0.017380284 -0.03982382 0.036393557 0.04466984
0.16470012 0.045510698 0.02024663 -0.020596579 0.209652 -0.046846647 0.049775183 0.03605978
-0.10598055 0.088927515 -0.037861176 0.021661863 0.08612363 0.11376316 -0.033370778 -0.032554157
-0.20041078 0.037111066 0.05049454 0.110683784 -0.0893026 0.029513916 -0.0786908 0.015426348
-0.021423116 -0.17331904 -0.027901573 0.08294816 0.020206874 -0.15947989 -0.18516058 -0.019026501
0.065195575 0.15271366 0.028811716 0.05775065 0.20547798 0.098994605 0.06734825 -0.04299798
0.029212845 0.0314095 0.031813834 -0.03707256 0.02135057 -0.039317936 -0.016174385 0.18186751
0.026702363 -0.025754426 0.040375 -0.029884618 -0.032497853 -0.040100396 0.024098434 -0.20364326
0.07583927 -0.0092198625 -0.13283427 -0.001643332 0.04496723 -0.18405448 0.03738278 -0.024776243
-0.085257396 -0.12796551 -0.10650903 0.024183499 0.034823053 -0.022527862 0.09456758 -0.11921372
0.0010285635 0.006240468 -0.00322062 0.0025969974 0.0029436492 0.008830047 0.0005400331 0.0018200793
0.006904692 -0.01341563 -0.0021935764 0.0018241183 -0.0003085583 -0.009773206 -0.004649434 -0.0022719707

bias_ih_l0 f4 [480]
00000000: ddfe 94bc 34b5 943d 3f8a 60bb a905 9abc
00000010: 8c66 81bc e502 3f3e 32ae abbc b659 82bd
00000020: a89f fe3d 7e1c eb3e 53ad 44bd 97b3 1cbd
00000030: f8fd a2bc 3a69 493e 2764 64bc ed76 3ebd
00000040: e9f5 063d 551e 1c37 82e2 ad3c aaca 56bd
00000050: d682 fb3c 9e80 273e a367 cc3e 4ae2 2fbd
00000060: 2db6 bebd bb9f 48bd aec6 fa3d e7af c63e
00000070: ce83 083f e399 06bd b95f 093d 6b04 36bc
00000080: 82d0 70bd 002a 0c3f 3363 0fbd 9d00 61bd
00000090: 3f85 243e 592b 0cbc 358c f93c 0975 ad3d
000000a0: 5be4 4abd 3685 21bd 3ec6 2abd a21a c23e
000000b0: 9c8e e8bc a54a 2cbd 03fc 26bd 0f14 95bc
000000c0: 2f6b b33e c045 33bd 3808 90bd 6263 1ebd
000000d0: 2b2c 1b3f d49e 40bd af2e 50bc 8282 44bd
000000e0: 5a1c 263e 7282 5b3d 988a 58bd 07ff 55bd
000000f0: 44a5 583d 2855 273e 3804 34bd 4c5b 8bbc
00000100: 5aad 0c3f f23c 35bd 5e46 51bd d243 e03d
00000110: 347a 5e3d d9a5 56bd d562 183d e049 ccbc
00000120: 2cbf 2bbd a2b2 c23e 4c1d dfbc 086c 2bbb
00000130: 0440 3cbd b721 8a3e c3b6 f93e fc2d 57bd
00000140: f4fd c43b b191 9c3e 5de4 25bd 732d 15bc
00000150: 7083 123f eb15 753d 9818 223c f3ce 8bbc
00000160: 0ecb 79bd 5f2b 76bd 58fe 85bc b1b6 9fbd
00000170: 4613 adbd f14c 6cbd b917 4abc dd97 e73e
00000180: 5058 bbbc fb45 abbd c347 e6bb 2f48 80bd
00000190: 2daf 80bd a3e7 fdbc 59d9 9abd 5fbc 193f
000001a0: 713b a83a 0cfb 8cbc e9f7 3b3e e190 43bb
000001b0: 6e27 403b 1e82 d13e 9af1 28bd 75f1 9bbd
000001c0: 0201 453d ff59 4e3e 6b10 163e 2030 0dbd
000001d0: 9400 5dbd 8f1e 49bd 3f3c c03d 8d13 3e3e
000001e0: 3481 f2bb 7f71 833d b5be a63b 9eb5 20bc
000001f0: f3ca 9ebb 8aad f53d 63f2 a4bb c4aa eeb9
00000200: 2baa 9d3d 0b0d b03e 9f31 94bb fa0e 10bb
00000210: 049c 13bc 1e75 513e d668 6339 6409 04bb
00000220: c617 f03c b4b4 99b6 20f3 f13c 8da2 d739
00000230: 1547 9c3c 9a14 443e cf68 af3e a0d2 f0bb
00000240: d646 7eb9 d070 a3ba fc49 de3d bd49 ae3e
00000250: ec0a ae3e acf3 95bb ea39 293d 3a1d c8bb
00000260: 22c3 dbbc e0dd 9b3e e7c2 23bc 380e 6dbb
00000270: 8635 003e dde3 caba 4017 023d d3ae 453d
00000280: 966f 3cba 9398 c4ba 775b a3bb 4010 673e
00000290: 8606 1fbb c318 fabb b24b 6abc 40ea f8ba
000002a0: 400c 663e 2ac2 31bc 6c52 feb9 b130 71bb
000002b0: e387 be3e 901e f6bc 70b1 09ba a49c 07bc
000002c0: 2a5b e83d 01ec 3e3d 0940 bcbc 2cb9 c1ba
000002d0: 9840 703d a52e 3e3e ea38 5c39 8d33 92bb
000002e0: c49f c33e 5594 b8bb ee61 a0bc 6ea5 d33d
000002f0: 10b9 b63d 68b2 d1bb d4be 3d3d 98d0 6bbb
00000300: c2a9 f1bb c724 763e 6718 99ba 4089 213c
00000310: 0349 51bb 2296 483e 7c0e 853e 0c61 ae38
00000320: a3ba 453c 3ab7 943e d289 a5ba bfb6 403c
00000330: 7da4 b03e eec3 833d e4f4 af3c ed23 b1bb
00000340: 3f9e 6a3a 2845 f3ba 54e0 acbb 9d05 183a
00000350: 73e8 b9ba e214 5abc aa13 a2bb c3be af3e
00000360: ccc3 babc 16c5 4aba ce6a a63b f39d 50bc
00000370: 0a24 96bb 201c 55bc 67b8 943a 3574 a43e
00000380: fa3f 4b3c 6f56 16bb da29 153e c2bd 4c3a
00000390: 04fc 733c edd2 953e c57a 58bc 94c3 0aba
000003a0: 4f70 463d 5813 1a3e 0dd4 323e 49a7 14bb
000003b0: 7b18 d2bb bed0 03bb b4f1 bb3d 1189 463e
000003c0: c82b 8d3d 8b0a 663e e11d eabd 588f f53d
000003d0: 5d21 eb3d 73af b93e 8873 a43c 3d12 d83d
000003e0: 6dd0 8c3e fec4 08bf c946 91bd 82c5 b13d
000003f0: 7b9f 87bd 5105 afbe 3560 04be 3790 90bd
-0.018187935 0.07261124 -0.0034262089 -0.018801527 -0.015795968 0.18653448 -0.020957086 -0.06364767
0.12432796 0.45920175 -0.048016857 -0.038257208 -0.019896492 0.19669047 -0.013939894 -0.046500135
0.032949362 9.305387e-06 0.021226171 -0.05243937 0.030702036 0.16357657 0.3992282 -0.042940415
-0.09312091 -0.048980456 0.122449264 0.38806078 0.5332612 -0.0328616 0.033538554 -0.011109452
-0.0587926 0.54751587 -0.035006713 -0.054932225 0.16066454 -0.008555257 0.030462364 0.08469588
-0.049534183 -0.03943368 -0.041692965 0.37910944 -0.028388314 -0.042063374 -0.04076768 -0.018198041
0.35042712 -0.04376769 -0.070328176 -0.038668998 0.6061427 -0.04702647 -0.012706443 -0.047976024
0.16221753 0.0535912 -0.05286655 -0.052245166 0.052891985 0.16341078 -0.043949336 -0.017011307
0.54952013 -0.044247575 -0.051092498 0.10950436 0.05431576 -0.05240426 0.03720363 -0.02493757
-0.041930363 0.3802691 -0.02723565 -0.002615692 -0.045959488 0.26978847 0.4877225 -0.05253409
0.006011719 0.30579904 -0.040500987 -0.009105074 0.5723181 0.059835356 0.009893559 -0.017066455
-0.060984664 -0.060099956 -0.016356632 -0.077985175 -0.08450942 -0.057690565 -0.0123347575 0.4523305
-0.02286926 -0.08362957 -0.0070275976 -0.06263768 -0.06283412 -0.030994242 -0.07560987 0.60053056
0.0012835098 -0.017209552 0.18356289 -0.0029840993 0.0029320377 0.40919584 -0.041246034 -0.07614414
0.048096664 0.20151518 0.146547 -0.034469724 -0.05395563 -0.04910141 0.09386491 0.18562146
-0.007400656 0.06418132 0.005088652 -0.009808926 -0.004845971 0.119959906 -0.0050337776 -0.00045522128
0.076984726 0.3438495 -0.004522517 -0.0021981583 -0.009009365 0.20454833 0.00021687461 -0.0020147199
0.029308211 -4.580792e-06 0.029534876 0.00041129105 0.019076863 0.19148484 0.3425965 -0.007349327
-0.00024249716 -0.0012469534 0.10853955 0.34040633 0.33992708 -0.004576167 0.041314997 -0.0061069997
-0.026826445 0.30442715 -0.009995199 -0.0036171805 0.12520418 -0.0015479286 0.031760454 0.04826243
-0.00071882585 -0.0014999084 -0.0049852687 0.22564793 -0.0024265363 -0.0076323464 -0.014300274 -0.001899071
0.2246561 -0.010849515 -0.00048508064 -0.0036802704 0.37213048 -0.03004387 -0.00052525755 -0.008277092
0.11345513 0.04661179 -0.022979753 -0.0014779917 0.05865535 0.18572481 0.00021002037 -0.0044617117
0.3820783 -0.005632917 -0.019577947 0.103342876 0.089220166 -0.0063994415 0.046324566 -0.0035982486
-0.007374973 0.24037467 -0.0011680246 0.009859383 -0.0031934388 0.19588521 0.25987613 8.315043e-05
0.012068423 0.2904604 -0.0012629575 0.01176232 0.34500495 0.06433855 0.021479078 -0.005405894
0.0008949972 -0.0018560039 -0.0052757654 0.0005799176 -0.0014183655 -0.013310643 -0.004946192 0.34325227
-0.022798441 -0.00077350566 0.00507865 -0.0127329705 -0.004581933 -0.013007194 0.001134646 0.3211991
0.01240539 -0.0022939702 0.14566746 0.00078102585 0.014891628 0.29262486 -0.013212864 -0.00052934256
0.04844695 0.15046442 0.17463703 -0.0022682718 -0.0064116097 -0.0020113434 0.091769606 0.19388224
0.06893116 0.2246496 -0.1143148 0.11990231 0.11480973 0.3626667 0.02007462 0.10550354
0.27502766 -0.53425586 -0.07093579 0.0868025 -0.06622215 -0.34183744 -0.12927325 -0.07058757

bias_hh_l0 f4 [480]
00000000: 43a1 94bc 4eb6 943d e0e6 67bb 0224 9ebc
00000010: 021e 7dbc b503 3f3e 27f1 abbc fb51 89bd
00000020: 4ba4 fe3d e211 eb3e e295 4abd aa4c 11bd
00000030: 410c a4bc 032a 493e 6644 64bc 60e6 3fbd
00000040: 63d7 063d 8575 1c37 4de6 ad3c bfd9 51bd
00000050: b5da f83c 1382 273e fe66 cc3e 7adb 33bd
00000060: 88db b0bd 8541 3dbd 5fc6 fa3d 159e c63e
00000070: 95c2 083f 7b8c 06bd e15f 093d 1cf1 35bc
00000080: 6a0f 71bd 4d35 0c3f c4b0 10bd 9503 62bd
00000090: 31b1 243e 2824 0dbc 94e0 f93c 626f ae3d
000000a0: db5f 4fbd 805e 26bd 5cf4 2abd e75b c23e
000000b0: 17cf dfbc 2e12 29bd c847 27bd d133 95bc
000000c0: 4165 b33e d3e7 33bd 3dda 9cbd dd8b 20bd
000000d0: f22d 1b3f 8ca9 40bd 4e5c 49bc bc6a 45bd
000000e0: c61a 263e d4bb 5d3d a2cd 57bd 1fa2 69bd
000000f0: 69d2 583d b351 273e e536 41bd 4c59 8bbc
00000100: 46ac 0c3f 0fc1 39bd f048 51bd ea91 e03d
00000110: 79a8 5e3d 71a6 49bd 4218 193d 8c29 ccbc
00000120: 480b 28bd 94ce c23e edee debc 3cc1 35bb
00000130: 9d26 58bd e324 8a3e 6d77 f93e 1180 3bbd
00000140: 3688 d73b 7e92 9c3e d79c 2ebd 56fe 14bc
00000150: 920b 133f c712 763d ee37 233c f669 8cbc
00000160: 4e4a 91bd 793e 6bbd 67d7 82bc dc11 94bd
00000170: 9fb2 8ebd ce57 69bd a3a8 4abc fc9b e73e
00000180: 8a5e bbbc e545 a6bd 8d6b ecbb 9d7a 7dbd
00000190: 06c9 7cbd f0bd fbbc e1c4 99bd eec8 193f
000001a0: 3e2a 823a 73f8 8cbc b7e3 3b3e 052a 45bb
000001b0: 9125 473b ce67 d13e 496b 29bd b2b7 afbd
000001c0: b827 443d e050 4e3e 6013 163e 43f4 06bd
000001d0: cd73 70bd 23be 52bd 222e c03d 4cd3 3d3e
000001e0: 0dea f1bb 4a48 833d b068 a63b 891c 20bc
000001f0: bbdd 9ebb 9609 f63d ed39 a5bb 46f2 eeb9
00000200: 2c9a 9d3d 8249 b03e ed97 94bb 49e9 0fbb
00000210: 3f04 14bc a9b6 503e 86de 5d39 adf1 03bb
00000220: 6ac2 ef3c cbcc 99b6 dbc8 f23c ad82 d739
00000230: 9e74 9c3c 4724 443e bc04 af3e e0cf f0bb
00000240: a84e 7eb9 4e83 a3ba b81d de3d 7945 ae3e
00000250: be0e ae3e 92aa 95bb 11b9 293d 1f3d cabb
00000260: 2b91 dbbc edd6 9b3e 3fc9 23bc 0019 6dbb
00000270: 9346 003e df49 caba 67b5 013d d3d7 453d
00000280: 7987 3cba 3ea4 c4ba 6fe9 a2bb 5a1a 673e
00000290: d590 1ebb 8842 fabb bf2d 6abc 9417 f9ba
000002a0: 52d6 653e 777b 31bc 957e feb9 6958 71bb
000002b0: 9273 be3e c1af f4bc 0623 06ba ec3f 07bc
000002c0: bce2 e73d c256 3e3d 1b01 bcbc 8fc7 c1ba
000002d0: 712c 703d c7ac 3e3e 8c2c 5f39 f98f 92bb
000002e0: 52d8 c33e ac05 b8bb df5e a0bc 7c12 d43d
000002f0: 6436 b63d 3ea9 d1bb 48c0 3d3d 23b7 6bbb
00000300: 1a8a f1bb f534 763e 013b 99ba 2384 213c
00000310: df49 51bb cc74 483e 8d13 853e 362b af38
00000320: cbc7 453c fedd 943e 22dd a5ba a6e6 403c
00000330: 80bb b03e bdb3 833d e828 b03c c72b b0bb
00000340: 8ddb 6a3a 3217 f3ba cf8e acbb caff 173a
00000350: 60d0 b9ba 621a 5abc 2c1e a2bb 19bb af3e
00000360: eb59 babc f1b9 4aba 6bad a63b c639 51bc
00000370: 111a 96bb 1875 55bc 76d7 943a b572 a43e
00000380: ed1b 4b3c 8621 16bb 81e9 143e 9c8e 553a
00000390: 5a37 743c adc7 953e 5b7a 58bc 44c4 0aba
000003a0: 08a3 463d fb10 1a3e 2c8f 323e 98ff 14bb
000003b0: 6370 d2bb 93b0 03bb 15f1 bc3d 8760 463e
000003c0: 55a0 873d a994 7d3e 1915 f6bd 7609 a63d
000003d0: 2f70 e73d 76bd aa3e 8145 823d b119 ca3d
000003e0: 1221 973e 8dbe 05bf 5c8e 12be c4fb ad3d
000003f0: 6372 20bd b129 b1be 6d4d 21be 8817 1dbe
-0.018143302 0.07261334 -0.0035385415 -0.01930428 -0.015449049 0.18653758 -0.020989014 -0.0670509
0.1243368 0.4591208 -0.049459346 -0.035473503 -0.020025374 0.19644932 -0.013932323 -0.046850562
0.032920253 9.325687e-06 0.02122798 -0.05123305 0.030377725 0.16358213 0.39922327 -0.04391048
-0.08635622 -0.046205062 0.122448675 0.38792482 0.5342191 -0.032848816 0.033538703 -0.011104848
-0.05885259 0.5476883 -0.035324827 -0.055179197 0.16083218 -0.008614577 0.030502595 0.08517338
-0.050628524 -0.040617466 -0.041736946 0.3796074 -0.027320428 -0.041277103 -0.04083994 -0.018213185
0.35038188 -0.043922257 -0.07658813 -0.039195884 0.6061698 -0.047036693 -0.012290074 -0.048197493
0.16221151 0.054134205 -0.05268634 -0.057039376 0.052935038 0.1633976 -0.047171492 -0.017010354
0.5495037 -0.04535013 -0.05109495 0.10965331 0.054359887 -0.049230997 0.03737665 -0.024922155
-0.041026384 0.38048232 -0.027213538 -0.0027733585 -0.0527712 0.26981267 0.48723927 -0.04577643
0.006577517 0.30580515 -0.042630043 -0.009093842 0.5743953 0.0600765 0.009962065 -0.01714037
-0.070942506 -0.057432625 -0.015971852 -0.07229969 -0.06967663 -0.056968503 -0.012369308 0.45236194
-0.022872228 -0.081188 -0.0072149695 -0.06188451 -0.06171515 -0.030730218 -0.07508255 0.6007222
0.0009930802 -0.017208314 0.18348585 -0.003008486 0.0030387382 0.4089951 -0.04136208 -0.08579959
0.04788944 0.20148039 0.14655828 -0.03294779 -0.058704186 -0.05145086 0.09383799 0.18537635
-0.0073826374 0.064102724 0.0050783977 -0.009772428 -0.0048482097 0.12013547 -0.0050423057 -0.00045575405
0.076954216 0.34431082 -0.0045347125 -0.0021959117 -0.0090342155 0.2038218 0.00021159099 -0.0020133064
0.029267509 -4.5835964e-06 0.029636791 0.00041105357 0.019098576 0.19154464 0.341833 -0.0073489994
-0.0002425263 -0.0012475045 0.10845512 0.34037378 0.33995622 -0.0045674527 0.04143626 -0.006171837
-0.02680262 0.30437413 -0.009996711 -0.0036178231 0.12526922 -0.0015433392 0.03166714 0.04830153
-0.0007191818 -0.0015002561 -0.004971675 0.22568646 -0.0024195213 -0.0076373257 -0.014293133 -0.0019004219
0.22445038 -0.010832659 -0.00048540966 -0.0036826378 0.37197548 -0.029868962 -0.0005116913 -0.008254986
0.11322543 0.046469457 -0.022949746 -0.0014784205 0.058636133 0.18620597 0.00021283532 -0.0044727293
0.38250977 -0.0056159105 -0.019576488 0.10355088 0.08897093 -0.006398349 0.04632595 -0.0035967312
-0.0073711993 0.24043639 -0.0011690558 0.009858164 -0.00319349 0.19575804 0.2599148 8.352699e-05
0.01207156 0.29075617 -0.0012654404 0.011773741 0.3451805 0.06430767 0.02150388 -0.0053763124
0.0008959107 -0.0018546341 -0.0052660475 0.00057983084 -0.001417648 -0.013311954 -0.0049474444 0.34322432
-0.022747954 -0.0007733396 0.005086591 -0.012770122 -0.004580744 -0.013028406 0.0011355716 0.32118765
0.012396795 -0.0022908165 0.145422 0.00081465556 0.014905775 0.29253903 -0.013212766 -0.0005293528
0.048495322 0.1504554 0.17437428 -0.0022735354 -0.006422089 -0.002009426 0.0922567 0.1937276
0.06622378 0.2476374 -0.12015743 0.08107273 0.11300694 0.33347672 0.06360913 0.098681815
0.29517418 -0.5224388 -0.14312118 0.08495286 -0.039171588 -0.3460212 -0.15752192 -0.15341008

weight_ih_l1 f4 [480, 120]
00000000: 4861 c5bd fb8e c2be 77bb 4f3e 5680 50be
00000010: f8ec 27be 04e6 e6be 59cb c8bd 6ea1 28be
00000020: 050b bebe 520d 123f 2681 433e 89cd 1cbe
00000030: fc01 3b3d 552a 063f d15c ad3e d76c 4a3e
00000040: f5f7 bdbe f88d 3d3b d1b1 b23e 7b62 58be
00000050: 5d04 85be 0173 04bf 0503 193f 5304 613e
00000060: ec8c 333e b1b2 413e 156d d9be 9eac 0f3f
00000070: 8c81 133f 4fc7 133e b159 cb3e ce18 4fbd
00000080: eeda 8e3e 1b79 22bf 3961 35be 1580 243e
00000090: 8e61 de3e 66e9 1bbe 945a ccbe 01b6 c8be
000000a0: 7d90 cabd 1326 05be 263f 8f3e 064a 05bf
000000b0: 8db6 d83d f47d 713e dcce 69be 92a6 56be
000000c0: 328a 00bf 5cc8 88be 1a59 00be e355 0e3e
000000d0: 31cf 19bf 5a25 923e 665a 65be d8ec 5ebe
000000e0: 92f7 c53e 53cb b2be 56dc 763e b4f8 03be
000000f0: 7f1e d2be b204 f7be 3db4 473e 27fb 723e
00000100: d58c 163f 3cca 5abe 32e0 95be b16e e9be
00000110: e6ff e13e 1283 41be 908b ba3e e02b 0bbe
00000120: fdd0 1d3e bdfb 073f 690d 273e 6bcb 99be
00000130: c1c6 0abe 827c 043f 3c8f 173f dae9 ed3d
00000140: 280c aabe 75d8 07bf a982 2ebe d6ce a4be
00000150: f377 1bbf 3216 d7be 7d69 a4be 5c3f 733e
00000160: 3a67 38be eead 3ebe 6f15 24be 2fa7 5f3e
00000170: df9e 09be a3ab 793e 50a2 8d3d 695c 18bf
00000180: efb4 25be 904b 203e 1a75 51be d0e1 533e
00000190: 8f73 5e3e 8658 373e 6e2d 19be 0ded 173f
000001a0: 9575 9bbe f726 8e3d bf32 f43e c3c2 c3bb
000001b0: 17c3 9abe 2345 0d3f 6f28 6dbe 494e 1f3e
000001c0: c988 ce3e a649 e33e f195 f23e 4e17 0ebe
000001d0: 3835 54be 863b 0e3e 036a d2be 9b4c ff3e
000001e0: 6356 a7bd 7e31 97be b57b 2c3e 30eb 1ebe
000001f0: 136d 42be f1f0 cabe 2f86 1cbd 681a 81bd
00000200: aa7c a5be 986e fc3e ffb0 9d3d c54d 7cbd
00000210: 6bae 313d ff44 c43e 16b4 533e 67a7 a13d
00000220: 089e 6cbe ea84 923a 7fec 4b3e 6f41 acbd
00000230: 820a 31be 0348 b1be 5ef6 e33e 2316 bc3d
00000240: f20b 8a3d b52a 9b3d 766e a4be eb67 e93e
00000250: 1505 0a3f dc1d 6d3d 3b23 463e 8e9a aebc
00000260: 8306 ff3d bd1b 01bf eecf 8dbd 7815 7c3d
00000270: c61e ce3e e441 fdbd fcc8 87be 9104 97be
00000280: 08fe 18bd f0cd 47bd 7abf fc3d f69b 04bf
00000290: 50f7 273d e440 c93d a388 bebd 77e6 47be
000002a0: 59c7 f9be 3e31 f1bd aad4 40bd 5cb3 5e3d
000002b0: 9ae8 05bf 564e 083e 9da5 56be ad44 b7bd
000002c0: 42ef b03e 4ad7 a9be 6d6e d33d 3da5 4dbd
000002d0: 798b 88be c3df a2be a5a5 a13d c1f9 ea3d
000002e0: 27db 023f fbcf b4bd 5806 13be f201 a6be
000002f0: 01a2 853e 9eed 98bd 254d 883e c992 5fbd
00000300: b4ad 823d 608e 013f a379 873d ed6d b3be
00000310: c688 4fbd cedf e73e 707a 043f e0de 363d
00000320: fb67 6fbe 0835 d5be 3cb7 89bd 4c7e 45be
00000330: cf50 07bf 68b4 a4be b7fb 80be 1e49 363e
00000340: 7c73 8ebd 42d8 98bd f065 f7bd add4 b33d
00000350: 1e6c 4ebd f3ce d33d 055f 633d da91 f3be
00000360: 3f37 adbd 58c8 763d cdd8 20be a42b b93d
00000370: a312 ac3d 92a5 443e 29a6 69bd 5209 0a3f
00000380: 755a 9bbe 5869 da3c c8de cd3e d730 8cbb
00000390: 7836 12be e95a 013f ecf6 c6bd 8e27 723d
000003a0: b97e 8d3e cb7e cd3e 8400 973e 0a21 66bd
000003b0: 06ce adbd 5cbe 5d3d 6c90 96be 183c a33e
000003c0: 7bf3 7bbd 6af6 62be ec4f 073e 45ee e0bd
000003d0: 58b6 14be c6c2 a6be f0ac f7bc ea44 58bd
000003e0: 9c38 8bbe a150 c03e ad3a 833d 992d 53bd
000003f0: 0992 1b3d 9d3d 893e e3c3 053e 2049 863d
-0.096376956 -0.3799971 0.20286356 -0.20361456 -0.1639899 -0.45097363 -0.098044105 -0.1646783
-0.37117782 0.57051575 0.19092235 -0.1531278 0.04565619 0.52408344 0.33859876 0.19768082
-0.3710324 0.0028923731 0.34901288 -0.21131317 -0.2597989 -0.5173798 0.5977023 0.21974306
0.17534226 0.18915822 -0.42466035 0.5612277 0.5761955 0.14431499 0.39716867 -0.050560765
0.27901405 -0.6346604 -0.17712869 0.16064484 0.43433803 -0.15225753 -0.39912856 -0.39201358
-0.0989084 -0.13002805 0.27977866 -0.52066076 0.10581694 0.23583204 -0.22832817 -0.20961979
-0.5021087 -0.26715362 -0.1253399 0.1389995 -0.60081774 0.28544122 -0.22397766 -0.21770036
0.38665444 -0.3492075 0.24107489 -0.12887841 -0.41038892 -0.4824577 0.19502349 0.2372862
0.5880864 -0.21366209 -0.2927261 -0.45592263 0.44140548 -0.18897656 0.36434603 -0.13590956
0.15411754 0.531185 0.1631371 -0.30038008 -0.13552381 0.51752484 0.59202933 0.11616869
-0.332124 -0.5306466 -0.1704203 -0.32189053 -0.60729903 -0.4200912 -0.3211173 0.23754638
-0.18008128 -0.18621036 -0.16023801 0.21841119 -0.13439511 0.2438188 0.06915724 -0.59516007
-0.16182302 0.15653825 -0.20454827 0.2069161 0.2172377 0.17904863 -0.14958736 0.59346086
-0.30363145 0.06941026 0.47694966 -0.005974145 -0.30226967 0.5518362 -0.23159955 0.15557207
0.40338734 0.44392127 0.4738002 -0.13876078 -0.20723426 0.13889894 -0.41096506 0.49863133
-0.08170774 -0.29529947 0.16844065 -0.15519404 -0.18986921 -0.3963695 -0.038213905 -0.06303865
-0.32321674 0.49303126 0.07699775 -0.061597604 0.04337923 0.3833389 0.20674166 0.078932576
-0.23107159 0.0011178527 0.19914435 -0.08410918 -0.17289165 -0.34625253 0.445239 0.0918391
0.0674056 0.07576505 -0.32115525 0.45587096 0.53914005 0.057889804 0.19349377 -0.021313932
0.12452414 -0.5043295 -0.06924425 0.06154391 0.40257853 -0.12366083 -0.26520526 -0.2949567
-0.037351638 -0.04878038 0.12341209 -0.5180048 0.04100734 0.0982683 -0.09303405 -0.19521509
-0.48784903 -0.1177697 -0.047077812 0.05437027 -0.52308047 0.13311133 -0.20961614 -0.08948646
0.3455754 -0.33172065 0.103237964 -0.05020641 -0.2666891 -0.31811342 0.07892922 0.11473418
0.5111565 -0.088287316 -0.14357889 -0.3242336 0.26100162 -0.07467197 0.26621357 -0.054583345
0.063807875 0.5060787 0.06614997 -0.35044804 -0.050667547 0.45287937 0.51749325 0.044646144
-0.23379509 -0.41642022 -0.06724402 -0.1928646 -0.5285768 -0.3216889 -0.25192043 0.1780133
-0.06955621 -0.07463123 -0.1207999 0.08780799 -0.050396077 0.10342207 0.05551054 -0.47572213
-0.08457803 0.060249656 -0.15707703 0.09041527 0.08401992 0.19203785 -0.05704323 0.5392047
-0.3034245 0.02666156 0.4020903 -0.004278283 -0.1427859 0.5052934 -0.09715065 0.059119754
0.27635744 0.40135798 0.2949258 -0.056183852 -0.084865615 0.05413662 -0.2940706 0.31881785
-0.061511498 -0.22164312 0.13214082 -0.10982946 -0.14522684 -0.32570475 -0.03023383 -0.052800097
-0.27191627 0.37561515 0.06407676 -0.051557157 0.037981067 0.2680482 0.13063006 0.06556916

weight_hh_l1 f4 [480, 120]
00000000: 96b7 85bc 89a8 b43c e8f7 773c 959d 1abc
00000010: 1a45 9b3c 3aef 643d 5158 b2bc 529f 18bd
00000020: 064c 3a3c 0738 45bc d371 913b 1b8c 6bbc
00000030: 0631 b1bc f3e3 e33c 12b0 573d f6fa be3c
00000040: a216 983c 97f3 d93c 84dc 88bc 19f1 bf3c
00000050: 8078 9b38 d296 953c 85c2 7d3c c6b7 f03c
00000060: 1b52 38bb b8df 6b3c 3a7d c2bc 5a1e 033d
00000070: a61a 3dbc 86c9 d13c 7616 99bc d7b3 6abc
00000080: c192 8a3c ef07 2cbd 7059 d4b9 d9ab d0bc
00000090: 18b3 303d bdb5 ecbc 6c3a 9ebd 6ae9 483d
000000a0: 225b 013d 31b4 993c d344 03bd 93ba 173c
000000b0: fcba 57bc d768 e7bc c713 a1bc d456 413d
000000c0: ba00 3a3d 9ae3 88bd 171b 50bc 6de1 cbbe
000000d0: e8dd f53b 3141 98bd 10bd 7b3c e187 1b3c
000000e0: f113 443c ecae 68bc ca81 893c 9207 ccbc
000000f0: 624a a83c e2a5 e03c 3ed0 ad3c 5eb4 a5bc
00000100: 35cb 73bc 8e50 30bd 703d 273d e203 7fbd
00000110: 9932 8bbd 1cd3 edbc d3de babc ba18 cdba
00000120: 5084 7c3e 5976 adbc d520 00bd dc6c 403d
00000130: ca78 143c f744 eabc 3b29 ac3c 71d0 6fbd
00000140: 6fa7 98bc 0c21 89bc 5464 59bc 742b 9d3c
00000150: 65bf d7be 9173 053d 115a 353d 0ec4 fbbc
00000160: d342 cabc fc5e 41bd 828f 3cbc 204b 69bc
00000170: b63d 4fbc a942 093d ef8a 453c 758c 9b3c
00000180: 448c 753c c4a9 c43e 2b23 af3c 8649 5fbd
00000190: 505b 96bc a359 e5bc f054 683d 269f d13c
000001a0: 90a8 7b3c 960b 643c 095f 57bd 7a4c a1bc
000001b0: 62ef ccbb bc14 403a 2d55 b0bc ea9c 19bc
000001c0: 464d 753d 6255 00bd 913f edbb 411e 203e
000001d0: 2af0 14bd 47ee 6ebc daa6 2fbc ff50 21bc
000001e0: 3631 93bc ca66 213c 0f19 e03b 1615 29bc
000001f0: 3a7e 193c 7535 f73c 6371 afbc cece 1abd
00000200: c4fe 543c e20d bfbb b312 ba3b 6af5 dcbb
00000210: 9624 b7bc 8e6d 673c 9799 eb3c af1c 3c3c
00000220: 27e6 9d3c 1c3a 503c 65e3 87bc 8566 453c
00000230: a9a0 bcb8 ada7 173c 7630 e13b d321 fb3c
00000240: d380 62bb 1f7b 823c 003b 2fbc 620a 8b3c
00000250: f915 46bc 7631 5c3c b6d9 16bc b9b2 cdbb
00000260: 35c9 9e3c ceb6 b5bc 780f 03ba a92c d3bc
00000270: ab30 2e3d cca6 5dbc 6b02 8cbd af20 d13c
00000280: 7234 823c 4e25 163c 91b7 89bc 5a98 223c
00000290: cb64 c4bb fc38 74bc 802d b4bc 565a 503d
000002a0: cf9d c53c 70da 12bd a649 6cbc 5a14 b1be
000002b0: 737a 0f3c 9c00 9fbd 9511 863c 83a5 2e3c
000002c0: 96b3 5b3c b9b4 81bc 4707 f83b e268 e5bc
000002d0: 2b25 1d3c 8338 773c 70b3 bd3c c234 adbc
000002e0: 6052 08bc 26de babc 06ef 2e3d 635e 06bd
000002f0: 3914 92bd eca5 6ebc 153e 2abc aac6 daba
00000300: d4ed ee3d 47ba 26bc f6fc 76bc 204d c73c
00000310: b12b 113c c53b fdbc aa20 bb3c 44a4 04bd
00000320: bbfe 08bc 3e67 95bc 7b2d 6ebc 229c a73c
00000330: 1239 cdbe e756 873c 42f4 c03c c694 73bc
00000340: 8d21 debc 1a98 cebc e523 37bc 6ae8 dcbb
00000350: 6ea5 6abc a056 873c 26cc 5e3c 7c7f 0c3c
00000360: a145 f53b 477e c43e 1808 383c 5b66 e3bc
00000370: 4359 07bc 5a37 5bbc 4800 643d 03e7 503c
00000380: b953 8c3c 85b3 813c 8353 eabc 92aa b7bc
00000390: 12b0 c0bb c809 193a 5013 24bc 571a 30bc
000003a0: d47d 073d 4ada f9bc 7f81 06bc 7321 ba3d
000003b0: 35d7 1bbd 3aa1 02bc f45b 4dbc 2411 32bc
000003c0: 126b 0dbc c01d e53b e8ed 963b d984 9abb
000003d0: 1e49 d13b bad7 b13c 01da 3ebc 20d6 a4bc
000003e0: 0e6a ce3b b806 72bb 2fef 923b 1854 87bb
000003f0: 9176 19bc a0e6 1d3c 7282 a93c 0629 063c
-0.016322892 0.02205302 0.015134789 -0.009436985 0.018953849 0.055892207 -0.021770628 -0.037261315
0.011370664 -0.012037284 0.0044386177 -0.014376665 -0.021629822 0.027818656 0.052658148 0.023313027
0.01856548 0.02660541 -0.016706713 0.023430394 7.413421e-05 0.018260393 0.015488272 0.029384505
-0.002812511 0.0143966 -0.023741353 0.032011367 -0.011541998 0.02560879 -0.018687468 -0.014325104
0.01691568 -0.041999754 -0.00040502427 -0.025472568 0.043139547 -0.028895253 -0.07725987 0.049050726
0.03158105 0.01876268 -0.032048058 0.009260791 -0.013167139 -0.028248234 -0.01966275 0.047201946
0.04541085 -0.066840366 -0.012701771 -0.39820424 0.00750326 -0.07434309 0.0153649 0.009492845
0.011967645 -0.014201861 0.016785521 -0.024905954 0.020543281 0.02742285 0.021217462 -0.020227607
-0.014879991 -0.043045573 0.040830076 -0.062259562 -0.0679676 -0.029031329 -0.022811329 -0.0015647628
0.24659848 -0.021174597 -0.03128131 0.046978816 0.0090620015 -0.028597338 0.021015754 -0.058548395
-0.018634526 -0.01673939 -0.013268549 0.01918576 -0.4213821 0.032580916 0.044275347 -0.030733135
-0.024690067 -0.047209725 -0.011508824 -0.014239103 -0.01264899 0.033510838 0.01205705 0.018987874
0.014987055 0.3841077 0.021379074 -0.054513477 -0.018354088 -0.027996844 0.056721628 0.025588583
0.015360013 0.013918778 -0.052580867 -0.019689787 -0.0062541226 0.00073273084 -0.02152499 -0.00937579
0.059888147 -0.031331427 -0.0072402437 0.15636541 -0.03636185 -0.014583177 -0.010720933 -0.009845971
-0.017967802 0.009851167 0.0068389247 -0.010319969 0.009368474 0.030176857 -0.021416372 -0.03779488
0.013000194 -0.0058305124 0.0056784987 -0.006743123 -0.022356313 0.014125241 0.02875976 0.011481448
0.019274784 0.012709167 -0.016587922 0.012048368 -8.994464e-05 0.009256286 0.006872232 0.030655777
-0.0034561648 0.01592785 -0.010695219 0.016972724 -0.0120902 0.013439527 -0.00920718 -0.006277409
0.019383052 -0.022181895 -0.00049995584 -0.025778132 0.042526882 -0.013528537 -0.06836399 0.02552828
0.015894148 0.009164168 -0.016811164 0.009924019 -0.005993461 -0.014906164 -0.021994352 0.0508674
0.0241231 -0.03585285 -0.014421856 -0.3458584 0.0087572215 -0.07763788 0.016365806 0.010659578
0.013409516 -0.015833246 0.007569227 -0.028004114 0.009591381 0.015089157 0.023156852 -0.021143321
-0.008320421 -0.022811007 0.04270842 -0.032804858 -0.071327634 -0.014565926 -0.010390778 -0.0016691287
0.11666456 -0.010176248 -0.015074959 0.024328768 0.0088605145 -0.03091229 0.022842724 -0.03238322
-0.008361514 -0.018237706 -0.014537211 0.020460192 -0.40082604 0.01652093 0.023553971 -0.014867013
-0.027115608 -0.025219012 -0.0111779915 -0.006741573 -0.014321668 0.016520798 0.0135984775 0.0085753165
0.007485107 0.38377592 0.011232398 -0.027758768 -0.008261028 -0.013379896 0.05566433 0.01275039
0.017129766 0.015832672 -0.028604275 -0.022420201 -0.005880364 0.00058379443 -0.01001437 -0.010748467
0.033078983 -0.030499596 -0.008209585 0.09088411 -0.038047034 -0.00797301 -0.01253413 -0.010868344
-0.008631485 0.006992072 0.0046059974 -0.0047155437 0.00638689 0.021709312 -0.011648656 -0.020121634
0.006299264 -0.0036930274 0.0044840793 -0.004129898 -0.009366647 0.009637505 0.020692084 0.008188492

bias_ih_l1 f4 [480]
00000000: 2890 ffbe 3f16 d7be ba19 c8be 4196 b3be
00000010: 5b84 d4be 7e60 01bf 99b2 86bc 9f3f 04be
00000020: 0fd7 f7be a5b9 c3be 8d89 05be cb8a c5be
00000030: baa0 04bd cf78 e0be 5943 b7be 3212 d6be
00000040: c6fa 15bd 2a94 debe 8450 80bd 39a5 d8be
00000050: 4ca2 e5bc fd3e cbbe a5c7 cbbe 04de 3abc
00000060: 807a 99bd 9fad e7be 28ff ddbe ada1 edbe
00000070: 7241 9cbe db87 debe eb6e d5be 1c60 bebe
00000080: 8523 e2be 8e67 febe 64d6 b3be c638 153b
00000090: 88be 9ebe c387 c9be 5767 a8be 01d0 febe
000000a0: 13fc cfbe a307 d7be fa74 babe e22d b8ba
000000b0: 0f7f cbbe 9bc3 ddbe 32ef e4be ca52 63bb
000000c0: 6657 ffbe 2354 1cbf 73e4 c7be 077b b03e
000000d0: 9eb1 c2be be61 cbbd f735 89be dac7 d0be
000000e0: 50e3 c6be fb1e d7be 83eb c4be ac56 19be
000000f0: faec cabe e597 d1be 8a4e 13bf 3fe8 98be
00000100: 45ad 2cbe f7bb d8be 6a5c 98bd 4cc0 05bf
00000110: 097e b7bd dcd7 eabe 5e89 dabe eaca b0be
00000120: 55ec 51be dc7a d7be e780 e0be 1e2d 00bf
00000130: 8cdb b7bd 0f09 22be 8f9d f3be bc97 ccbe
00000140: a368 d5be 45ae bfbe 2dc6 cbbe c168 4fbe
00000150: f38d 5a3e f74d efbe e4b0 f1be 475e edbe
00000160: effe 29bf f354 ffbe 4953 20bd 8dee cdbe
00000170: 4864 00bf 148c f8be 90a5 e5be 5a1a cbbe
00000180: 2367 cfbe 7f16 a13e 3384 cbbe 9b85 fabe
00000190: 7862 d3be 5154 e9be c994 8fbc 7c01 d5be
000001a0: 6993 05bf e40f 02bf ef83 f3be fda4 09bf
000001b0: 863a e9bc ab75 4ebb 0d73 d5be 76fd ecbe
000001c0: 0674 0dbf 5c7c c6bc 0664 d8be f6af aebe
000001d0: 64bb e6bd d906 b2be 762f cbbe a75f e9be
000001e0: ea8a d7be 3e37 0ebe a0ff d2bd 60e8 29be
000001f0: bc5c babd 8a9d 78be 5294 04bc 8d1c 9cbd
00000200: 10f4 83be 2af7 98bd c23c 3cbd 6eac 9bbd
00000210: dc7c c3bb 9992 d4bd 718d 29be 1e23 d0bd
00000220: 6546 0abc 4d8c cabd 88b2 c1bc e335 eabd
00000230: 6cff 08bc a628 d3bd da54 c7bd 13d3 d7bb
00000240: 483a 2bbd 9358 a2be 4db2 19be 157d 1ebe
00000250: 536e 3dbe ee47 02be 6996 c6bd e5f0 d0bd
00000260: d838 63be f684 3cbe a13f 85bd 643f c9bc
00000270: 1d68 9abd 3bbb 06be 1d93 3ebd df97 71be
00000280: 5292 f4bd 9d37 d2bd e858 f0bd 1c4d 5eba
00000290: f842 b0bd cb61 00be ac83 58be 2110 bf3a
000002a0: 58b7 3bbe 603c 97be 1ab4 92be 83c6 be3e
000002b0: 03b5 06be f80b 40bc 1787 4dbe 1fe4 38be
000002c0: 1a35 37be 7755 8dbe de77 b1bd 45f0 63bd
000002d0: 78c3 c8bd ebc7 b9bd 69ce f9be 445e 38be
000002e0: ef5d ebbc 2c8d 07be 9159 1cbd 5911 72be
000002f0: f656 cd3d c7a7 1fbe 26ed e5bd 9c6c 0cbe
00000300: a625 f6bc 13ce f7bd ed6a ddbd 3547 5dbe
00000310: e115 30bd 3e55 1fbe a236 dabe ea17 2cbe
00000320: 3cf0 03be 9f53 83be b264 80be 2259 14be
00000330: e1af 813c 57cd 1ebe 404b 40be cee2 06be
00000340: e4cd 07bf 4050 35be 4a54 8fbb b8fc ccbd
00000350: f0cb a6be e613 36be aa16 95be 9134 d2bd
00000360: e84c afbd ecf4 b7bc a7fd bebd 0a46 50be
00000370: 0934 cdbd 426f 20be b078 72bc 94d9 d0bd
00000380: 97bf dabe bef8 b8be b6f1 47be 0604 b7be
00000390: d6f0 5a3a 522e 8437 eceb d3bd 4822 60be
000003a0: 7fe3 97be 64fd 12bc a44c 1ebe 5166 14bd
000003b0: 8550 18bd e025 2dbd c38e 21be 786e 8dbe
000003c0: 54ef 86be 382d 353e 437d 233e 3491 39be
000003d0: 15b7 4a3e caa2 623e 2a36 8d3b c69f 9bbc
000003e0: 001c 7e3e 5471 4dbe 431d babd 51fe 2abe
000003f0: 93b8 553c 1be7 593e e4b3 253d 94ad 393e
-0.4991467 -0.4200916 -0.39082128 -0.35075572 -0.4150723 -0.5053786 -0.016442584 -0.12914895
-0.48406264 -0.38227573 -0.13040753 -0.38582453 -0.032379843 -0.4384217 -0.3579357 -0.41810757
-0.03661611 -0.43472415 -0.06265357 -0.42313555 -0.02803149 -0.39696494 -0.39800754 -0.011405472
-0.07494068 -0.4524965 -0.4335873 -0.4641241 -0.3051868 -0.43463024 -0.41686186 -0.371827
-0.44167724 -0.4968838 -0.35124505 0.0022769435 -0.3100474 -0.3936139 -0.32891342 -0.4976807
-0.40622005 -0.41998014 -0.3641737 -0.001405176 -0.39745376 -0.43313298 -0.44713742 -0.0034686797
-0.49871367 -0.6106588 -0.3904148 0.34468862 -0.38026136 -0.09930752 -0.26798984 -0.40777475
-0.388453 -0.42015824 -0.3846093 -0.14974469 -0.39633924 -0.409362 -0.57541716 -0.2986469
-0.16862972 -0.42330906 -0.074395016 -0.52246547 -0.08959586 -0.45867813 -0.42682928 -0.3452981
-0.2050031 -0.42085922 -0.43848345 -0.50068843 -0.08977422 -0.15823768 -0.47581145 -0.39959514
-0.41681394 -0.37437645 -0.39799634 -0.20254804 0.21343212 -0.4673917 -0.4720527 -0.4636099
-0.6640462 -0.498695 -0.039141927 -0.40221062 -0.5015302 -0.4854437 -0.44852877 -0.39668542
-0.40508375 0.31462476 -0.39749297 -0.48930058 -0.41286063 -0.4557214 -0.017527001 -0.41602695
-0.52178055 -0.508055 -0.47561595 -0.5376738 -0.028470289 -0.003150324 -0.4168934 -0.46287125
-0.5525516 -0.024229221 -0.42263812 -0.34118623 -0.11266211 -0.3477085 -0.39684647 -0.4558079
-0.4209817 -0.1388826 -0.10302663 -0.1659255 -0.09099719 -0.24278846 -0.008092003 -0.07622633
-0.25772142 -0.07469018 -0.04595638 -0.07601248 -0.005965812 -0.10379524 -0.16557862 -0.10162948
-0.008439635 -0.098900415 -0.0236447 -0.11436059 -0.008361679 -0.103104874 -0.09732981 -0.0065864413
-0.04180363 -0.31708202 -0.15009423 -0.15477403 -0.18499117 -0.12722751 -0.09696657 -0.10202197
-0.22189653 -0.18410096 -0.06506277 -0.02456636 -0.07539389 -0.1315736 -0.046527017 -0.2359309
-0.11941971 -0.10264514 -0.117357075 -0.0008480118 -0.08606523 -0.12537305 -0.21143979 0.001457695
-0.18331659 -0.2953825 -0.28653032 0.37260827 -0.13154988 -0.011721604 -0.20071064 -0.18055771
-0.1789135 -0.27604267 -0.08665441 -0.05564906 -0.09802908 -0.090713345 -0.4879029 -0.1800471
-0.028731314 -0.13237447 -0.038171355 -0.2363943 0.10026352 -0.15591346 -0.11226873 -0.13713306
-0.030047249 -0.120998524 -0.1081141 -0.21609195 -0.042989615 -0.15559861 -0.42619807 -0.16805997
-0.12884611 -0.25649735 -0.25076824 -0.14487126 0.015830936 -0.15508018 -0.18778706 -0.13172457
-0.5304854 -0.17706394 -0.0043740617 -0.1000914 -0.32577467 -0.17781028 -0.29118854 -0.102639325
-0.085595906 -0.022455655 -0.09325724 -0.20339218 -0.100196905 -0.15667441 -0.014799282 -0.1019775
-0.42724296 -0.36127275 -0.19525799 -0.35745257 0.00083519274 1.5757196e-05 -0.10347733 -0.21888077
-0.29665753 -0.008971546 -0.15458924 -0.03623039 -0.037186164 -0.04227245 -0.15777116 -0.27623343
-0.26354468 0.17693031 0.15965752 -0.18121797 0.19796403 0.22132412 0.0043094354 -0.018997084
0.24815369 -0.20062762 -0.090876125 -0.16698577 0.013044494 0.21279566 0.04045476 0.18132621
