experiments_generated_data/obs_5_pred_3/models/tcn.pt (torch, 47246 bytes, 61 tensors)

weight f4 [27, 5, 1]
5.982254e-08 3.2191334e-08 -6.795824e-08 -3.414557e-08 6.1997895e-08 2.0224242e-08 -1.4039196e-06 4.86276e-07
-6.610646e-07 8.423268e-07 -5.3201e-07 3.0998564e-07 2.236309e-07 -2.9301833e-07 8.038513e-08 -3.991721e-06
3.9023266e-08 1.2172157e-08 -3.8979927e-08 7.6248725e-06 -2.8430042e-08 3.8227142e-08 -9.4103726e-08 1.5136914e-07
-1.0515473e-07 4.0191185e-06 -4.342365e-06 1.5747718e-06 -5.372621e-06 2.0149034e-06 1.8207373e-06 -1.0206879e-06
5.7773013e-07 -2.96525e-07 -3.2642293e-07 -2.8064076e-08 7.326132e-08 -7.8418424e-08 5.863648e-08 1.3858326e-07
1.8450141e-08 5.8882662e-08 -3.5716958e-09 -1.1555423e-07 7.1874107e-09 3.775455e-07 1.9193234e-07 -3.0392295e-07
-2.0300625e-07 -3.7670273e-07 2.4393088e-08 3.9295813e-08 -8.77465e-08 -1.410458e-07 7.184245e-08 5.185655e-07
-2.3106183e-07 1.38932e-07 -6.0900726e-07 1.8687402e-07 4.5514474e-07 -6.0860737e-07 -1.4401991e-07 1.1948961e-07
6.594544e-07 -3.6829317e-07 -1.2257465e-07 1.2888447e-07 1.7294832e-09 -5.370358e-07 4.072487e-07 -9.683099e-08
1.8514051e-07 -3.6528934e-07 -8.860592e-09 1.3613341e-06 8.6541877e-07 4.4628965e-07 1.322712e-06 -3.730379e-07
1.7646448e-08 -7.375811e-09 4.273354e-09 -5.120305e-09 -2.0199828e-08 -5.0365664e-08 3.8393356e-08 -3.1433665e-08
1.2245438e-07 8.257735e-08 -6.135946e-07 1.316989e-07 2.0982725e-08 -7.5014543e-07 4.6681436e-07 -9.647823e-08
9.263005e-08 -5.504591e-08 1.786943e-07 -2.2856888e-07 1.0127455e-06 5.7462756e-08 3.5736033e-08 4.6682025e-08
1.0775068e-08 3.03051e-09 7.691495e-08 4.3861892e-08 1.3774122e-07 9.5364676e-08 -1.8742492e-09 -3.1527325e-08
2.1152676e-08 8.242642e-10 -4.618108e-08 -6.827059e-07 1.965384e-07 -1.1628808e-06 5.009849e-07 9.092939e-08
2.2265404e-08 4.236245e-08 8.956675e-09 3.5743692e-08 6.354112e-08 -6.425516e-08 -1.895199e-07 -1.0245073e-07
-1.1731839e-07 1.05734e-09 4.591636e-06 5.3539707e-06 1.3684397e-05 5.64736e-06 8.946366e-06
00000000: ca77 8033 bf42 0a33 70f0 91b3 74a7 12b3
00000010: b423 8533 94b9 ad32 4f6e bcb5 a288 0235
00000020: 0374 31b5 421c 6235 73cf 0eb5 1a6c a634
00000030: 321f 7034 2250 9db4 31a0 ac33 9ff0 85b6
00000040: 899a 2733 b61d 5132 e26a 27b3 28d9 ff36
00000050: 5336 f4b2 302f 2433 1216 cab3 0888 2234
00000060: 6dd1 e1b3 f7db 8636 a2b4 91b6 bf5c d335
00000070: 7746 b4b6 c737 0736 0f60 f435 92fe 88b5
00000080: 5015 1b35 1632 9fb4 3a3f afb4 8e11 f1b2
00000090: d653 9d33 fc66 a8b3 7ed7 7b33 7acd 1434
000000a0: 4a7c 9e32 2ce6 7c33 f071 75b1 9c26 f8b3
000000b0: 22f5 f631 75b1 ca34 f615 4e34 da2a a3b4
000000c0: eff9 59b4 a13d cab4 f888 d132 34c6 2833
000000d0: 266f bcb3 6072 17b4 ce47 9a33 8d33 0b35
000000e0: cb19 78b4 562d 1534 a97a 23b5 8aa7 4834
000000f0: 9e5a f434 2e5f 23b5 e4a3 1ab4 0e4d 0034
00000100: 5c05 3135 d4b9 c5b4 109d 03b4 7e63 0a34
00000110: c8b2 ed30 d228 10b5 d6a3 da34 66f1 cfb3
00000120: 09cb 4634 fc1c c4b4 4c39 18b2 15b7 b635
00000130: 204f 6835 9599 ef34 0a88 b135 f045 c8b4
00000140: f394 9732 526e fdb1 d2d4 9231 aeee afb1
00000150: e483 adb2 a251 58b3 f1e5 2433 ae01 07b3
00000160: 017c 0334 6155 b133 e6b5 24b5 1e69 0d34
00000170: 803d b432 9a5d 49b5 7a9e fa34 782f cfb3
00000180: e9eb c633 9e6b 6cb3 1ddf 3f34 896c 75b4
00000190: aced 8735 f8cc 7633 2f7c 1933 6e7f 4833
000001a0: 401d 3932 4c41 5031 712c a533 a962 3c33
000001b0: 05e6 1334 49cb cc33 24cc 00b1 a968 07b3
000001c0: 3ab3 b532 7092 6230 a258 46b3 3143 37b5
000001d0: 1008 5334 4814 9cb5 6c7b 0635 f644 c333
000001e0: 2442 bf32 02f2 3533 e0df 1932 9b84 1933
000001f0: 1a74 8833 a6fc 89b3 d57e 4bb4 e202 dcb3
00000200: 78f0 fbb3 d851 9130 da11 9a36 42a6 b336
00000210: 0a96 6537 747e bd36 5918 1637

bias f4 [27]
-2.4548061e-09 -5.879037e-10 4.194972e-09 5.780685e-09 3.3241978e-09 -2.4225524e-09 6.0605454e-09 -2.591351e-09
-9.425132e-10 -9.685537e-10 -1.0068943e-08 3.412414e-09 5.182512e-10 7.234791e-09 2.1224675e-09 -1.877897e-09
-1.2542134e-09 -1.1116441e-11 1.4018375e-09 -3.499924e-09 8.672647e-09 1.072376e-09 7.493923e-09 1.1565645e-08
-1.1674894e-08 -6.8588797e-09 2.0523394e-09
00000000: 68b1 28b1 0c9a 21b0 5d23 9031 719f c631
00000010: e86f 6431 fe79 26b1 1f3d d031 8713 32b1
00000020: bc89 81b0 f41d 85b0 aefb 2cb2 d27f 6a31
00000030: b074 0e30 e595 f831 d8da 1131 500c 01b1
00000040: b660 acb0 0090 43ad c6aa c030 5083 70b1
00000050: b4fe 1432 e062 9330 9fbe 0032 3fb2 4632
00000060: ba92 48b2 58ab ebb1 2309 0d31

weight f4 [27]
-1.9181724e-07 -1.4592198e-06 6.930582e-07 1.606633e-06 8.7955854e-08 7.512572e-06 -7.745535e-07 -1.703136e-07
-1.5317303e-07 -2.2900845e-06 -1.8076136e-08 2.3215529e-07 1.2773311e-06 -4.5763022e-07 -3.654313e-07 -1.1267525e-06
1.0673617e-07 4.7452767e-07 -1.2450846e-06 -1.9993598e-07 2.6700152e-07 -4.7020643e-07 -7.340441e-09 1.136047e-08
-8.3771e-08 -1.11814124e-07 -7.2650914e-07
00000000: 52f6 4db4 69da c3b5 990a 3a35 7da3 d735
00000010: 3ee2 bc33 8114 fc36 e9ea 4fb5 72df 36b4
00000020: e277 24b4 5aaf 19b6 d845 9bb2 5c46 7934
00000030: c370 ab35 38b0 f5b4 7f30 c4b4 ec3a 97b5
00000040: d436 e533 96c2 fe34 c81c a7b5 fcad 56b4
00000050: 6958 8f34 ae70 fcb4 3437 fcb1 e02b 4332
00000060: 98e5 b3b3 771e f0b3 5405 43b5

bias f4 [27]
1.8783753e-08 3.2572876e-07 1.3834027e-07 -7.736916e-07 7.7558e-08 1.6822358e-07 -4.5630577e-07 1.7964601e-07
1.2326443e-07 -1.1539435e-06 -5.7269875e-07 4.180957e-08 -7.4401504e-07 1.3926808e-08 7.9725076e-08 4.2592072e-07
-4.8852097e-08 -9.855141e-07 -8.966086e-08 -4.654226e-08 -9.032033e-07 -1.3361074e-07 -1.1415758e-07 -2.311887e-06
-1.1841202e-07 1.3815482e-07 6.733392e-06
00000000: e959 a132 d2df ae34 af8a 1434 afaf 4fb5
00000010: f68d a633 f2a0 3434 30fa f4b4 b8e4 4034
00000020: ab5a 0434 32e1 9ab5 8fbb 19b5 1c92 3333
00000030: 53b8 47b5 c042 6f32 5335 ab33 19aa e434
00000040: 73d1 51b3 0246 84b5 948b c0b3 c2e5 47b3
00000050: a873 72b5 a476 0fb4 cb26 f5b3 eb25 1bb6
00000060: b249 feb3 b557 1434 66ef e136

running_mean f4 [27]
3.922354e-08 -1.1948644e-07 -4.1157527e-08 2.7110505e-06 2.259877e-08 -1.6049178e-07 2.2221822e-07 3.464165e-08
-9.192153e-09 -7.902055e-08 -2.9774428e-08 1.1186189e-08 2.3558691e-07 -2.3356836e-07 6.9340182e-09 9.725186e-07
-3.6352363e-09 1.2274262e-07 -1.5424934e-07 -2.8208227e-08 4.002026e-07 9.613036e-08 -9.709345e-09 -2.8461776e-07
4.10438e-08 -1.312135e-07 1.0183143e-05
00000000: bd76 2833 2f4c 00b4 2ec5 30b3 7eef 3536
00000010: 391f c232 a553 2cb4 e19a 6e34 e6c8 1433
00000020: 84eb 1db2 02b2 a9b3 a9c2 ffb2 612d 4032
00000030: a3f5 7c34 c8ca 7ab4 4540 ee31 7c87 8235
00000040: c1cf 79b1 3ccb 0334 bc9f 25b4 8c4e f2b2
00000050: 6ddb d634 3970 ce33 27ce 26b2 91cd 98b4
00000060: 2348 3033 b1e3 0cb4 44d8 2a37

running_var f4 [27]
9.251123e-13 2.0298775e-11 9.877577e-13 2.0507502e-09 3.8000026e-13 1.8921462e-10 1.0728159e-11 8.6933336e-14
8.425553e-14 1.0888146e-12 9.580967e-14 1.6896128e-12 7.895883e-12 1.0730775e-12 1.1627454e-12 7.1107577e-12
1.0264056e-14 5.5000375e-12 2.2187339e-12 2.617548e-13 5.218734e-12 1.5415117e-13 2.1900313e-14 5.1797204e-12
3.2174414e-14 2.388031e-13 1.262846e-09
00000000: af32 822b c78c b22d b903 8b2b 2eed 0c31
00000010: cfeb d52a 2e0b 502f 55bb 3c2d a8c1 c329
00000020: 02ba bd29 ae3c 992b 84be d729 b7ca ed2b
00000030: e5e7 0a2d b105 972b 51a4 a32b 0330 fa2c
00000040: 9be6 3828 ef83 c12c 2821 1c2c d85a 932a
00000050: 2d9e b72c 0d8f 2d2a af42 c528 c63e b62c
00000060: 93e6 1029 276f 862a 7290 ad30

weight f4 [15, 27, 1]
-4.136902e-08 5.1980686e-07 3.3828645e-08 -1.2465814e-07 -3.018826e-08 -8.524722e-09 -1.4654936e-08 -4.1736573e-08
2.378846e-09 -2.3113596e-08 5.1660782e-09 7.337302e-08 -3.850217e-08 -2.7266512e-07 7.1956016e-08 -2.7958885e-07
5.4996473e-08 3.4686007e-08 -4.094486e-08 2.6316805e-08 1.3612172e-08 -3.1394052e-07 5.9509535e-08 2.875618e-08
3.6166522e-08 -5.8019726e-08 7.2506374e-08 3.3239317e-10 2.2262434e-08 -4.5450597e-06 -9.1226454e-08 1.0354608e-07
1.8770719e-07 1.2302746e-07 -3.61518e-07 4.2570036e-08 2.6829508e-09 -5.403866e-06 -1.443529e-07 -5.7287263e-08
2.4603413e-08 -4.0342556e-08 -2.8026832e-08 4.378151e-08 -3.3653302e-09 9.251602e-08 1.4037629e-07 -4.2244114e-08
7.914562e-09 2.1223217e-08 4.825374e-07 -3.1226657e-06 8.763971e-09 4.9924026e-08 -3.0218324e-08 2.5860865e-07
-2.584177e-08 1.2229442e-08 -2.3826102e-08 7.3323463e-09 -6.693679e-08 9.372527e-09 1.10113625e-08 3.8162224e-08
-1.8460575e-08 -1.378591e-07 3.9217273e-08 -4.604343e-08 4.855834e-08 3.6893194e-08 1.1048052e-07 9.6325614e-08
8.449438e-08 3.9046224e-08 5.137264e-08 -9.78597e-09 -2.5215824e-08 -3.278625e-08 -9.92809e-10 7.1545534e-09
2.2168919e-07 4.5996567e-09 2.7524044e-07 3.922648e-08 2.494019e-08 -1.2486598e-08 3.0407259e-07 3.7800156e-08
-6.06438e-08 -1.5829887e-08 4.156862e-08 -4.4865295e-08 -1.5217398e-07 -3.660392e-08 -3.882782e-08 1.9943565e-08
3.8088917e-08 -2.7003686e-08 1.033575e-09 -2.6997286e-08 2.8111923e-08 -1.8524009e-08 -2.2180272e-08 -2.271695e-08
-1.5903257e-08 -1.187823e-07 4.5368644e-08 5.9945464e-08 -1.9226894e-07 0.000932669 1.0544153e-05 1.1277559e-08
-1.9734816e-07 0.0011234703 0.0041390853 -6.464014e-08 -5.761578e-10 -1.0133974e-08 -1.3259438e-10 -7.701643e-08
-3.120739e-06 1.18954894e-07 8.54099e-10 1.1659066e-07 6.1144085e-08 -1.7054226e-07 2.2578977e-08 5.437825e-07
-2.8725026e-07 1.9602307e-08 -7.664715e-08 -1.4890183e-07 4.3076685e-08 7.025439e-08 7.152417e-07 1.8169885e-08
8.675259e-08 2.8529879e-08 1.6485622e-08 3.3732004e-08 -4.748317e-08 -3.7744574e-08 1.6643092e-07 6.612413e-08
1.1903236e-06 1.4942904e-07 -1.5710384e-08 -5.0778795e-08 2.6543903e-08 -8.6478664e-08 6.729213e-09 4.6659228e-08
-6.4160346e-08 -9.926472e-07 1.8921907e-07 -1.1244021e-09 1.934754e-08 9.5048975e-08 3.0552812e-08 -3.7793515e-07
-1.3170938e-08 -4.772542e-08 -4.6735018e-08 -7.085206e-08 6.231299e-09 6.880955e-08 2.3014502e-08 2.6846828e-07
1.16169346e-07 3.1920735e-08 -1.0090322e-08 -6.537192e-08 -4.801351e-08 -1.4860811e-08 3.661544e-08 5.0351467e-08
6.513898e-08 -2.3077554e-08 4.8353517e-09 1.214111e-08 -1.058722e-08 -2.7092279e-08 -1.6058182e-08 -2.6705369e-08
2.9090894e-09 -5.0494865e-08 2.1144578e-08 -3.3716844e-08 1.1960209e-08 -6.636591e-08 -8.546374e-07 -8.5248516e-08
6.925218e-08 5.5221644e-08 -3.3891237e-07 1.3464276e-08 1.7762359e-08 8.51689e-08 1.459277e-07 1.807188e-07
-7.312792e-08 -4.753837e-09 -1.8485864e-07 2.8043223e-08 -8.245161e-09 -1.12984665e-07 -3.968711e-08 5.7399454e-08
8.1412466e-08 -2.6937919e-09 -1.2008924e-07 -2.6168486e-08 -8.7441464e-08 -1.8110487e-08 2.3224771e-08 -1.5173276e-07
8.9245106e-08 6.1184746e-09 8.392612e-09 -4.3080114e-08 -1.00490894e-07 1.4577702e-07 9.1688555e-08 -4.6593357e-08
-6.716443e-09 -2.1024925e-07 -4.0916595e-09 1.2440682e-07 -4.4089553e-08 4.509677e-08 -3.1875693e-08 2.451205e-08
1.9158563e-08 4.1654975e-08 -4.5946802e-08 9.205568e-09 -3.74552e-08 -3.9852875e-08 1.8795657e-08 -5.0665415e-07
-4.5529754e-07 -5.1572872e-08 -8.71016e-09 -9.600921e-09 -4.0372207e-08 -1.0542094e-07 -5.047106e-08 1.0693412e-07
-6.4467514e-08 -8.494237e-09 3.702418e-08 1.1571237e-09 2.6337394e-08 6.32166e-09 -1.4472308e-08 2.9338043e-08
00000000: b8ad 31b3 db88 0b35 fd4a 1133 c5d9 05b4
00000010: 58a8 01b3 2074 12b2 17c5 7bb2 d941 33b3
00000020: 1a79 2331 568b c6b2 4e81 b131 3f91 9d33
00000030: 955d 25b3 cf62 92b4 3d86 9a33 661a 96b4
00000040: 4335 6c33 abf9 1433 5adb 2fb3 440f e232
00000050: f7da 6932 a88b a8b4 6d97 7f33 8203 f732
00000060: 8355 1b33 5d31 79b3 cdb4 9b33 2ebc b62f
00000070: 9c3b bf32 c481 98b6 46e8 c3b3 0f5d de33
00000080: 8f8c 4934 8819 0434 a816 c2b4 40d6 3633
00000090: f85e 3831 db52 b5b6 6cff 1ab4 030c 76b3
000000a0: 7a57 d332 1c45 2db3 a8bf f0b2 480a 3c33
000000b0: 8443 67b1 38ad c633 57ba 1634 e56f 35b3
000000c0: 9df8 0732 594e b632 b887 0135 fd8e 51b6
000000d0: 5a90 1632 0c6c 5633 66c9 01b3 e7d6 8a34
000000e0: a7fa ddb2 a819 5232 27aa ccb2 00f0 fb31
000000f0: e4be 8fb3 cf04 2132 7c2c 3d32 cfe7 2333
00000100: 3c93 9eb2 6c06 14b4 d96f 2833 49c1 45b3
00000110: 768e 5033 7f74 1e33 4f41 ed33 91db ce33
00000120: 4773 b533 c7b3 2733 d1a4 5c33 271f 28b2
00000130: 2f9a d8b2 ddd0 0cb3 5c73 88b0 1ed4 f531
00000140: 7609 6e34 020b 9e31 c2c4 9334 f979 2833
00000150: 0f3c d632 a484 56b2 6b3f a334 b659 2233
00000160: 483b 82b3 4afa 87b2 2e89 3233 eab1 40b3
00000170: 4465 23b4 7036 1db3 a4c3 26b3 5d50 ab32
00000180: 3597 2333 bcf5 e7b2 b00d 8e30 a9e7 e7b2
00000190: c67a f132 ba1e 9fb2 ef86 beb2 1a23 c3b2
000001a0: a29b 88b2 4315 ffb3 5adb 4233 5ebb 8033
000001b0: 7c72 4eb4 5b7e 743a cbe6 3037 3bbf 4132
000001c0: a6e6 53b4 6841 933a 2aa1 873b 4bd0 8ab3
000001d0: 805f 1eb0 b019 2eb2 00ca 11af 3b64 a5b3
000001e0: e36d 51b6 2574 ff33 e0c5 6a30 6560 fa33
000001f0: 514e 8333 4d1e 37b4 b2f3 c132 73f8 1135
00000200: 6037 9ab4 ee61 a832 3799 a4b3 d3e1 1fb4
00000210: 5103 3933 c2de 9633 09ff 3f35 0014 9c32
00000220: be4c ba33 de11 f532 449c 8d32 bbe0 1033
00000230: 4cf0 4bb3 991c 22b3 2fb4 3234 2000 8e33
00000240: 35c3 9f35 be72 2034 80f3 86b2 e017 5ab3
00000250: a902 e432 26b6 b9b3 c936 e731 5d66 4833
00000260: 86c8 89b3 193b 85b5 242c 4b34 6289 9ab0
00000270: b131 a632 ba1d cc33 2c39 0333 03e7 cab4
00000280: 6646 62b2 a7fa 4cb3 b2b9 48b3 5527 98b3
00000290: 161b d631 73c4 9333 6db1 c532 0022 9034
000002a0: c678 f933 3819 0933 b559 2db2 9862 8cb3
000002b0: 6a37 4eb3 8a4e 7fb2 1a43 1d33 0642 5833
000002c0: 88e2 8b33 143c c6b2 3424 a631 2b95 5032
000002d0: 16e3 35b2 8db8 e8b2 51f0 89b2 ba65 e5b2
000002e0: 3ee9 4731 b1df 58b3 6ba1 b532 10d0 10b3
000002f0: 8e79 4d32 0b85 8eb3 3c6a 65b5 de11 b7b3
00000300: cab7 9433 d72c 6d33 c3f3 b5b4 8350 6732
00000310: d793 9832 19e6 b633 4db0 1c34 9b0b 4234
00000320: 800a 9db3 3157 a3b1 8e7d 46b4 b3e3 f032
00000330: 9aa6 0db2 faa1 f2b3 7074 2ab3 5e87 7633
00000340: fad4 ae33 b01d 39b1 e1f1 00b4 1cc9 e0b2
00000350: 74c7 bbb3 6291 9bb2 d07f c732 fceb 22b4
00000360: 04a7 bf33 ac3a d231 192f 1032 1607 39b3
00000370: 74cd d7b3 e286 1c34 51e6 c433 f01d 48b3
00000380: 75c6 e6b1 e0c0 61b4 9e96 8cb1 b094 0534
00000390: fa5c 3db3 6cb0 4133 b2e7 08b3 918e d232
000003a0: 2092 a432 21e8 3233 0b57 45b3 8426 1e32
000003b0: 6ede 20b3 b32a 2bb3 1674 a132 0201 08b5
000003c0: 9e6f f4b4 f980 5db3 b0a3 15b2 4cf1 24b2
000003d0: b665 2db3 c663 e2b3 84c5 58b3 a7a3 e533
000003e0: 6471 8ab3 0dee 11b2 8404 1f33 ac08 9f30
000003f0: 8b3c e232 e935 d931 e2a1 78b2 0a03 fc32

bias f4 [15]
-9.483396e-10 -8.673797e-10 -4.29107e-09 2.813553e-09 5.8412875e-10 3.960389e-09 2.2942854e-09 -3.5262118e-09
8.165586e-10 -2.1954043e-09 3.5119385e-09 1.890086e-09 4.862075e-09 2.4926905e-09 -2.1328024e-09
00000000: bc56 82b0 6c6c 6eb0 a770 93b1 8c58 4131
00000010: 6890 2030 f313 8831 7fa9 1d31 c651 72b1
00000020: 3474 6030 f6dd 16b1 ad56 7131 bfe2 0131
00000030: 440f a731 e04b 2b31 a890 12b1

weight f4 [15]
9.683307e-08 -1.4801965e-07 -4.8969093e-07 4.5881202e-07 1.5753423e-07 2.6336048e-07 -1.1031079e-06 5.204788e-07
2.0228934e-07 -2.3487999e-07 -1.492075e-07 5.328975e-08 4.0240698e-06 -1.921191e-07 -1.5813669e-07
00000000: 8bf2 cf33 55ef 1eb4 4e73 03b5 a552 f634
00000010: ae26 2934 fd63 8d34 800e 94b5 08b7 0b35
00000020: df34 5934 5233 7cb4 d835 20b4 b3e0 6433
00000030: 7f06 8736 4c49 4eb4 48cc 29b4

bias f4 [15]
-7.542239e-07 -1.2472249e-07 1.7908324e-07 2.0269125e-07 1.506503e-06 1.1705396e-08 1.112393e-07 -6.440651e-07
-3.5682856e-07 1.5884248e-07 -7.3900615e-08 -3.984516e-08 1.7561542e-06 -3.090762e-07 2.4552776e-07
00000000: df75 4ab5 75eb 05b4 074a 4034 59a3 5934
00000010: 0d33 ca35 e018 4932 74e2 ee33 d1e3 2cb5
00000020: 2592 bfb4 4a8e 2a34 4bb3 9eb3 3722 2bb3
00000030: 00b5 eb35 1cef a5b4 14d1 8334

running_mean f4 [15]
-5.112421e-10 -3.4940467e-10 -2.546079e-09 1.6482333e-09 4.3221418e-09 2.1787385e-09 1.3651978e-09 -1.9316215e-09
4.12898e-10 -1.240628e-09 2.170524e-09 1.2626483e-09 2.7747609e-09 1.5549381e-09 -1.3509195e-09
00000000: 7787 0cb0 5616 c0af 18f7 2eb1 0e88 e230
00000010: f681 9431 c6b8 1531 a1a1 bb30 72bd 04b1
00000020: 3afe e22f b882 aab0 4328 1531 7d89 ad30
00000030: 1cae 3e31 85b5 d530 41ab b9b0

running_var f4 [15]
2.3902323e-14 3.8388577e-14 3.0220377e-14 5.910031e-15 8.7583424e-13 2.0901324e-14 1.10969515e-14 1.9791294e-14
1.1083747e-14 2.07683e-15 1.0127047e-14 5.4021762e-15 5.880489e-14 1.818531e-14 2.665201e-15
00000000: 014b d728 04e3 2c29 b919 0829 6aee d427
00000010: 8286 762b 2c43 bc28 a8e7 4728 9e43 b228
00000020: c3aa 4728 c0a6 1527 c36e 3628 48a2 c227
00000030: b66a 8429 78cc a328 480c 4027

weight f4 [18, 15, 1]
-4.0077694e-08 -7.399777e-08 4.4477375e-08 3.4967835e-09 1.4453644e-07 -2.4563612e-08 -1.420238e-08 -3.7806714e-08
-2.8051309e-08 2.4033563e-08 -4.7312152e-08 -4.4053916e-08 -1.4674112e-07 -2.9232947e-08 2.2704322e-08 -1.041623e-08
-1.1627563e-08 1.7564997e-08 1.944751e-08 -5.8986906e-08 1.9692816e-07 -3.6144588e-08 6.493982e-08 -2.1350703e-08
-2.105747e-08 2.6405278e-08 -1.0031924e-09 -1.8279331e-07 -7.319012e-10 2.6851876e-07 -2.950147e-08 2.0232451e-09
2.5592186e-08 2.2853497e-09 1.219526e-08 -7.0039223e-09 -8.353576e-08 -4.355022e-08 -2.082254e-08 3.699247e-08
1.2723902e-08 -9.752501e-09 -3.0968895e-08 -5.532661e-08 9.3111865e-09 -4.634358e-07 1.21784245e-08 2.9607014e-07
3.5316333e-07 1.97192e-07 -7.481018e-08 4.7246587e-08 5.256919e-08 -1.9881158e-07 1.2812792e-08 3.8422378e-08
-1.692313e-08 8.176267e-07 -2.7289826e-07 -9.9128634e-08 -3.655681e-08 1.7982238e-08 9.736882e-08 -8.4891e-08
-7.1298196e-08 -1.8535824e-08 -6.726723e-08 3.0793665e-08 4.2487978e-09 4.917615e-08 -1.0525147e-07 9.140442e-09
-2.3385529e-07 1.2781241e-08 2.340906e-08 -5.6596328e-09 2.6855773e-08 3.5918548e-09 -4.3154955e-09 -7.939187e-08
-3.71519e-09 -2.9975602e-08 1.42966075e-08 2.2121494e-08 4.1281854e-08 -2.5742345e-08 -1.8273944e-08 -1.6353335e-08
-1.5020722e-08 2.5713597e-08 -2.6435266e-08 1.6841253e-07 4.8919617e-08 2.0001597e-08 -2.3590583e-09 6.836048e-08
3.043983e-08 3.1598866e-08 -3.820999e-08 -6.934028e-08 -1.4083145e-07 -7.3683952e-09 -4.8315574e-09 -1.674289e-08
1.2612876e-08 5.158673e-08 3.5870187e-08 8.297748e-09 5.6493832e-08 -1.0584508e-08 6.9561004e-08 3.3758585e-08
4.7194675e-08 3.401073e-08 5.4559973e-08 3.1619756e-08 1.0465273e-08 -1.8789068e-07 3.083921e-09 -2.538363e-08
1.0466577e-07 -4.2811505e-09 1.8820555e-07 9.3959954e-08 -2.1347729e-07 -2.994181e-08 -5.5357276e-08 -4.356396e-07
6.126033e-10 -2.3458982e-08 -1.863656e-08 1.1845232e-08 -1.7268326e-07 7.449136e-08 -5.5235336e-08 -3.2422893e-08
1.6543257e-08 2.5087846e-08 -2.089777e-08 -5.9194694e-08 -3.925399e-09 8.162031e-09 -3.762822e-08 2.6087395e-08
-8.405024e-09 2.3026669e-08 -1.0204584e-09 4.7801763e-09 4.2476525e-09 1.2045544e-08 -3.090706e-08 -7.697022e-09
3.9838902e-08 2.022764e-08 5.5652924e-07 -1.0208834e-07 -8.853485e-09 -4.0983654e-08 -5.9819527e-10 2.901921e-09
3.4898818e-08 1.6309777e-07 8.9590095e-08 -7.4994176e-08 -6.3490084e-08 -4.153805e-08 1.3753763e-09 -2.3686534e-08
5.9573594e-08 -6.4956005e-08 -2.4012351e-08 5.9937015e-08 1.1281299e-08 1.4503852e-08 -1.08512435e-08 -4.9282143e-09
8.0188665e-09 1.3612274e-07 9.668458e-09 5.5217136e-08 -7.814988e-09 -2.4478515e-08 -6.9489374e-08 -2.9813478e-08
-1.483018e-07 2.4041256e-08 -2.8923075e-08 -2.037969e-08 -4.6952902e-08 -1.1318291e-08 2.5925491e-08 1.8552777e-09
3.2599585e-09 -6.935144e-09 9.00921e-08 -1.7614948e-07 -1.2235066e-07 1.8494353e-08 -8.160759e-08 -2.8601434e-07
-4.636502e-08 3.0249979e-07 4.172754e-07 5.5587094e-07 2.8929092e-08 -9.333592e-10 1.908433e-08 2.1470794e-07
6.8675963e-09 3.8965943e-08 -2.523527e-08 8.7595296e-08 -2.1142497e-09 1.0486305e-07 5.3038973e-09 1.6639117e-07
-6.418497e-08 -3.9425732e-08 -4.5240935e-08 -3.7895862e-08 1.4827313e-08 3.6312704e-09 -3.87199e-09 -1.2883247e-08
-6.6716943e-09 -1.1641936e-07 -7.759802e-08 -4.3206867e-08 2.1243326e-07 1.8955751e-07 -1.3505575e-08 -8.121093e-08
-2.3871135e-07 7.875805e-08 -2.8152968e-08 4.247048e-08 -6.5809225e-08 -2.6466225e-07 -2.543785e-08 2.910853e-08
-1.5672497e-06 -7.470856e-08 -1.4592795e-08 1.0305421e-06 1.1585225e-06 -2.1825722e-08 3.848554e-07 1.1968198e-06
2.8013494e-07 -3.179e-07 4.7197414e-08 2.9771476e-08 -7.795674e-06 5.123856e-07 -1.5184935e-07 2.4128429e-08
00000000: e421 2cb3 b4e8 9eb3 6407 3f33 114c 7031
00000010: e031 1b34 f4ff d2b2 bafe 73b2 ec60 22b3
00000020: 7bf5 f0b2 5d72 ce32 4334 4bb3 cb35 3db3
00000030: e48f 1db4 ee1b fbb2 5507 c332 10f3 32b2
00000040: 90c2 47b2 d6e1 9632 870d a732 ca58 7db3
00000050: 3373 5334 653d 1bb3 0b75 8b33 b166 b7b2
00000060: dee1 b4b2 d2d1 e232 b2e0 89b0 d845 44b4
00000070: f82e 49b0 f028 9034 6b6a fdb2 4e09 0b31
00000080: d0d5 db32 4c0c 1d31 5283 5132 27a7 f0b1
00000090: 4564 b3b3 f90b 3bb3 40dd b2b2 a7e1 1e33
000000a0: 5098 5a32 f48b 27b2 a902 05b3 40a0 6db3
000000b0: 08f7 1f32 22ce f8b4 4739 5132 92f3 9e34
000000c0: 669a bd34 b9bb 5334 55a7 a0b3 2cec 4a33
000000d0: 70c8 6133 e978 55b4 411f 5c32 da05 2533
000000e0: 5b5e 91b2 e17a 5b35 da82 92b4 8be0 d4b3
000000f0: a302 1db3 5c77 9a32 1319 d133 524d b6b3
00000100: 991c 99b3 b538 9fb2 8d74 90b3 fe41 0433
00000110: d2fc 9131 c035 5333 9c06 e2b3 1708 1d32
00000120: a719 7bb4 7e94 5b32 1115 c932 a876 c2b1
00000130: 78b0 e632 94d4 7631 8047 94b1 247e aab3
00000140: 504e 7fb1 86be 00b3 259d 7532 ae05 be32
00000150: e14d 3133 0420 ddb2 d4f8 9cb2 5d79 8cb2
00000160: eb06 81b2 cce0 dc32 c413 e3b2 e2d4 3434
00000170: b01b 5233 facf ab32 fe1c 22b1 92cd 9233
00000180: f2bc 0233 52b7 0733 541c 24b3 39e8 94b3
00000190: 7437 17b4 172d fdb1 d402 a6b1 01d2 8fb2
000001a0: 04b0 5832 3690 5d33 b00f 1a33 e28d 0e32
000001b0: a0a3 7233 29d7 35b2 9161 9533 f5fd 1033
000001c0: 18b3 4a33 3113 1233 5355 6a33 4ace 0733
000001d0: c2ca 3332 ffbe 49b4 e9ec 5331 310b dab2
000001e0: 9ec4 e033 6619 93b1 8c15 4a34 08c7 c933
000001f0: 3138 65b4 5e99 00b3 f8c1 6db3 dae1 e9b4
00000200: 2064 2830 d982 c9b2 3b16 a0b2 e27f 4b32
00000210: d06a 39b4 0ff8 9f33 e53b 6db3 5941 0bb3
00000220: 021b 8e32 c280 d732 af82 b3b2 413d 7eb3
00000230: 2de0 86b1 fe38 0c32 aa9c 21b3 ca16 e032
00000240: b065 10b2 2ecc c532 3040 8cb0 e03e a431
00000250: bff2 9131 ddf0 4e32 acbe 04b3 dc3b 04b2
00000260: 561b 2b33 0dc1 ad32 6664 1535 a93b dbb3
00000270: 0a1a 18b2 0106 30b3 406e 24b0 226b 4731
00000280: a8e3 1533 f91f 2f34 ad64 c033 7c0c a1b3
00000290: 0b58 88b3 9267 32b3 c007 bd30 3d77 cbb2
000002a0: dcdd 7f33 f17d 8bb3 b843 ceb2 b9b6 8033
000002b0: adcf 4132 9e2c 7932 466c 3ab2 0855 a9b1
000002c0: 59c3 0932 2229 1234 541a 2632 e227 6d33
000002d0: ae42 06b2 d344 d2b2 303a 95b3 440c 00b3
000002e0: e33c 1fb4 4883 ce32 8472 f8b2 6a0f afb2
000002f0: 43a9 49b3 5f72 42b2 c2b2 de32 c8fc fe30
00000300: cc05 6031 2c4a eeb1 a878 c133 9a23 3db4
00000310: 7e5f 03b4 83dd 9e32 3f40 afb3 838d 99b4
00000320: e122 47b3 4167 a234 e505 e034 2937 1535
00000330: bf7f f832 a847 80b0 e3ee a332 788a 6634
00000340: 04f8 eb31 825b 2733 f2c4 d8b2 061c bc33
00000350: 464a 11b1 1231 e133 933d b631 42a9 3234
00000360: 0fd6 89b3 0d55 29b3 ef4e 42b3 f1c2 22b3
00000370: 36bb 7e32 fc89 7931 620a 85b1 1f55 5db2
00000380: d83c e5b1 3802 fab3 f6a3 a6b3 7492 39b3
00000390: 3619 6434 2c89 4b34 2606 68b2 2e66 aeb3
000003a0: 3d28 80b4 b221 a933 08d5 f1b2 c968 3633
000003b0: 0153 8db3 e716 8eb4 6c82 dab2 560a fa32
000003c0: 4a5a d2b5 776f a0b3 cbb3 7ab2 2851 8a35
000003d0: 887e 9b35 457b bbb2 209e ce34 6aa2 a035
000003e0: 7465 9634 d8ab aab4 1bb6 4a33 2bbc ff32
000003f0: 2aca 02b7 df8a 0935 080c 23b4 fa42 cf32

bias f4 [18]
-2.3521616e-09 -8.606058e-10 -4.301161e-09 -6.690384e-09 -1.8879496e-09 2.89805e-09 -5.997633e-09 4.337689e-09
-1.6062975e-09 -2.3811153e-09 -1.4394554e-09 -2.5086628e-09 -1.7524071e-09 5.5043203e-10 -4.5455963e-09 -2.0540538e-09
-3.2039043e-09 4.4255022e-10
00000000: aaa3 21b1 c08f 6cb0 6ac9 93b1 3de1 e5b1
00000010: 29bd 01b1 0927 4731 bd13 ceb1 b70a 9531
00000020: 92c4 dcb0 06a1 23b1 56d6 c5b0 dd64 2cb1
00000030: 58d9 f0b0 364d 1730 7d2f 9cb1 4c27 0db1
00000040: ae2b 5cb1 684b f32f

weight f4 [18]
3.7168043e-08 3.1533182e-07 3.6323065e-08 -1.6484826e-06 9.8790665e-08 -3.328773e-08 4.483573e-08 4.8377336e-07
-4.656977e-07 1.1392313e-07 -4.5063834e-07 4.3719837e-08 -6.185297e-08 -1.8021007e-06 -7.264456e-08 2.5072814e-07
-1.126822e-05 -3.3173285e-07
00000000: b2a2 1f33 e04a a934 a201 1c33 6e41 ddb5
00000010: be26 d433 3ff8 0eb3 6891 4033 a7dc 0135
00000020: 0105 fab4 e7a5 f433 43ef f1b4 78c6 3b33
00000030: 08d4 84b3 b5df f1b5 c500 9cb3 d09b 8634
00000040: a30c 3db7 0419 b2b4

bias f4 [18]
6.8275176e-07 -3.3164386e-07 4.0756937e-08 6.5037807e-07 1.6755031e-07 -1.6628074e-07 3.3022832e-08 1.14994805e-08
3.8228967e-07 -5.7788114e-08 -1.0087698e-07 2.0110511e-07 1.3907751e-08 3.1269742e-06 9.011476e-09 -2.4109968e-06
-4.642979e-06 1.18351096e-07
00000000: 5846 3735 c90c b2b4 ba0c 2f33 a495 2e35
00000010: e1e7 3334 e78a 32b4 fdd4 0d33 408f 4532
00000020: 7e3d cd34 b432 78b3 b5a1 d8b3 5aef 5734
00000030: f0ee 6e32 02d9 5136 e4d0 1a32 9ccc 21b6
00000040: e3ca 9bb6 3428 fe33

running_mean f4 [18]
-1.0443024e-09 -4.5851015e-10 -2.6533993e-09 -3.992175e-09 -1.1532839e-09 1.7812033e-09 -3.632542e-09 2.6027527e-09
-1.2249171e-09 -1.4340946e-09 -7.497739e-10 -1.4103324e-09 -6.369308e-10 3.7853704e-10 -2.386299e-09 -1.1895986e-09
-2.3029403e-09 4.8047843e-11
00000000: 2087 8fb0 9111 fcaf 1857 36b1 8b2b 89b1
00000010: 9281 9eb0 85ce f430 5ba0 79b1 1cdc 3231
00000020: f059 a8b0 b819 c5b0 a618 4eb0 a9d5 c1b0
00000030: 0514 2fb0 5a1a d02f 37fc 23b1 487f a3b0
00000040: c141 1eb1 1051 532e

running_var f4 [18]
1.5759062e-14 1.483586e-14 1.4701075e-15 4.0353358e-14 1.2170937e-14 2.4387025e-15 2.21205e-15 5.884771e-15
4.3372735e-13 3.4320348e-15 1.9168247e-14 6.5218115e-15 4.519592e-15 3.3147584e-14 3.023075e-15 1.3943079e-14
1.1564813e-12 2.4718627e-14
00000000: ecf1 8d28 2aa1 8528 65dd d326 41bc 3529
00000010: 8a40 5b28 1fba 2f27 1f65 1f27 6f05 d427
00000020: b32a f42a de4d 7727 f8a6 ac28 18f9 ea27
00000030: e1d5 a227 9048 1529 e4d5 5927 1a2d 7b28
00000040: a1c2 a22b 46a5 de28

weight f4 [15, 18, 1]
2.1152148e-08 2.7888671e-08 -7.0222193e-09 3.2534693e-08 2.4559126e-08 -2.479122e-08 -9.769986e-09 -5.1055444e-08
5.6007337e-08 1.2551414e-08 2.8816652e-08 1.2655032e-08 -4.7439226e-09 -2.152401e-08 9.937066e-09 -8.0038525e-08
4.1595456e-08 7.639663e-08 -3.9121474e-08 2.8256213e-07 -2.7323486e-07 -4.0501797e-07 -3.180639e-08 1.2164676e-08
2.9215608e-09 -1.0792522e-07 -4.0040804e-06 7.9027274e-08 -1.1379601e-07 1.0204911e-07 -1.9850026e-07 -1.1139005e-06
-2.48986e-08 -8.8806206e-07 -5.679194e-06 -7.520437e-08 -1.4238024e-08 -2.7407944e-08 -9.901541e-10 1.1530446e-07
1.2958119e-09 1.1641905e-08 -8.400251e-09 4.06488e-09 1.358271e-08 9.077734e-08 -4.779208e-10 -3.1112254e-08
3.2868808e-08 -4.2529376e-08 6.34523e-09 -1.9556548e-08 2.2016337e-08 1.6183987e-08 1.2333167e-06 -1.3376354e-08
1.1293633e-08 1.5812574e-07 2.8186122e-08 3.5835527e-08 -3.331386e-08 4.992573e-08 9.312863e-07 -2.265035e-09
-6.9478084e-08 2.748859e-07 4.621508e-08 -3.295461e-08 6.347334e-08 1.7363676e-07 -2.3984603e-07 8.8550614e-08
5.1032313e-08 -1.0082233e-06 2.3499258e-08 7.658798e-07 -7.033385e-10 1.7356218e-08 1.4814219e-08 -4.4012464e-07
-3.029898e-08 -4.62404e-08 1.1112386e-08 1.3105828e-10 6.274684e-07 3.1632837e-08 -6.524373e-08 -3.2875317e-08
3.501899e-08 1.074026e-08 -4.1684558e-08 -1.9519067e-07 -5.0355112e-08 -3.8638465e-08 -9.221756e-09 -1.7007395e-10
-1.8105464e-08 -1.72817e-08 -1.9333362e-07 8.244723e-08 7.572015e-08 -1.1977033e-08 -7.1636954e-09 -1.8745547e-07
-5.3320033e-08 2.679133e-09 -8.5037165e-08 -2.3707539e-08 1.6357609e-08 1.7751434e-08 1.5296376e-08 -4.0393813e-09
2.2944382e-08 9.2757716e-08 6.1365775e-09 1.494644e-09 3.0082116e-08 -3.885084e-09 -1.5541657e-10 5.3330595e-08
5.651946e-09 1.9939813e-08 3.3772125e-08 6.6828605e-08 -5.213595e-08 2.9367975e-08 9.960553e-07 -2.9328792e-08
-2.9976842e-08 3.8074713e-08 -8.341607e-08 1.7169619e-08 -3.5135703e-09 3.037905e-08 1.5957008e-08 -8.1736964e-08
-2.1149535e-08 2.1867953e-08 -1.2690437e-08 -1.0389078e-08 -2.46316e-08 -2.686054e-08 3.594966e-08 -2.90989e-09
1.6775385e-08 2.5375618e-08 -1.8838165e-08 -1.9573255e-08 1.0861502e-08 -5.1263882e-08 -1.6388926e-08 -3.7151096e-08
-1.5720396e-07 3.1121086e-08 -1.5168524e-08 -1.9288017e-08 -2.181764e-08 -2.7321278e-08 5.337384e-08 -7.68924e-08
2.4848066e-07 -1.1163455e-07 -2.771662e-09 -4.8073947e-08 -3.0758082e-07 9.198246e-09 -9.857434e-09 -2.3979476e-08
-3.0558496e-08 2.2450921e-08 -6.044261e-08 9.095704e-09 -2.8934714e-08 2.310318e-08 -1.8174036e-08 2.992271e-08
1.5886782e-08 -2.3494191e-08 2.4773563e-08 -3.1608714e-08 -1.0542813e-08 8.536568e-09 -1.32375e-08 2.1658145e-07
1.8095834e-08 5.0322406e-08 -2.9855745e-08 -6.8454025e-09 3.5369026e-06 -1.1167431e-08 9.474892e-09 -6.5496124e-08
-9.10244e-08 -6.558982e-07 -1.3688745e-08 -5.4134386e-08 1.7859123e-06 1.9493806e-08 -4.451203e-09 -1.3729851e-08
-1.0616254e-08 -4.453192e-09 2.6381972e-08 6.602501e-10 -1.2982371e-10 4.4610537e-10 6.023583e-08 3.59786e-08
4.357023e-08 -5.5680425e-09 -1.5129132e-08 9.237793e-08 -2.8896388e-08 -2.6386381e-08 1.5260014e-08 -6.4795e-08
-2.1069454e-08 4.6443834e-08 -4.672836e-08 4.366864e-09 -7.323413e-10 9.748248e-09 7.885711e-08 1.251606e-08
-2.7854753e-08 -2.1115863e-08 -4.2632625e-08 -2.9513687e-08 -1.2126832e-08 2.3063045e-08 1.2809044e-08 1.0054162e-08
-1.6280088e-08 5.70776e-08 1.3423565e-07 -2.932927e-07 -9.760463e-08 -6.2741884e-07 1.1068099e-07 5.8200918e-08
5.1460414e-09 -1.3555582e-07 1.5868003e-06 1.2243078e-07 4.8344003e-08 1.2658181e-07 7.1757306e-08 1.0259104e-06
-2.7632094e-08 -2.0169769e-06 -5.789913e-06 1.5643323e-07 -2.7421384e-08 -1.7637767e-09 3.4378886e-08 3.736005e-08
00000000: 11b2 b532 d68f ef32 1848 f1b1 46bc 0b33
00000010: 17f6 d232 78f4 d4b2 dad8 27b2 0e48 5bb3
00000020: b88c 7033 b4a1 5732 7d88 f732 6b69 5932
00000030: fcff a2b1 cce3 b8b2 aeb7 2a32 a5e1 abb3
00000040: b0a6 3233 7e0f a433 8406 28b3 0bb3 9734
00000050: 1db1 92b4 3f71 d9b4 7f9b 08b3 d0fc 5032
00000060: a4c4 4831 84c4 e7b3 ca5a 86b6 b4b5 a933
00000070: 0560 f4b3 1726 db33 5623 55b4 5481 95b5
00000080: 9ae0 d5b2 2963 6eb5 e88f beb6 0a80 a1b3
00000090: 7e9b 74b2 b56e ebb2 f315 88b0 4c9d f733
000000a0: 5418 b230 a401 4832 b250 10b2 10ab 8b31
000000b0: 6459 6932 5ff1 c233 b05e 03b0 49a0 05b3
000000c0: a32b 0d33 8ba9 36b3 3c05 da31 4efd a7b2
000000d0: 701e bd32 f704 8b32 7088 a535 d4cd 65b2
000000e0: ec05 4232 46c9 2934 f01d f232 94e9 1933
000000f0: fa14 0fb3 ec6d 5633 82fd 7935 eba6 1bb1
00000100: fb33 95b3 0894 9334 057e 4633 fa89 0db3
00000110: d64e 8833 e970 3a34 30c4 80b4 3729 be33
00000120: 9f2e 5b33 4a52 87b5 6adb c932 dc96 4d35
00000130: 0c55 41b0 ba16 9532 a081 7e32 454a ecb4
00000140: 1522 02b3 dc99 46b3 cae8 3e32 a019 102f
00000150: 4d6f 2835 acdc 0733 1f1c 8cb3 cb32 0db3
00000160: c967 1633 2a84 3832 a808 33b3 9a95 51b4
00000170: 0846 58b3 71f3 25b3 b66d 1eb2 90ff 3aaf
00000180: 5686 9bb2 dc72 94b2 2497 4fb4 d80d b133
00000190: 989b a233 8cc3 4db2 8824 f6b1 5e47 49b4
000001a0: ff01 65b3 ce1b 3831 ad9d b6b3 6ea5 cbb2
000001b0: c382 8c32 d17b 9832 1665 8332 c6ca 8ab1
000001c0: 3b17 c532 1832 c733 e8d9 d231 1c6c cd30
000001d0: a333 0133 8f7d 85b1 e0e1 2aaf 9c0d 6533
000001e0: 0b33 c231 1d48 ab32 d80c 1133 6a83 8f33
000001f0: 15ec 5fb3 dc44 fc32 33b0 8535 b2ee fbb2
00000200: e3bf 00b3 9787 2333 7822 b3b3 647c 9332
00000210: 6273 71b1 1e7a 0233 d511 8932 5f87 afb3
00000220: 52ac b5b2 23d8 bb32 2205 5ab2 a67b 32b2
00000230: 7695 d3b2 f4ba e6b2 1267 1a33 54f7 47b1
00000240: 7619 9032 93f9 d932 90d1 a1b2 0b22 a8b2
00000250: 6499 3a32 3c2d 5cb3 a1c7 8cb2 1090 1fb3
00000260: e5cb 28b4 ffa9 0533 f04b 82b2 ccae a5b2
00000270: 7f69 bbb2 20b0 eab2 283d 6533 0b20 a5b3
00000280: ec66 8534 bebb efb3 9877 3eb1 dd79 4eb3
00000290: 9621 a5b4 5006 1e32 7459 29b2 6dfb cdb2
000002a0: 6c3f 03b3 19da c032 adcc 81b3 5443 1c32
000002b0: 1c8c f8b2 6e74 c632 211d 9cb2 5e84 0033
000002c0: 6777 8832 46d0 c9b2 a4cd d432 26c2 07b3
000002d0: c81f 35b2 39a8 1232 246b 63b2 758d 6834
000002e0: 2971 9b32 1222 5833 bd3a 00b3 cc34 ebb1
000002f0: 865b 6d36 e2da 3fb2 04c7 2232 e0a6 8cb3
00000300: 3179 c3b3 fb10 30b5 bd2b 6bb2 6381 68b3
00000310: 7bb3 ef35 5573 a732 32f1 98b1 86e0 6bb2
00000320: c762 36b2 b102 99b1 929e e232 f87c 3530
00000330: 20be 0eaf c03f f52f ff5a 8133 e486 1a33
00000340: f921 3b33 0551 bfb1 50f5 81b2 4e61 c633
00000350: d437 f8b2 44a8 e2b2 2015 8332 6e25 8bb3
00000360: 38fc b4b2 8979 4733 60b2 48b3 580b 9631
00000370: f04d 49b0 4079 2732 2858 a933 3706 5732
00000380: 4045 efb2 4662 b5b2 111b 37b3 4985 fdb2
00000390: 5f56 50b2 2c1c c632 c50e 5c32 acba 2c32
000003a0: 4bd8 8bb2 7c25 7533 6a22 1034 d775 9db4
000003b0: b69a d1b3 e56b 28b5 85af ed33 96f8 7933
000003c0: 0fd1 b031 4d8d 11b4 0bfa d435 8475 0334
000003d0: cba2 4f33 8bea 0734 ff18 9a33 03b2 8935
000003e0: 9e5b edb2 665b 07b6 f946 c2b6 0af8 2734
000003f0: 438c ebb2 6069 f2b0 fca7 1333 cf75 2033

bias f4 [15]
-5.9426424e-09 2.9161944e-09 3.0817515e-09 -3.65035e-09 -3.0082294e-09 -1.7555171e-09 -3.1185898e-10 -2.6511295e-09
2.8543963e-09 5.3140727e-09 -4.211675e-09 2.3412385e-09 -4.9134723e-09 -2.3139808e-09 3.154068e-10
00000000: 0930 ccb1 3c66 4831 bfc6 5331 a3d9 7ab1
00000010: 55b9 4eb1 c446 f1b0 4072 abaf 2a2f 36b1
00000020: 1227 4431 1497 b631 49b6 90b1 81e3 2031
00000030: 5cd3 a8b1 fb03 1fb1 9065 ad2f

weight f4 [15]
-5.2661928e-08 -6.2716204e-06 1.3683721e-09 -7.291558e-07 1.1556861e-07 1.5867124e-07 -3.6588293e-08 2.0331555e-07
-6.454531e-07 3.904848e-08 -3.9543083e-06 -1.1545355e-07 -3.5030752e-09 3.5363582e-06 3.533229e-08
00000000: 672e 62b3 cf70 d2b6 5011 bc30 34bb 43b5
00000010: 842e f833 385f 2a34 4125 1db3 f44e 5a34
00000020: 3343 2db5 42b6 2733 40af 84b6 43ef f7b3
00000030: c0ba 70b1 2c52 6d36 44c0 1733

bias f4 [15]
-5.7150956e-08 -2.5251973e-06 -1.10564045e-07 -1.0559372e-06 3.262706e-07 1.7052149e-07 1.7771454e-07 -1.574347e-07
4.2817516e-07 -3.219083e-07 6.575661e-07 -7.406196e-08 4.8460487e-07 -1.4758518e-06 1.4643945e-07
00000000: 2476 75b3 8f76 29b6 3a6f edb3 bab9 8db5
00000010: 4a2a af34 9718 3734 cdd1 3e34 520b 29b4
00000020: f2df e534 bdd2 acb4 9983 3035 fe0b 9fb3
00000030: cb15 0235 e215 c6b5 f83c 1d34

running_mean f4 [15]
-3.7045567e-09 1.7676204e-09 2.0529585e-09 -2.192493e-09 -1.8634436e-09 -6.9683137e-10 -1.026003e-10 -1.5770966e-09
1.7035187e-09 2.911053e-09 -2.7470313e-09 1.4141409e-09 -3.0940688e-09 -1.4199569e-09 -1.0149718e-10
00000000: 4093 7eb1 9df0 f230 0714 0d31 bfaa 16b1
00000010: 0c0e 00b1 268b 3fb0 d69e e1ae 27c1 d8b0
00000020: 3c21 ea30 c90b 4831 49c6 3cb1 a95b c230
00000030: 6f9f 54b1 4b28 c3b0 d531 dfae

running_var f4 [15]
3.4989351e-15 3.975107e-12 1.1717605e-15 5.931762e-14 8.162738e-15 4.306438e-15 2.1137214e-15 2.25847e-15
9.320565e-15 9.117205e-15 3.714269e-13 1.4872981e-15 2.0083102e-15 4.3473684e-12 1.3795293e-15
00000000: f61f 7c27 95dc 8b2c 55de a826 4892 8529
00000010: fc0b 1328 e127 9b27 474f 1827 6bbd 2227
00000020: 85e7 2728 b03d 2428 4218 d12a 9d57 d626
00000030: c9b6 1027 9df5 982c a6cf c626

weight f4 [12, 15, 1]
-3.215562e-09 1.1916095e-07 2.07809e-08 5.7296063e-08 2.918731e-08 -5.8788366e-08 4.4694456e-08 4.5259476e-08
-1.1361836e-08 -2.4995337e-08 -6.631964e-10 -3.104722e-08 -9.621094e-09 8.1128675e-08 1.4987872e-08 5.1289835e-08
-3.13158e-07 3.148939e-08 1.7473953e-07 3.3899443e-08 -6.123069e-08 4.959359e-09 -6.765842e-08 -8.196727e-08
-8.497662e-08 1.186046e-07 2.2751506e-08 3.625079e-08 3.053763e-08 -1.6389166e-08 2.9143077e-08 -1.7600149e-08
-1.511993e-08 -7.8112514e-08 1.8412969e-08 -3.4714645e-07 2.329987e-08 8.043114e-08 8.994658e-09 -1.9136545e-08
7.448277e-08 -4.8640243e-09 3.9153687e-08 -3.3341813e-08 -1.247955e-07 -1.0145178e-07 9.138655e-06 -4.174278e-08
1.0517341e-05 -1.5450624e-08 -1.2854375e-07 2.1145748e-08 -5.920472e-07 -5.974881e-08 2.654113e-07 -1.6167826e-07
1.9336916e-07 -8.150189e-08 -7.427741e-06 7.377083e-08 -7.629146e-08 -1.15313156e-07 9.584285e-09 -7.529298e-08
7.380328e-09 9.722468e-09 3.1201417e-08 -2.9536812e-08 2.9417905e-08 3.6170334e-08 7.2829025e-08 1.9626722e-08
-5.700414e-09 -9.338152e-08 -2.3806496e-08 -1.0090657e-08 -2.2379263e-09 3.1463543e-08 -1.8167698e-09 -3.6407307e-08
3.3780818e-08 5.564067e-08 2.8460034e-10 1.1096576e-07 -5.3214563e-08 -2.0620037e-08 2.877491e-07 -8.520181e-09
5.8254596e-08 -1.9364972e-08 1.39287115e-08 -5.87173e-08 1.7941783e-08 -4.457704e-09 -2.6338473e-08 3.2939354e-07
-2.57419e-08 3.695248e-08 -8.73941e-09 2.0237362e-08 -9.696874e-09 -5.357614e-08 -5.5534965e-08 5.146227e-08
7.717489e-09 5.6777107e-09 -9.410748e-10 6.697389e-08 -5.054769e-09 6.2358644e-08 1.9821206e-08 -3.4560042e-08
-3.271993e-08 2.3387498e-08 -3.6069977e-08 3.6078678e-08 5.907689e-09 -1.1142829e-08 2.7118462e-08 -1.2041895e-08
-5.5433684e-08 -1.0456935e-08 -2.4946232e-08 -7.944898e-10 3.5271714e-09 -2.2621236e-08 1.19685915e-08 2.9707365e-09
-2.3458124e-08 5.070178e-08 -8.99167e-09 3.03854e-08 -1.00153116e-07 -4.860169e-08 -3.2221994e-08 -2.2873913e-08
-3.1470597e-07 3.181067e-08 1.2219157e-06 -2.9365655e-08 -0.00031846808 3.1893094e-08 -1.9307463e-07 -3.5196113e-08
3.9833145e-07 -1.7228522e-06 1.3581598e-08 -2.0160462e-08 2.2743517e-07 -4.0935983e-08 -5.618837e-09 -1.1877456e-08
-1.7333642e-08 -3.4335194e-08 7.205084e-09 -4.1151218e-08 2.5194966e-08 -7.303791e-08 -1.2761369e-08 -1.970087e-08
1.8524837e-08 -9.669561e-09 2.716788e-08 -1.9661824e-08 3.4080232e-09 1.1227528e-08 -3.25372e-08 1.8074843e-08
-6.5141226e-10 1.3088037e-08 -2.4355755e-08 3.3471036e-08 -2.3350046e-09 4.6787676e-08 -1.2220427e-08 1.1154578e-08
-1.5347507e-07 -3.523874e-08 -4.039425e-08 -4.899929e-09
00000000: c4f8 5cb1 6de5 ff33 af81 b232 b015 7633
00000010: 93b7 fa32 7e7e 7cb3 13f6 3f33 5263 4233
00000020: e231 43b2 54b5 d6b2 4c4c 36b0 c858 05b3
00000030: 054a 25b2 f638 ae33 aebe 8032 c549 5c33
00000040: 1c20 a8b4 f33e 0733 09a0 3b34 d598 1133
00000050: ee7d 83b3 fc66 aa31 9c4b 91b3 fc05 b0b3
00000060: 647c b6b3 92b3 fe33 176f c332 2ab2 1b33
00000070: 7b28 0333 28c8 8cb2 4e56 fa32 232f 97b2
00000080: 14e1 81b2 cfbe a7b3 8c2a 9e32 725f bab4
00000090: f524 c832 7db9 ac33 ed86 1a32 b561 a4b2
000000a0: 56f3 9f33 6920 a7b1 ef29 2833 b633 0fb3
000000b0: 87ff 05b4 b5dd d9b3 3952 1937 ac48 33b3
000000c0: a373 3037 48b8 84b2 d605 0ab4 fea3 b532
000000d0: 2ced 1eb5 414f 80b3 da7d 8e34 c899 2db4
000000e0: e9a0 4f34 2306 afb3 cf3b f9b6 f16b 9e33
000000f0: acd5 a3b3 14a2 f7b3 22a8 2432 c1b0 a1b3
00000100: 0d96 fd31 de07 2732 5202 0633 23b8 fdb2
00000110: a8b2 fc32 b459 1b33 2e66 9c33 9e97 a832
00000120: 5fdd c3b1 0989 c8b3 0a7f ccb2 2e5b 2db2
00000130: 04ca 19b1 8822 0733 e8b1 f9b0 425e 1cb3
00000140: 6716 1133 90f9 6e33 f075 9c2f 124c ee33
00000150: 088e 64b3 f11f b1b2 ef7b 9a34 2760 12b2
00000160: 9b33 7a33 0658 a6b2 1f4b 6f32 5b30 7cb3
00000170: 661e 9a32 612a 99b1 ea3e e2b2 81d7 b034
00000180: 091f ddb2 aeb5 1e33 5524 16b2 6ed6 ad32
00000190: 4e97 26b2 971b 66b3 5785 6eb3 5d07 5d33
000001a0: e095 0432 ac15 c331 2057 81b0 49d3 8f33
000001b0: 38ae adb1 07ea 8533 4b43 aa32 2b6f 14b3
000001c0: f287 0cb3 a7e5 c832 5ceb 1ab3 edf4 1a33
000001d0: 95fc ca31 ae6e 3fb2 21f2 e832 d0e0 4eb2
000001e0: fb15 6eb3 16a6 33b2 5849 d6b2 4063 5ab0
000001f0: a862 7231 a050 c2b2 6c9e 4d32 c025 4c31
00000200: f680 c9b2 32c3 5933 c879 1ab2 1a81 0233
00000210: c213 d7b3 20be 50b3 7564 0ab3 447c c4b2
00000220: dcf4 a8b4 34a0 0833 b400 a435 c23f fcb2
00000230: 10f8 a6b9 d4fa 0833 f34f 4fb4 892a 17b3
00000240: 42da d534 c03c e7b5 8054 6932 532d adb2
00000250: e734 7434 97d1 2fb3 d00f c1b1 9b0d 4cb2
00000260: 15e5 94b2 f277 13b3 9790 f731 3ebe 30b3
00000270: 516c d832 04d9 9cb3 183d 5bb2 ac3a a9b2
00000280: 8c20 9f32 2e1f 26b2 cd5e e932 cfe4 a8b2
00000290: 9432 6a31 31e3 4032 08bf 0bb3 0043 9b32
000002a0: 100f 33b0 ccd9 6032 df36 d1b2 cbc1 0f33
000002b0: d675 20b1 98f3 4833 02f2 51b2 5aa2 3f32
000002c0: e8ca 24b4 6859 17b3 f37d 2db3 3b5c a8b1

bias f4 [12]
2.0593156e-09 -3.7205137e-09 -2.3285875e-09 -4.774798e-09 -2.1870767e-09 1.3364667e-09 2.1906157e-09 8.685215e-10
-3.5534615e-09 2.622622e-10 -5.042273e-09 2.1659003e-09
00000000: dd83 0d31 f8ab 7fb1 f204 20b1 910f a4b1
00000010: 764b 16b1 beae b730 b889 1631 c4bc 6e30
00000020: 2831 74b1 202e 902f 4d40 adb1 ecd6 1431

weight f4 [12]
1.0601872e-07 -6.585749e-07 9.459341e-08 -2.5143647e-06 8.386058e-08 1.9539582e-08 1.01062504e-07 3.697039e-08
-1.5383e-08 9.710626e-07 -4.0754305e-08 -2.162304e-08
00000000: 68ac e333 ecc8 30b5 4723 cb33 75bc 28b6
00000010: d716 b433 ffd7 a732 b307 d933 60c9 1e33
00000020: 9323 84b2 7555 8235 d509 2fb3 91bd b9b2

bias f4 [12]
-6.5163056e-07 -4.6074766e-07 -5.6748704e-08 -2.337952e-06 -1.6056993e-07 -3.409876e-08 1.0063248e-07 -1.1707786e-07
3.2295098e-08 1.8216202e-06 -2.0630472e-07 2.7256256e-08
00000000: b6eb 2eb5 ad5c f7b4 dcbb 73b3 b6e5 1cb6
00000010: 2069 2cb4 fc73 12b3 4a1b d833 3c6c fbb3
00000020: d6b4 0a33 657e f435 9c84 5db4 2421 ea32

running_mean f4 [12]
1.1627103e-09 -2.2000022e-09 -1.3999724e-09 -3.0728875e-09 -1.3203243e-09 9.0909136e-10 1.4687151e-09 4.6169193e-10
-1.9157484e-09 -2.5978972e-10 -3.0229392e-09 1.3053068e-09
00000000: 3bcd 9f30 d92e 17b1 2669 c0b0 cf2a 53b1
00000010: c876 b5b0 9ee3 7930 d2db c930 5dd1 fd2f
00000020: 34a6 03b1 27d2 8eaf 1cbc 4fb1 6666 b330

running_var f4 [12]
9.579986e-15 1.0067613e-14 3.3030444e-15 1.916936e-11 8.813096e-15 2.5187183e-15 2.0017407e-15 1.9423349e-15
1.6691518e-15 3.6710547e-14 1.2026267e-15 1.4073834e-15
00000000: e393 2c28 ac5c 3528 6a02 6e27 909d a82d
00000010: 3bc3 1e28 277e 3527 993d 1027 c1f5 0b27
00000020: d58c f026 6154 2529 1851 ad26 48d3 ca26

weight f4 [24, 12, 1]
6.9922583e-09 7.373124e-11 1.7146034e-08 -5.2581036e-08 -2.806495e-08 -6.347191e-09 -4.553149e-08 2.98634e-10
7.2522566e-09 4.432179e-10 -2.186907e-09 2.0032832e-08 1.8667023e-08 -1.7402344e-08 2.9396857e-08 3.3244465e-08
-3.3809027e-08 -2.1413684e-09 3.3301788e-09 5.2783853e-09 3.978558e-08 2.1951422e-08 -8.234704e-09 -2.7661575e-09
3.851117e-09 -3.7302805e-10 -4.162771e-08 -5.793172e-09 -3.352166e-08 -4.314121e-09 2.6945816e-08 -5.3819904e-09
3.333442e-08 3.0317178e-08 -7.8364204e-10 3.4026257e-08 1.613606e-08 -5.5428416e-08 -1.9890003e-08 -1.9087592e-08
-8.126601e-09 -3.647686e-08 -3.0559512e-08 -6.973294e-09 -3.1680884e-08 3.5871814e-08 -4.510588e-08 3.0596823e-08
1.3577305e-08 1.1101304e-07 5.4839973e-08 -1.7016676e-07 1.0511572e-07 6.457415e-08 -2.6063272e-08 -5.7213234e-10
-3.2662967e-08 1.12427685e-08 7.3890947e-09 1.3982696e-08 1.2893042e-08 -2.7702202e-07 4.5396973e-08 -3.736836e-08
1.1966433e-08 2.6467424e-09 -5.690029e-09 2.7432048e-08 3.9853443e-08 8.1343565e-08 -3.312685e-08 -3.0644014e-08
2.6473511e-08 1.4450865e-08 2.0422075e-08 3.0065062e-10 -5.9478915e-09 1.8444476e-08 2.9396958e-08 3.0202125e-09
-1.995974e-08 -3.977276e-08 1.9848503e-08 2.5092438e-08 -1.1646239e-07 4.660861e-08 2.632046e-08 -1.5451822e-07
3.4162568e-08 -1.5778229e-08 1.6017687e-08 -1.5896898e-08 -4.06787e-08 -1.4383582e-07 6.155506e-08 -1.4347117e-08
-1.500624e-08 -8.3508354e-08 -3.197806e-08 5.4112697e-08 2.9119713e-08 2.2884223e-08 -3.2650146e-08 3.025003e-08
-1.6960287e-08 8.554813e-08 1.0532335e-09 1.0092476e-08 3.1930065e-07 3.235811e-07 2.9657958e-08 3.566464e-07
-1.3472837e-07 -9.539377e-08 5.6833336e-08 -4.771983e-09 -6.987511e-08 7.3842557e-07 -2.3010632e-07 6.773935e-08
-1.9747288e-09 -2.508631e-08 5.8473915e-09 7.7473814e-08 -4.027553e-08 -2.2027553e-08 9.909234e-09 1.6907816e-08
-1.7173194e-08 3.0686977e-08 2.3076733e-08 -1.2855379e-08 2.5459235e-09 3.1436766e-08 -1.4460123e-08 -1.2223004e-08
8.412337e-08 4.1606674e-09 -2.251625e-08 -2.5842942e-08 -1.5145652e-08 -1.1781288e-07 -1.5527705e-08 -3.023535e-08
-1.2694759e-08 -3.1546833e-08 -1.016092e-08 4.1174633e-09 8.187757e-08 1.7687208e-08 -1.0204449e-08 1.2869479e-08
2.3759776e-08 -1.2941279e-09 2.8533343e-08 1.5188252e-08 2.9569977e-08 -4.455631e-08 2.9878482e-09 4.140356e-08
6.050342e-08 4.4563286e-08 -1.0061672e-08 1.47456465e-08 -5.0702674e-08 1.5740545e-08 -7.2106463e-09 -1.7388247e-08
-3.3842184e-08 1.4289345e-08 2.7947268e-08 -1.674041e-06 -9.363758e-09 -1.3296433e-08 2.5595666e-08 6.8664123e-09
2.638062e-09 -8.3423413e-07 2.399965e-08 -1.0902747e-08 4.978775e-08 6.2323444e-08 -4.2621116e-09 -2.5884387e-07
-4.5410985e-08 -2.6090113e-08 -1.1113231e-08 1.6249553e-09 -1.1884143e-08 1.940471e-07 -6.695617e-08 -1.4413291e-08
-3.3012867e-08 -7.044109e-09 -5.6758463e-08 -2.5670868e-08 7.842475e-09 -9.821735e-10 1.2245704e-08 4.9328108e-08
9.15165e-09 8.372179e-08 -3.167848e-08 1.6289404e-08 -1.887189e-08 -1.5247815e-08 -8.4096804e-08 4.5421575e-07
5.5575162e-09 -7.5540854e-08 3.3298235e-09 -4.1443833e-08 9.697722e-09 -1.13175794e-07 1.0608568e-08 -7.774615e-09
1.6029077e-08 8.100177e-08 3.6845904e-10 -5.3294627e-08 2.3722382e-08 9.9119575e-09 1.1066254e-08 -3.336741e-08
-6.795977e-08 1.8190478e-08 -2.6763926e-08 -3.6028766e-08 7.601676e-09 1.9912143e-08 4.246435e-08 -5.3572457e-08
-2.4912984e-08 6.5366583e-09 2.060509e-09 -2.6357636e-08 -1.3124258e-08 2.4113746e-08 4.148898e-08 2.1183512e-08
-2.9963587e-10 1.7831866e-08 -2.6152787e-08 1.11673984e-07 -3.1264335e-08 1.5444373e-08 1.2279672e-08 4.369779e-08
-1.0720676e-08 -2.3509472e-08 -2.5855075e-08 1.1166206e-08 1.9885674e-08 6.633209e-08 6.232614e-08 -5.847504e-07
00000000: 8e40 f031 0023 a22e 8748 9332 76d5 61b3
00000010: 7a13 f1b2 7c16 dab1 678e 43b3 002d a42f
00000020: 862f f931 60a9 f32f 7a48 16b1 aa14 ac32
00000030: 3859 a032 297c 95b2 5f84 fc32 adc8 0e33
00000040: 6b35 11b3 5a27 13b1 20d9 6431 2b5d b531
00000050: b5e0 2a33 b08f bc32 9c78 0db2 c216 3eb1
00000060: c952 8431 0813 cdaf 27ca 32b3 480d c7b1
00000070: 74f9 0fb3 693b 94b1 7a76 e732 7dec b8b1
00000080: 952b 0f33 1736 0233 e867 57b0 4424 1233
00000090: 929b 8a32 3010 6eb3 94da aab2 0ff6 a3b2
000000a0: 2b9d 0bb2 bbaa 1cb3 8a40 03b3 be99 efb1
000000b0: 8011 08b3 7a11 1a33 71ba 41b3 9069 0333
000000c0: 9e41 6932 1066 ee33 3089 6b33 15b7 36b4
000000d0: fabb e133 04ac 8a33 bee1 dfb2 3c44 1db0
000000e0: 5049 0cb3 3826 4132 2ae3 fd31 8c38 7032
000000f0: 3380 5d32 9eb9 94b4 80fa 4233 f27e 20b3
00000100: ee94 4d32 fce1 3531 0682 c3b1 b6a3 eb32
00000110: 532b 2b33 19af ae33 5b47 0eb3 739d 03b3
00000120: de67 e332 9443 7832 9e6c af32 d048 a52f
00000130: 355e ccb1 d56f 9e32 9884 fc32 248c 4f31
00000140: ef73 abb2 9dd2 2ab3 527f aa32 db8a d732
00000150: e019 fab3 b52e 4833 4e17 e232 a5e9 25b4
00000160: 24ba 1233 b188 87b2 4497 8932 a68d 88b2
00000170: b4b6 2eb3 4a71 1ab4 4130 8433 4a7b 76b2
00000180: 12e7 80b2 3455 b3b3 4058 09b3 8a69 6833
00000190: ed22 fa32 f092 c432 373b 0cb3 42ec 0133
000001a0: 11b0 91b2 95b6 b733 5cc1 9030 2e63 2d32
000001b0: 596c ab34 a6b8 ad34 8ac2 fe32 1c79 bf34
000001c0: daa9 10b4 48db ccb3 ea18 7433 cef6 a3b1
000001d0: 3f0e 96b3 3838 4635 2513 77b4 1a78 9133
000001e0: ccb3 07b1 617d d7b2 33ea c831 ae5f a633
000001f0: 6afb 2cb3 1a37 bdb2 463d 2a32 ae3c 9132
00000200: 4184 93b2 b0cc 0333 463a c632 8eda 5cb2
00000210: 5cf4 2e31 1705 0733 4b6c 78b2 57fd 51b2
00000220: 50a7 b433 9ef5 8e31 c269 c1b2 3bfd ddb2
00000230: a419 82b2 5100 fdb3 c961 85b2 1edc 01b3
00000240: 2418 5ab2 1c7e 07b3 3390 2eb2 9779 8d31
00000250: acd4 af33 95ee 9732 a44f 2fb2 9118 5d32
00000260: 4d18 cc32 14dd b1b0 7c19 f532 5277 8232
00000270: 1101 fe32 2e5e 3fb3 c852 4d31 b2d3 3133
00000280: 1bee 8133 da65 3f33 b4db 2cb2 0a54 7d32
00000290: 2ec4 59b3 d335 8732 84c1 f7b1 295d 95b2
000002a0: e059 11b3 347d 7532 b110 f032 9caf e0b5
000002b0: 3ede 20b2 556e 64b2 77dd db32 9aed eb31
000002c0: 4749 3531 22f0 5fb5 ca27 ce32 ca4e 3bb2
000002d0: 36d6 5533 add6 8533 ee71 92b1 3bf7 8ab4
000002e0: e809 43b3 c41c e0b2 82ec 3eb2 0855 df30
000002f0: 032b 4cb2 435b 5034 8bc9 8fb3 539e 77b2
00000300: 08ca 0db3 a308 f2b1 97c6 73b3 d682 dcb2
00000310: 92bb 0632 28fd 86b0 2d61 5232 d4dc 5333
00000320: 6239 1d32 8aca b333 db0e 08b3 c7ec 8b32
00000330: ba1b a2b2 4dfa 82b2 b598 b4b3 f0da f334
00000340: 6ef4 be31 0639 a2b3 e0d2 6431 faff 31b3
00000350: 089b 2632 0d0b f3b3 fa40 3632 1e91 05b2
00000360: 50b0 8932 32f3 ad33 0090 ca2f 10e6 64b3
00000370: 12c6 cb32 4049 2a32 e61d 3e32 db4f 0fb3
00000380: 47f1 91b3 4941 9c32 7fe6 e5b2 0cbe 1ab3
00000390: 8698 0232 440b ab32 0c62 3633 8a17 66b3
000003a0: 3b00 d6b2 0e99 e031 dc98 0d31 0e69 e2b2
000003b0: 1979 61b2 b022 cf32 9e31 3233 09f7 b532
000003c0: 00ba a4af b02c 9932 96a6 e0b2 6cd1 ef33
000003d0: 8047 06b3 89aa 8432 92f6 5232 3aae 3b33
000003e0: 082e 38b2 e0f1 c9b2 e917 deb2 7ed5 3f32
000003f0: 0fd1 aa32 7472 8e33 28d8 8533 bef7 1cb5

bias f4 [24]
1.8985844e-09 -2.8567393e-10 -3.0844867e-09 -3.940859e-09 2.3534825e-09 5.670091e-10 -3.7124053e-09 -2.2061593e-09
3.038656e-09 6.6634516e-09 4.4141095e-09 1.2467543e-09 3.9209747e-09 1.4076693e-09 -1.2810686e-10 2.2531519e-09
-3.93821e-09 -4.9580704e-09 -1.0778249e-09 -5.4892477e-09 -8.057818e-09 2.5922442e-10 3.5172336e-09 -2.1827145e-09
00000000: 4078 0231 080d 9daf ddf6 53b1 2a68 87b1
00000010: e7ba 2131 b8db 1b30 531d 7fb1 2a9b 17b1
00000020: 9ad0 5031 57f4 e431 ebaa 9731 445a ab30
00000030: 42b9 8631 f677 c130 e0da 0caf ded5 1a31
00000040: dd50 87b1 a65b aab1 9822 94b0 ef9b bcb1
00000050: a96e 0ab2 9882 8e2f d4b3 7131 b8fe 15b1

weight f4 [24]
-1.7739934e-07 -7.615784e-08 1.3026266e-08 1.5923662e-08 1.8492025e-07 -5.9427543e-07 -4.4722924e-08 4.1590192e-07
-1.6137187e-07 -4.601382e-06 -1.0299694e-07 1.6363637e-07 -2.8426873e-08 -2.8205749e-08 9.9279e-07 1.3191973e-07
-1.00970865e-07 8.2353444e-07 -3.592648e-09 8.119816e-08 7.853077e-08 -1.6738587e-06 2.2656826e-08 -6.653885e-06
00000000: 297b 3eb4 378c a3b3 20ca 5f32 81c8 8832
00000010: 7e8e 4634 4c86 1fb5 6015 40b3 2049 df34
00000020: 9045 2db4 9265 9ab6 2b2f ddb3 06b4 2f34
00000030: 5b2f f4b2 1949 f2b2 0140 8535 d2a5 0d34
00000040: 52d5 d8b3 db10 5d35 88e2 76b1 295f ae33
00000050: bfa4 a833 59a9 e0b5 e39e c232 7044 dfb6

bias f4 [24]
-2.0792261e-07 -3.961463e-06 -1.6725863e-07 -6.292137e-08 6.435508e-08 2.2380348e-08 -3.340217e-09 9.2300104e-07
-5.9297115e-08 1.621576e-06 -1.3454435e-07 -2.1693268e-06 7.0927285e-08 9.388758e-08 5.9389066e-07 -8.1088416e-08
-1.9497697e-09 -6.7782667e-06 -7.563302e-08 -3.2846063e-07 -9.724898e-07 -4.8460442e-06 -2.0561517e-07 6.6012567e-06
00000000: 5541 5fb4 b5ec 84b6 b497 33b4 641f 87b3
00000010: 9433 8a33 e83e c032 b889 65b1 26c4 7735
00000020: dead 7eb3 eda4 d935 4577 10b4 c094 11b6
00000030: b050 9833 3e9f c933 db6b 1f35 d422 aeb3
00000040: b6fc 05b1 de70 e3b6 b16b a2b3 4957 b0b4
00000050: 7f86 82b5 349b a2b6 11c7 5cb4 5d80 dd36

running_mean f4 [24]
1.0388136e-09 -2.653705e-10 -1.8608324e-09 -2.176873e-09 1.4749622e-09 7.371898e-10 -2.1844366e-09 -1.443554e-09
1.8218873e-09 4.003131e-09 2.5465205e-09 8.368266e-10 2.2099553e-09 9.793762e-10 1.1343423e-11 1.3243142e-09
-2.2431204e-09 -3.1956444e-09 -3.31341e-10 -3.2689549e-09 -4.7660302e-09 3.2049347e-10 1.9748239e-09 -1.0130451e-09
00000000: 01c6 8e30 94e3 91af 38c0 ffb0 f497 15b1
00000010: 9eb7 ca30 1fa3 4a30 041d 16b1 8b66 c6b0
00000020: f665 fa30 ea8b 8931 ddfe 2e31 7006 6630
00000030: f2dd 1731 bd9a 8630 3c8e 472d 2a03 b630
00000040: 6425 1ab1 5f9a 5bb1 1a28 b6af 10a4 60b1
00000050: 72c2 a3b1 7231 b02f 78b5 0731 5b3b 8bb0
