experiments_generated_data/obs_5_pred_3/models/tcn.pt (torch, 23427 bytes, 31 tensors)

weight f4 [24, 5, 1]
000000 26 25 a5 34 ab 7c c2 34 16 3e 4a 34 60 97 3c 34
       3.0760674e-07 3.6226024e-07 1.8835303e-07 1.7563934e-07
000010 60 01 50 b2 62 b2 14 b6 4a 1f 05 b6 05 9c 00 b5
       -1.2107506e-08 -2.215755e-06 -1.9836757e-06 -4.7910754e-07
000020 da 27 c9 35 f8 bd b7 35 05 3c 85 36 3c b9 ea b4
       1.4987265e-06 1.3689851e-06 3.970696e-06 -4.3720672e-07
000030 18 a9 0e b8 ce f5 09 bb 41 4f 01 38 8c e1 46 34
       -3.401292e-05 -0.0021051052 3.0829808e-05 1.852224e-07
000040 a0 c8 f8 32 b7 be 04 35 22 75 8c b3 0f aa c5 b3
       2.8962234e-08 4.945136e-07 -6.5405644e-08 -9.204461e-08
000050 68 ad 45 b4 4d 30 0c 34 63 2d 2e b5 42 f3 3a b4
       -1.841014e-07 1.3056088e-07 -6.48861e-07 -1.7411097e-07
000060 d0 ef ef 33 bd bd ec 3d ba 64 16 3e bb a4 b1 3d
       1.11729264e-07 0.11559627 0.14686862 0.08673998
000070 64 63 ae 3e 82 40 85 3e a1 c1 5f 35 66 a9 5a b6
       0.34060204 0.26025778 8.335574e-07 -3.2583134e-06
000080 7e 9e 4e 37 dc c1 e1 b2 7a 66 9f 36 d2 78 9c b2
       1.2315459e-05 -2.6281604e-08 4.750499e-06 -1.8215733e-08
000090 8a cf 44 b3 14 04 51 33 f4 87 c3 32 ff 43 f7 b2
       -4.5823562e-08 4.8665314e-08 2.2762812e-08 -2.8785506e-08
0000a0 7d fc f2 31 bd 50 2b 31 64 33 52 31 cc 34 a6 b2
       7.0718316e-09 2.492967e-09 3.0588234e-09 -1.9348953e-08
0000b0 5e 0c b2 b2 36 8f 8c b3 b4 d8 78 b2 a3 a1 6f 33
       -2.0727551e-08 -6.545308e-08 -1.44847725e-08 5.579353e-08
0000c0 b9 c0 82 b2 17 98 20 33 15 2a 34 b6 56 30 cf 33
       -1.5221632e-08 3.7391228e-08 -2.6846585e-06 9.647981e-08
0000d0 fd e7 3c 38 85 13 3a b6 a6 5a f0 34 73 2f 62 bc
       4.503875e-05 -2.7727522e-06 4.476944e-07 -0.013805258
0000e0 c2 5e fd 33 7d 9a b2 ba 90 45 56 b9 5b bc 0a b8
       1.1798467e-07 -0.0013626363 -0.00020434544 -3.3077184e-05
0000f0 99 eb 04 b6 ee 69 9e 36 3b 40 d4 34 aa 65 97 ba
       -1.9806669e-06 4.721099e-06 3.953481e-07 -0.0011550684
000100 51 a2 62 35 e3 77 4a b9 5d 83 45 39 de 6e 81 38
       8.442776e-07 -0.00019308882 0.0001883632 6.17185e-05
000110 c8 c2 64 b7 8d 61 76 b9 03 b5 42 b7 19 64 bd b9
       -1.363521e-05 -0.00023496729 -1.1605446e-05 -0.00036123468
000120 07 e3 66 b6 5a 63 8b bb 5d fc 58 b5 e4 e8 10 39
       -3.4404818e-06 -0.004253787 -8.083351e-07 0.00013819669
000130 46 84 fe b7 35 b5 cd 39 89 16 88 39 8d 6d a5 ba
       -3.0340754e-05 0.00039235657 0.0002595673 -0.001262115
000140 d1 c9 9a b3 ae 62 a2 b5 c7 8f 2c 35 fd 14 60 bb
       -7.207894e-08 -1.209866e-06 6.4284217e-07 -0.0034192197
000150 25 85 18 b5 f8 5e a0 b1 f0 d9 3b 33 d5 b8 79 33
       -5.6818163e-07 -4.6674096e-09 4.3737543e-08 5.8142934e-08
000160 ee 44 9a b4 5a e9 67 b1 c2 e9 c7 b5 34 8d a0 36
       -2.8734888e-07 -3.374757e-09 -1.4894688e-06 4.78481e-06
000170 6b 8d 3d 36 12 d6 04 33 ba 05 1a b4 66 c8 dc 3d
       2.824551e-06 3.092834e-08 -1.4344451e-07 0.107804105
000180 88 a0 d1 3d f3 c2 9e 3d d2 95 ba 3d 59 80 1b 3d
       0.10235697 0.07752027 0.09110607 0.0379642
000190 5e b9 91 3d bf f9 14 3d 2c 91 d0 3b 87 07 61 3c
       0.07115434 0.03637099 0.006364962 0.013734705
0001a0 e7 cf b6 3c 60 21 a5 31 fb 9e 9e 33 a7 43 c3 b1
       0.022315932 4.8059263e-09 7.386367e-08 -5.682938e-09
0001b0 57 95 b0 b3 3a 5a 02 36 a2 8c c7 3c fc 00 6f bc
       -8.2228034e-08 1.9424028e-06 0.024359051 -0.014587637
0001c0 33 7b 6c bb dc 7e 4e 3d 27 46 68 3c 78 60 34 b5
       -0.0036084175 0.05041395 0.014176882 -6.7195606e-07
0001d0 9a ea a2 33 0c c2 de b3 3b 1c 4e 35 eb 82 7e b5
       7.5863866e-08 -1.03729775e-07 7.678206e-07 -9.4812884e-07

bias f4 [24]
000000 0d b7 59 b2 58 04 17 32 a0 11 17 32 e0 3d 68 30
       -1.2672683e-08 8.7903445e-09 8.793364e-09 8.448904e-10
000010 36 6b 28 b1 52 7b d7 b1 c3 29 d0 b1 30 c8 50 31
       -2.450816e-09 -6.2713434e-09 -6.0583445e-09 3.0381777e-09
000020 eb c9 39 32 7c aa 19 32 24 b1 c4 30 5b f9 3f b1
       1.0814328e-08 8.944536e-09 1.4311223e-09 -2.79359e-09
000030 35 1a 2a 32 c1 d7 5a b2 2b 5e 6e 31 a9 3f 0b b2
       9.901261e-09 -1.2738327e-08 3.4687087e-09 -8.1053395e-09
000040 31 7f 2c 32 72 1f c8 b1 90 c5 e9 30 22 d7 18 b1
       1.0040638e-08 -5.824341e-09 1.7009132e-09 -2.22412e-09
000050 28 66 fb 31 af f3 f1 b1 4c ee 54 b1 ff 74 90 b1
       7.3166753e-09 -7.0417268e-09 -3.0985516e-09 -4.2042525e-09

weight f4 [24]
000000 b0 e2 84 b4 2f 2e 10 38 77 0c 3c b9 78 d2 e9 b7
       -2.4751853e-07 3.4375287e-05 -0.0001793372 -2.7873772e-05
000010 c0 8c 01 b4 12 b9 52 35 1f 39 02 37 4a b9 3f 34
       -1.2065266e-07 7.850041e-07 7.761903e-06 1.7855669e-07
000020 fe 4c a6 b5 e6 53 f3 36 3c b9 f7 b4 34 f2 71 35
       -1.2390371e-06 7.2517314e-06 -4.614211e-07 9.013195e-07
000030 b2 8d 3e 39 cf 22 94 39 4c f8 97 b5 2a d0 32 3b
       0.00018172598 0.00028254694 -1.1322641e-06 0.002728472
000040 fb f7 56 38 03 72 41 b4 b7 1f 4e 32 3b b3 0a 37
       5.1252526e-05 -1.8016003e-07 1.1997989e-08 8.267171e-06
000050 10 3b 8a b4 44 f5 8e 34 b8 b6 8f b7 3e aa e9 b3
       -2.5747477e-07 2.6628015e-07 -1.7132013e-05 -1.0880875e-07

bias f4 [24]
000000 69 63 68 33 a9 61 9c b8 71 f8 a9 b7 ba af 7e b8
       5.4107122e-08 -7.45685e-05 -2.026206e-05 -6.0721977e-05
000010 02 14 bd b4 2c 59 c1 32 b2 f0 82 36 62 be 27 b4
       -3.521855e-07 2.2508708e-08 3.9023225e-06 -1.5622348e-07
000020 02 8f a2 b9 c3 0a d7 b9 9c e5 dc 34 d4 c8 c1 33
       -0.00031005597 -0.00041016014 4.1145256e-07 9.023793e-08
000030 67 28 bc 35 12 bd a1 39 6a c6 c4 34 a6 e7 a5 38
       1.401885e-06 0.0003084918 3.665221e-07 7.910961e-05
000040 bd 8e 15 38 46 d7 3a 34 70 ed 9a b5 be 13 1c b7
       3.5657304e-05 1.7400916e-07 -1.1542998e-06 -9.302921e-06
000050 b1 72 24 b5 a8 59 58 34 88 6d bd b3 38 8b 5c b5
       -6.126166e-07 2.0149184e-07 -8.820922e-08 -8.2158977e-07

running_mean f4 [24]
000000 fa 8b d3 34 4e 50 2d b5 8b 2c 5a ba 6a f6 69 34
       3.940366e-07 -6.456438e-07 -0.00083226775 2.1789461e-07
000010 dc c3 9d b4 85 16 bc 3e e9 e3 b6 36 e7 57 88 b1
       -2.9386035e-07 0.3673593 5.450555e-06 -3.9681143e-09
000020 4d eb af b0 03 3a ce 31 0e 88 8a 37 b6 b8 c0 bb
       -1.2799802e-09 6.0019842e-09 1.6514237e-05 -0.0058813943
000030 a9 3d ef b9 cb 15 8e b8 70 92 ee ba 02 57 54 b9
       -0.00045631573 -6.775147e-05 -0.0018201601 -0.00020250308
000040 0e 78 b0 ba 3e 4d ca b3 bc e1 05 36 12 45 24 3e
       -0.0013463513 -9.420408e-08 1.994994e-06 0.16041973
000050 34 6f 6b 3d e4 6f 4a 35 75 29 e1 3c e1 81 ab b4
       0.0574791 7.5413686e-07 0.027485589 -3.194573e-07

running_var f4 [24]
000000 78 d5 10 2c 31 08 00 2d 81 b4 3a 35 d5 36 dd 2a
       2.058213e-12 7.2777765e-12 6.955307e-07 3.9295534e-13
000010 c7 29 e1 2a 58 30 85 3d 6e ea fd 2e f0 55 de 28
       3.9997018e-13 0.065033615 1.1546751e-10 2.468422e-14
000020 bd 59 9a 26 06 cd 28 28 80 17 f4 30 53 35 e2 37
       1.071022e-15 9.370331e-15 1.7760016e-09 2.696613e-05
000030 8c 60 79 34 1d 00 04 34 b5 63 3b 36 3b 37 98 34
       2.3225056e-07 1.2293499e-07 2.7923209e-06 2.8352392e-07
000040 e7 54 d6 35 ee 82 ee 2a 32 14 d3 2f 66 4b 51 3c
       1.5968952e-06 4.2368143e-13 3.8395026e-10 0.012774324
000050 c7 65 f1 3a d2 bc 56 2c ba 92 01 3a a9 9a 69 2c
       0.0018417173 3.0516045e-12 0.00049428234 3.3197145e-12

weight f4 [12, 24, 1]
000000 30 eb 50 32 7f 3a 2a b3 32 0c c2 b6 b8 99 db b2
       1.2160669e-08 -3.963441e-08 -5.7830703e-06 -2.5564859e-08
000010 19 88 cf 3b fd 4e 98 32 e9 dd 6c 32 6d 57 2e b4
       0.006333363 1.7731049e-08 1.37874645e-08 -1.6236818e-07
000020 37 7b c4 b3 d6 4a de b5 30 27 ec 31 83 15 10 b3
       -9.149374e-08 -1.6562069e-06 6.872959e-09 -3.3547177e-08
000030 6f 14 04 32 1a 63 42 b2 a4 61 64 3b a3 e6 13 b5
       7.688057e-09 -1.1314819e-08 0.0034848237 -5.509739e-07
000040 e9 3e ed 32 0e 8c bd 37 ff 5c bc b3 88 31 f9 31
       2.761904e-08 2.2595774e-05 -8.771348e-08 7.252485e-09
000050 55 49 88 33 82 45 61 33 0d bf a3 b2 75 f0 00 34
       6.3463325e-08 5.2450112e-08 -1.9062577e-08 1.2008407e-07
000060 d3 93 8f 33 cd 6b 95 b2 f8 41 9e b3 9c 67 e1 ba
       6.6858455e-08 -1.7394905e-08 -7.369448e-08 -0.0017197016
000070 31 49 a4 b2 d1 19 c6 b5 6c 68 88 b9 43 ff 38 bb
       -1.9125396e-08 -1.4759663e-06 -0.00026017742 -0.002822832
000080 ae 1f 5c 33 1c 09 91 b2 fb 35 38 33 e0 1a c6 b1
       5.1251554e-08 -1.6884364e-08 4.2889933e-08 -5.7656138e-09
000090 5d 14 46 b3 8e ce 38 34 89 c2 01 35 69 91 1a 39
       -4.6118988e-08 1.721148e-07 4.833933e-07 0.00014740754
0000a0 9f a9 7f b3 d9 af ba 33 ce e0 77 b1 2a ad 4e 31
       -5.9526084e-08 8.6932864e-08 -3.6071017e-09 3.0075378e-09
0000b0 cf 70 b1 b4 cf d6 fa b3 c7 db 73 33 f6 01 cc 34
       -3.3050898e-07 -1.16806056e-07 5.6777733e-08 3.7999388e-07
0000c0 82 95 1c 34 5c ff f6 39 08 0f 49 3b 20 02 e9 3a
       1.4583023e-07 0.00047111034 0.0030679125 0.0017777123
0000d0 72 63 dc 34 81 79 1f b5 df 7e 2a b6 73 67 4f bb
       4.105055e-07 -5.940893e-07 -2.5405823e-06 -0.0031647354
0000e0 b2 96 cb 33 e4 d0 01 b3 ff 32 0f b6 9e 83 36 35
       9.4803355e-08 -3.0225138e-08 -2.1338344e-06 6.799181e-07
0000f0 31 bc a5 39 9f 6c 6f 39 dd 0e b3 35 bc 9e c7 3b
       0.00031611466 0.0002283328 1.3340865e-06 0.0060919207
000100 49 1c d5 b8 6e e6 bc b4 5c 1e 3d ba ea fa 7b b5
       -0.000101619 -3.5185388e-07 -0.0007214302 -9.3869915e-07
000110 1a 7a 9f b2 eb e4 07 34 82 1b 52 36 87 4d de b4
       -1.8565562e-08 1.2656135e-07 3.130845e-06 -4.140713e-07
000120 25 b6 77 bc 7f 63 e8 33 b6 43 26 38 3a 84 c8 ba
       -0.01511911 1.082144e-07 3.9640545e-05 -0.0015298196
000130 39 ef 5f b3 05 b6 f6 b7 74 36 df bc 33 4f b3 b8
       -5.2138805e-08 -2.9410245e-05 -0.027247645 -8.550137e-05
000140 e6 18 7e 33 a6 15 ac 32 1a 16 91 36 f7 3c 7b b2
       5.916163e-08 2.003328e-08 4.3239097e-06 -1.4623985e-08
000150 ca 31 b7 31 26 2a 33 b4 b0 fe e1 39 a6 1d 51 33
       5.3316613e-09 -1.6686008e-07 0.000431051 4.868857e-08
000160 bd 55 20 bc 71 e7 80 b1 34 5e 0e bb ef 2d 63 37
       -0.009786067 -3.751602e-09 -0.002172363 1.3540949e-05
000170 ff 03 66 ba 75 ff 3b b3 f6 dd 7f b5 36 bd 51 33
       -0.0008774399 -4.3771667e-08 -9.53179e-07 4.883369e-08
000180 7c 70 69 bb 6c 8b 13 38 06 c6 8e 3d e1 47 13 3b
       -0.0035620024 3.5177378e-05 0.06971364 0.0022473263
000190 c6 d9 95 3b 0c 1e 88 32 43 47 12 bd 4f 57 cb bc
       0.0045730798 1.5846148e-08 -0.03571249 -0.024821905
0001a0 44 ba c9 3b 22 a9 25 3a 90 7e cb b5 aa 53 62 bd
       0.006156238 0.0006319453 -1.5161513e-06 -0.05525557
0001b0 f2 3f 29 3d 52 31 b4 3b c3 05 c5 ba 41 85 69 bc
       0.04132075 0.0054990435 -0.0015031624 -0.014252962
0001c0 37 3d 5d bc 4e c4 85 3a e7 f5 72 b3 fa bf cf 3b
       -0.013503364 0.0010205598 -5.6568663e-08 0.006340024
0001d0 f8 ef 79 b5 c8 83 11 bb 2a 97 6a bd 2c 12 16 bb
       -9.310893e-07 -0.0022203792 -0.057273068 -0.0022899015
0001e0 f0 a6 6f b2 67 c6 21 b5 38 ba a6 b3 ca 9a 93 33
       -1.3949588e-08 -6.026589e-07 -7.7638504e-08 6.873377e-08
0001f0 c9 fd 17 33 82 46 d5 b2 5e 1c b9 b2 88 c6 aa af
       3.5388243e-08 -2.4828527e-08 -2.1549734e-08 -3.1063885e-10
000200 37 67 d0 30 dc b8 75 b3 fa 99 f6 b1 30 56 62 32
       1.5163327e-09 -5.7211636e-08 -7.1770474e-09 1.3174528e-08
000210 f8 ca 8d 33 7f 21 55 33 cd 88 34 33 6c 20 b6 b0
       6.602744e-08 4.962339e-08 4.2033935e-08 -1.3251458e-09
000220 b9 df fd b2 d7 46 1c 32 43 4d 93 b0 c8 fe 1a b3
       -2.9554814e-08 9.096502e-09 -1.0717617e-09 -3.608764e-08
000230 80 ca dd 2e d6 be 4e b2 e8 7c 0a b7 54 57 64 31
       1.0085888e-10 -1.2034169e-08 -8.254523e-06 3.3228007e-09
000240 4b 48 ad 3d 0a 2e 3c b2 fc 80 fe 33 93 f4 94 3c
       0.084610544 -1.0953508e-08 1.1851259e-07 0.018183028
000250 b4 66 81 b7 8e 19 98 34 e3 ee ed bb 16 68 82 b0
       -1.5425823e-05 2.83308e-07 -0.0072611435 -9.488328e-10
000260 df d2 b0 3c 4d 58 d0 bc 3c bb 03 35 8d 45 5f 3d
       0.021584926 -0.02543273 4.9073765e-07 0.05450969
000270 82 ea 7d ba 22 b1 86 32 a3 4c c7 bc 90 19 01 b9
       -0.00096861285 1.5680204e-08 -0.024328535 -0.00012311921
000280 54 a6 5e 3c 79 86 04 bc ed 55 c0 3a 5f 6c a8 b3
       0.01358946 -0.008088701 0.0014674045 -7.842822e-08
000290 e4 4e 60 3a b0 53 d0 39 cd c6 13 3d cd ce 05 bc
       0.00085566775 0.00039735204 0.036078263 -0.008166981
0002a0 ca d5 e4 34 d1 6e 6b 3a 57 f5 34 b4 48 69 1f bc
       4.262386e-07 0.00089810515 -1.685306e-07 -0.009729691
0002b0 59 ed da 3d e0 7f 9d 39 35 8e 19 b6 8e b5 10 b3
       0.10689802 0.00030040648 -2.2881552e-06 -3.3692736e-08
0002c0 8d f5 80 bc 0d 69 23 3c 16 e1 b2 36 ea 54 e1 3d
       -0.015742088 0.0099737765 5.331017e-06 0.11002524
0002d0 f1 eb c1 39 39 64 e0 3d 9f d4 d1 32 3f af 9d b5
       0.0003698762 0.10956616 2.4427491e-08 -1.1748415e-06
0002e0 d2 f3 6c bb 0f 59 f7 3b 8e 3b 32 b5 6a bb 6e 3b
       -0.003615607 0.0075484584 -6.639683e-07 0.0036427625
0002f0 0f 76 98 32 54 30 e6 32 f6 16 19 3d 06 8d 8d b5
       1.7748816e-08 2.6797501e-08 0.037375413 -1.0546362e-06
000300 34 45 55 32 32 fa f7 b8 ed 70 c2 b3 51 63 16 33
       1.2413967e-08 -0.0001182448 -9.05437e-08 3.5014924e-08
000310 f2 e3 d7 bc b0 6b 54 b1 58 48 a2 b6 ef 82 65 3b
       -0.02635381 -3.0911274e-09 -4.836398e-06 0.003502067
000320 8e 77 32 b6 e8 da 8b bb 66 59 50 b6 1f 46 f2 36
       -2.6593657e-06 -0.004268039 -3.1046452e-06 7.220325e-06
000330 83 7e a3 b7 75 16 16 bc b1 f1 ce bb eb 4e a9 32
       -1.9490026e-05 -0.009160628 -0.006315433 1.9710077e-08
000340 7e 7a 98 38 19 3c ca bb 0c fd 18 33 80 c8 d8 b9
       7.270741e-05 -0.006171715 3.5620403e-08 -0.00041348115
000350 87 76 82 b3 5a 91 0f b3 77 e1 9c b8 9a 59 b6 b0
       -6.075157e-08 -3.342698e-08 -7.480656e-05 -1.3267709e-09
000360 30 2a 92 34 72 0d ca 33 35 b3 a9 b3 1e 15 3d ba
       2.7225315e-07 9.408804e-08 -7.902273e-08 -0.00072129245
000370 68 2c 1f b3 0d 12 41 36 89 b6 78 34 98 1f 65 b5
       -3.706046e-08 2.8769748e-06 2.3163206e-07 -8.535512e-07
000380 ac b2 bd 30 f0 32 d5 b6 2b 9b 41 33 7e cd 57 35
       1.3802341e-09 -6.3538246e-06 4.507744e-08 8.039277e-07
000390 3e 7b 88 b5 fa b7 92 35 36 9d 5e 35 6c b7 24 b6
       -1.0168658e-06 1.0931392e-06 8.2930217e-07 -2.454467e-06
0003a0 ba 42 09 b3 61 2b 6c 33 b7 57 89 34 1f af f2 b3
       -3.1958486e-08 5.4987485e-08 2.558206e-07 -1.13008575e-07
0003b0 c0 d4 18 33 1a a1 6b b3 83 09 0b bb e2 7a 70 bb
       3.5583753e-08 -5.4861722e-08 -0.0021215386 -0.0036694338
0003c0 19 44 18 b7 fe 10 2b b3 d2 8b 6d 35 67 e5 01 b4
       -9.075761e-06 -3.9829494e-08 8.8492845e-07 -1.2097517e-07
0003d0 11 d9 bb 31 ee e0 67 35 c4 eb 8e ba 95 8c 2c b2
       5.467094e-09 8.638152e-07 -0.0010904004 -1.0043682e-08
0003e0 3e b9 34 b8 06 6f 16 32 d9 db 2a 33 85 0a f6 37
       -4.3087864e-05 8.756393e-09 3.978116e-08 2.9330384e-05
0003f0 72 37 80 b3 86 03 0f b5 fb 73 aa b8 7b ca d9 b4
       -5.97055e-08 -5.327678e-07 -8.127835e-05 -4.0566724e-07

bias f4 [12]
000000 35 8f 37 31 b0 bb 11 30 88 ec e5 31 8e 95 86 30
       2.6711409e-09 5.301741e-10 6.6916677e-09 9.792289e-10
000010 07 3f d2 b1 62 89 4b b1 e8 9f bc 2f 84 c4 bf 31
       -6.1189698e-09 -2.961848e-09 3.431062e-10 5.581173e-09
000020 d0 8f 3f af 11 81 22 31 8b 8c 19 b1 d8 4f 42 b0
       -1.7422441e-10 2.3647468e-09 -2.234432e-09 -7.0690254e-10

weight f4 [12]
000000 01 3f 37 b3 5a 37 ff b6 e5 da b7 3c e3 7f ee b4
       -4.266531e-08 -7.606036e-06 0.022443244 -4.4424004e-07
000010 c4 3f fe 37 d9 52 fd b4 2f d1 d3 3c 98 8c cf 3b
       3.0308853e-05 -4.7185202e-07 0.025856582 0.0063338988
000020 90 9f 30 b4 c4 1e dc 32 c2 cd 1b 35 bd ed 02 b6
       -1.6449326e-07 2.5625361e-08 5.8041417e-07 -1.9509891e-06

bias f4 [12]
000000 06 67 48 32 80 40 ec 35 30 18 d3 b7 28 01 8c 35
       1.1664957e-08 1.7602142e-06 -2.5164423e-05 1.0431149e-06
000010 60 7f 81 36 59 09 51 b4 13 8f 90 b6 3d c4 26 bc
       3.859328e-06 -1.9468042e-07 -4.3081905e-06 -0.010178623
000020 9f 73 f8 33 21 24 01 b5 07 f6 10 34 7d 48 cb 34
       1.1569431e-07 -4.810882e-07 1.350055e-07 3.786444e-07

running_mean f4 [12]
000000 19 0c dc 31 e6 08 3d 33 e1 af e7 35 ba f9 05 b5
       6.404218e-09 4.4013085e-08 1.7262029e-06 -4.990976e-07
000010 ad 67 76 35 7b a7 2e b1 9e 6e 55 35 c6 f8 1f 38
       9.179301e-07 -2.5415534e-09 7.950965e-07 3.8140242e-05
000020 11 bc 63 b6 73 5c d2 b2 4f 80 a5 b1 47 2f 89 36
       -3.3935105e-06 -2.4489259e-08 -4.816719e-09 4.088422e-06

running_var f4 [12]
000000 d2 a8 17 2b 29 5a 1c 2d 09 04 0f 30 05 83 30 2c
       5.388026e-13 8.887593e-12 5.202883e-10 2.5083835e-12
000010 f4 d4 40 31 10 7b 4f 2a 0a e1 df 2d f3 89 02 31
       2.8060727e-09 1.8427989e-13 2.5452102e-11 1.8995905e-09
000020 1e ed ab 2e 98 77 d5 2b 98 b0 41 2b 77 15 a9 30
       7.8183e-11 1.5167754e-12 6.8812447e-13 1.2302469e-09

weight f4 [21, 12, 1]
000000 db 6f 21 b3 0c 2a a7 b3 0a e2 01 32 4e 86 cb 31
       -3.7587466e-08 -7.784192e-08 7.560184e-09 5.9233463e-09
000010 b0 1e b1 34 61 28 f5 b4 73 68 57 32 81 8b 84 36
       3.2991147e-07 -4.5664186e-07 1.2538396e-08 3.950147e-06
000020 d6 fc 97 b2 d3 82 8b b3 46 71 ee 39 e8 da 6f bb
       -1.769369e-08 -6.496489e-08 0.00045479293 -0.0036598984
000030 bc 43 12 34 d2 c2 00 b7 a6 6c 93 3c 82 6f 98 b3
       1.3621951e-07 -7.674755e-06 0.017996144 -7.098335e-08
000040 62 4f ec 3c 85 58 2a 3a 07 33 0d 3c 65 0c c0 ba
       0.028846446 0.0006498176 0.008618123 -0.0014652131
000050 27 a6 a2 ba ae 8c 85 b6 3b e2 f6 34 1d 16 f0 35
       -0.0012409136 -3.980086e-06 4.5985675e-07 1.7887829e-06
000060 b5 1e 4c 33 e0 53 19 b5 a3 17 00 b7 46 b8 1d 34
       4.752538e-08 -5.7118996e-07 -7.634898e-06 1.4688803e-07
000070 65 e8 77 33 f5 86 61 32 af ba ab 35 e2 ff a0 34
       5.772053e-08 1.3127409e-08 1.2794825e-06 2.9988502e-07
000080 f0 e7 0b 34 db e2 72 b3 67 04 59 33 cf 20 12 b2
       1.3029762e-07 -5.655134e-08 5.0528254e-08 -8.505778e-09
000090 5d 68 0f 32 c7 d6 54 b2 4b e4 17 b4 f1 9e 52 34
       8.347425e-09 -1.2388859e-08 -1.4146023e-07 1.9615597e-07
0000a0 be 64 bc 32 1b df 83 3b ee e2 53 39 26 de c7 b9
       2.1931893e-08 0.004024399 0.00020207066 -0.0003812175
0000b0 2b fb 0a b5 22 5f ae b5 a6 f9 d7 36 3a 70 c3 b4
       -5.1774504e-07 -1.2991698e-06 6.436562e-06 -3.6403236e-07
0000c0 54 cb 01 33 58 48 25 34 86 74 f5 34 44 88 a6 b2
       3.022008e-08 1.5393141e-07 4.5719588e-07 -1.938691e-08
0000d0 a9 e8 8f b3 de 98 ea b3 90 9e 86 33 59 6a 69 b2
       -6.701277e-08 -1.09242805e-07 6.2687036e-08 -1.3586566e-08
0000e0 52 88 4d b3 b0 cb 93 b6 72 e1 88 b3 0c 2d 03 b7
       -4.7854265e-08 -4.4046537e-06 -6.374002e-08 -7.818697e-06
0000f0 b8 e7 bb 3b a1 eb 67 3b e2 0b ac 3d 3e 10 6b 38
       0.00573441 0.0035388249 0.08400704 5.6043493e-05
000100 40 2e 3d 3c ad a5 0a 39 a7 b5 16 3a c8 ee 73 bb
       0.011546671 0.00013222425 0.0005749114 -0.0037221182
000110 d7 e6 b5 bb 54 3e 37 b4 d1 77 54 b4 0b 1e 01 3a
       -0.0055512 -1.7065878e-07 -1.9787628e-07 0.0004925436
000120 85 2a 7c b9 47 9f d1 b7 c4 b7 a8 36 6f f1 5b 3d
       -0.00024048433 -2.498891e-05 5.0281833e-06 0.053697046
000130 b9 6b ac b1 83 e5 8e b7 17 90 84 3c 79 ee 56 39
       -5.0181055e-09 -1.7034594e-05 0.016181989 0.00020497468
000140 b9 6e 5a 36 74 0c 12 b3 9b 21 02 b3 67 cc d2 b2
       3.254898e-06 -3.40046e-08 -3.0298548e-08 -2.4540169e-08
000150 0d 3f 2b 39 08 7a 66 b0 42 43 ed 37 64 b8 92 34
       0.00016331319 -8.384693e-10 2.8283921e-05 2.732878e-07
000160 60 45 e0 b2 12 20 b0 b4 f4 bf a3 33 73 6f 67 36
       -2.610858e-08 -3.280589e-07 7.625195e-08 3.4486554e-06
000170 50 3b b3 b2 e2 7a 73 b2 c9 68 15 34 a8 fc 9b b6
       -2.0865315e-08 -1.4172402e-08 1.3914827e-07 -4.648773e-06
000180 a9 a2 e4 3c 84 81 d8 b6 0e ff b9 b3 87 4b 88 36
       0.027909594 -6.4523792e-06 -8.661128e-08 4.0619084e-06
000190 a3 ed b7 3b 59 a3 85 36 90 44 8b 34 2a 93 14 36
       0.0056130453 3.982725e-06 2.5940653e-07 2.213938e-06
0001a0 79 b6 84 b4 50 6c a1 37 53 28 c5 b3 d2 c0 3a 33
       -2.4719682e-07 1.9243133e-05 -9.180862e-08 4.348187e-08
0001b0 37 c0 6d b4 6d 99 9b b8 a9 e3 6d 33 30 87 36 33
       -2.2142272e-07 -7.419554e-05 5.538792e-08 4.249813e-08
0001c0 67 9c 54 33 00 9a 2f ae a7 1a cf b3 ad 89 43 33
       4.9502344e-08 -3.9927173e-11 -9.644037e-08 4.552719e-08
0001d0 60 45 71 b3 e3 d9 5b 34 02 05 8c b3 53 b0 6c b2
       -5.617528e-08 2.0475231e-07 -6.520169e-08 -1.37770995e-08
0001e0 ef cb b0 b3 ba e2 cd 35 40 b0 a9 32 9e ed 3f 34
       -8.232734e-08 1.5339676e-06 1.9754339e-08 1.7874706e-07
0001f0 c5 51 d0 b5 af 42 f3 b6 b8 16 72 34 dd 0c 2f 33
       -1.5521006e-06 -7.2497273e-06 2.2546271e-07 4.075706e-08
000200 50 33 97 35 7b d8 d9 b1 2a 52 14 b2 3b d2 58 b3
       1.1265311e-06 -6.340142e-09 -8.633416e-09 -5.0482623e-08
000210 00 32 ce 33 5e 10 0a b4 00 20 b8 ae 1b 1c 5a 32
       9.6017175e-08 -1.2858206e-07 -8.3730356e-11 1.26956605e-08
000220 4f 73 72 b3 08 75 58 b3 2f 31 4f ba a2 5c d0 b3
       -5.644989e-08 -5.039786e-08 -0.0007903752 -9.7026046e-08
000230 19 28 90 b5 58 96 2e 32 a8 b2 77 34 02 f4 42 33
       -1.0740506e-06 1.0162317e-08 2.3068662e-07 4.539107e-08
000240 9b 56 00 b3 af b9 ec 32 1c 55 09 34 5c 80 25 3a
       -2.988109e-08 2.7558455e-08 1.2790082e-07 0.00063133775
000250 27 f4 14 33 68 64 ab 36 80 ec 0c b2 ee 6a 92 32
       3.468099e-08 5.107886e-06 -8.202846e-09 1.7045263e-08
000260 22 f9 17 b2 64 66 95 b3 6a 66 9f bc 5e c4 57 39
       -8.846003e-09 -6.956978e-08 -0.019458015 0.0002057715
000270 b6 a6 b3 32 f5 1b 87 b4 90 5a d9 b2 43 92 b7 33
       2.0914154e-08 -2.516605e-07 -2.5303308e-08 8.5482064e-08
000280 3f 72 26 b4 03 62 f3 33 7d 98 34 3c 5e 1b 64 b2
       -1.5501517e-07 1.13333975e-07 0.011022684 -1.3277569e-08
000290 d0 b8 e4 b9 e1 51 6d b2 06 cf a1 3c 0b 07 03 37
       -0.00043625245 -1.3813833e-08 0.019752037 7.809848e-06
0002a0 07 08 ed b3 9a 8c d9 b3 8d de e6 34 78 1c 08 b7
       -1.1037633e-07 -1.0130425e-07 4.3002765e-07 -8.11286e-06
0002b0 70 cb 97 b1 41 5e a2 33 42 97 da 34 1f b6 1c b4
       -4.4178066e-09 7.5608575e-08 4.071572e-07 -1.4594887e-07
0002c0 f6 25 0e 2f 27 35 44 b2 69 cd 84 33 63 f0 35 b3
       1.2928311e-10 -1.1420787e-08 6.184093e-08 -4.2360977e-08
0002d0 8c 6b 1b 35 fa 3a 82 b4 b1 e1 aa 3c a7 ee ad b3
       5.78985e-07 -2.4257298e-07 0.020859571 -8.099351e-08
0002e0 54 2b 2c 3b f8 5c c3 b3 de 70 8e bc 1c f8 3b b3
       0.0026270943 -9.097306e-08 -0.017387804 -4.3764985e-08
0002f0 4f 4b 51 b6 24 74 16 b2 11 d5 d8 b2 fc bd 89 31
       -3.1187262e-06 -8.7575565e-09 -2.5242601e-08 4.0088235e-09
000300 9e 55 8a 36 f6 9a 0f b7 c2 51 00 3c ed fc b0 39
       4.1226876e-06 -8.559544e-06 0.007831993 0.0003375778
000310 16 2d ee b8 43 98 6c b9 25 db ba 3c 3b f4 d1 3a
       -0.00011357122 -0.00022563436 0.022809574 0.0016018221
000320 1a cc d9 bc 49 01 43 32 cb f7 fb 38 05 1b 35 3d
       -0.026586581 1.1350786e-08 0.00012014768 0.04421522
000330 aa f8 80 b2 c0 f7 0a b4 8e 5f 58 b5 7c 48 9c 32
       -1.501424e-08 -1.2942382e-07 -8.060532e-07 1.8193752e-08
000340 77 a4 7a b6 44 4c 91 35 dd 64 c0 3b aa d6 2a bb
       -3.7348634e-06 1.0825538e-06 0.005871399 -0.002606789
000350 a4 dd 2c 33 45 f4 dd b4 c0 72 ec 3b 67 ca 9d b5
       4.024845e-08 -4.1342187e-07 0.0072158277 -1.1756318e-06
000360 0b db 11 3a b0 fd 77 33 f7 aa ba 3d 43 0a 88 b8
       0.0005563951 5.7739896e-08 0.0911464 -6.486897e-05
000370 9c 46 10 3a 97 72 12 35 fa 90 63 3c a7 83 b9 36
       0.00055036857 5.455599e-07 0.013889546 5.528756e-06
000380 43 ba 26 b3 92 ac fc b4 4c c8 15 b3 de 5f bd ba
       -3.881929e-08 -4.706422e-07 -3.4873935e-08 -0.0014448126
000390 30 cf 42 32 1f 13 30 b3 26 6f 92 b5 fc 4d 0d 32
       1.1339395e-08 -4.0995584e-08 -1.0910196e-06 8.225012e-09
0003a0 68 7b 96 b3 be f9 ab b2 a2 09 f5 34 4f 3c 8d b2
       -7.007367e-08 -2.002059e-08 4.5641815e-07 -1.6441986e-08
0003b0 88 6b 2d b3 6a 53 9a b2 1f 91 b7 b4 19 62 11 33
       -4.03775e-08 -1.7965892e-08 -3.4191996e-07 3.3849663e-08
0003c0 fd b5 12 33 68 92 85 33 05 4a 08 39 7b 00 83 32
       3.415879e-08 6.219926e-08 0.00012997545 1.5250626e-08
0003d0 e5 2a 84 b5 5c cf 7b 33 ef a3 43 33 b7 7a b8 b5
       -9.84725e-07 5.8629084e-08 4.5551072e-08 -1.3744783e-06
0003e0 36 e9 33 b1 26 8e ea 33 e9 1e c4 b2 5b b2 ea b3
       -2.6180493e-09 1.0922331e-07 -2.283146e-08 -1.0928917e-07

bias f4 [21]
000000 2e b1 5a 31 c4 3c a7 30 5a fd f6 30 80 df b9 af
       3.182389e-09 1.216812e-09 1.7970863e-09 -3.381011e-10
000010 42 53 05 b1 ec 14 02 32 c8 c6 aa 30 dc e5 88 b0
       -1.9401374e-09 7.571753e-09 1.2425625e-09 -9.960632e-10
000020 2c 22 df 30 64 08 b6 b0 c2 d8 7f b0 ac ed 26 b0
       1.6235098e-09 -1.3244628e-09 -9.307649e-10 -6.07282e-10
000030 5b fd 12 31 b6 de 8a b1 08 e0 bc 30 08 5b 4b 31
       2.1389812e-09 -4.041648e-09 1.3742474e-09 2.9592133e-09
000040 1a 62 e9 b0 1d 39 41 31 16 98 b8 31 d2 be 29 31
       -1.6980863e-09 2.8117662e-09 5.372395e-09 2.4701206e-09
000050 32 c0 bd 31
       5.522474e-09

weight f4 [21]
000000 93 4f fe 31 6e dd 11 b6 aa 86 ca 35 e5 9a 51 b3
       7.4014195e-09 -2.1735573e-06 1.5089365e-06 -4.880248e-08
000010 e2 e2 e9 b2 29 1e 01 3d 1d 88 ea b4 ae 7c da b7
       -2.7227944e-08 0.031522904 -4.3684932e-07 -2.6045684e-05
000020 1d cb 2a b3 97 13 e7 b3 f7 a2 17 36 ec 40 19 37
       -3.976594e-08 -1.0760339e-07 2.2595611e-06 9.134626e-06
000030 a2 e6 7a b4 ba 15 d5 b3 9e 14 af b3 52 34 fd 35
       -2.3366968e-07 -9.9225375e-08 -8.152823e-08 1.8865196e-06
000040 34 c9 4c 34 f7 ff 07 b6 e5 94 96 33 63 c4 55 36
       1.9072178e-07 -2.0265559e-06 7.012003e-08 3.1853785e-06
000050 53 ca a6 36
       4.970739e-06

bias f4 [21]
000000 78 69 13 b2 f9 b8 18 37 58 92 a8 36 4f e7 e6 35
       -8.580507e-09 9.102973e-06 5.023827e-06 1.7203655e-06
000010 37 c8 37 35 e9 6a 01 38 a9 6b 61 34 0e 63 11 b7
       6.8464163e-07 3.0855565e-05 2.0993924e-07 -8.6657365e-06
000020 d3 82 7c 34 4f 28 6e 36 c6 94 e4 36 3e 95 8c b6
       2.3516922e-07 3.5488226e-06 6.812249e-06 -4.189699e-06
000030 60 47 9c 33 fc 49 e5 33 e9 36 3c b6 31 97 95 b5
       7.277299e-08 1.0677101e-07 -2.8046145e-06 -1.1145368e-06
000040 12 53 4f b5 7d bb 1c 35 98 49 a2 33 30 12 59 b5
       -7.723439e-07 5.838736e-07 7.5570995e-08 -8.0865266e-07
000050 58 ee be 35
       1.422547e-06

running_mean f4 [21]
000000 82 0f 75 30 32 b5 03 35 5e 8e 6b 31 ac ad 43 31
       8.915252e-10 4.9064977e-07 3.4277927e-09 2.8474956e-09
000010 bc c0 f5 b0 47 3c 90 35 6a 74 d9 33 e0 18 ff 31
       -1.7880875e-09 1.0746379e-06 1.01260255e-07 7.4243047e-09
000020 8f 25 f8 32 c7 fa d5 b0 65 53 f1 af d1 9b a4 b1
       2.888808e-08 -1.5569065e-09 -4.38969e-10 -4.7907425e-09
000030 eb 32 14 af 83 c5 11 33 59 62 9a 30 50 f1 af 34
       -1.3478611e-10 3.394008e-08 1.1232927e-09 3.2771868e-07
000040 d0 bf 88 34 9e e1 f0 32 f8 cb 91 35 e8 19 03 31
       2.5471536e-07 2.8042276e-08 1.0862705e-06 1.9077735e-09
000050 51 e4 93 32
       1.7216879e-08

running_var f4 [21]
000000 ec d0 20 29 a3 d6 55 31 f0 34 e5 2c 93 f7 30 2d
       3.5708348e-14 3.1117586e-09 6.5144487e-12 1.0059414e-11
000010 55 e6 35 2a 01 68 a1 32 48 9e 88 2f 21 0e 84 2d
       1.6155942e-13 1.8790162e-08 2.4850721e-10 1.5012937e-11
000020 56 23 3a 2b 84 99 0f 28 12 43 1a 2e ab 23 e0 2c
       6.6129513e-13 7.971383e-15 3.5075116e-11 6.370423e-12
000030 43 f1 ed 28 16 bd 17 2f 6f 1f 2a 2a 1a e8 81 31
       2.6416916e-14 1.3800547e-10 1.5109939e-13 3.780781e-09
000040 ea e1 aa 30 49 27 c7 2e 0e b5 a2 32 41 fc 2b 2a
       1.2433337e-09 9.056451e-11 1.8941616e-08 1.5275369e-13
000050 82 ba 93 2d
       1.6794791e-11

weight f4 [18, 21, 1]
000000 2e 55 0d 34 ea b3 67 b3 af a3 2b 3b b8 93 c1 af
       1.3162636e-07 -5.394751e-08 0.0026190092 -3.5211456e-10
000010 a0 46 71 b8 92 e3 5d 3c 0f 9d 02 ba f0 09 86 34
       -5.7524652e-05 0.0135430265 -0.000498251 2.4966675e-07
000020 ec fe 45 b3 df 37 84 bb 40 2a 89 33 71 ca 72 b4
       -4.6099487e-08 -0.0040349807 6.387245e-08 -2.2611654e-07
000030 4b b3 d8 33 1a ab ad b2 a3 59 9b 38 2f a2 97 39
       1.0090897e-07 -2.0217659e-08 7.407672e-05 0.000289218
000040 82 3a 6b 3a 9a 6a 8e b1 b6 3b 83 b3 01 23 49 34
       0.0008973257 -4.144863e-09 -6.111024e-08 1.8732318e-07
000050 fc a8 ab 38 13 e6 58 38 a9 b2 50 b9 fc b3 9c b6
       8.185391e-05 5.1712686e-05 -0.00019902982 -4.6701152e-06
000060 44 7e d3 b9 be bf 0b 33 38 4e 5d 3c 94 ea a5 b5
       -0.0004033913 3.2537848e-08 0.013507418 -1.2361729e-06
000070 7d bf 5d b9 99 d3 7e b3 49 5a 63 ba f5 43 09 b5
       -0.00021147537 -5.933143e-08 -0.00086728163 -5.113537e-07
000080 7f db 9a 3b b0 14 85 32 3b 0f b4 34 2a 85 63 38
       0.004725873 1.5492645e-08 3.3538694e-07 5.4245036e-05
000090 16 f5 71 3b 5d 1e f9 3d f2 33 8a 3a ef b6 5d b3
       0.0036919764 0.121639945 0.0010544045 -5.162195e-08
0000a0 0e 6f 5e 35 8c 76 28 3c 7e 99 44 b3 5a f3 c9 b3
       8.286305e-07 0.01028217 -4.5774406e-08 -9.404057e-08
0000b0 b9 9f 7d b3 52 6a 01 33 a4 c3 a5 33 01 b5 20 3a
       -5.905142e-08 3.013185e-08 7.718998e-08 0.00061304873
0000c0 b5 65 ad b1 aa aa 21 34 4a 96 a5 32 7f cf f0 b3
       -5.0465254e-09 1.505638e-07 1.9276872e-08 -1.1213614e-07
0000d0 f6 25 e3 33 42 55 73 b3 4f be 22 b4 4b 5a 27 b2
       1.0577416e-07 -5.6655388e-08 -1.515666e-07 -9.74121e-09
0000e0 86 ac ce 33 4f 69 4a b4 f4 2b 76 b4 a1 c0 18 32
       9.624004e-08 -1.8851027e-07 -2.2926525e-07 8.891363e-09
0000f0 f8 08 2d b3 68 fd 47 b0 6b a2 86 b3 12 75 1f 35
       -4.028786e-08 -7.275589e-10 -6.269405e-08 5.9402475e-07
000100 59 2e 4d b1 fb 43 54 b4 b3 0b b3 34 78 e0 2d 35
       -2.9857772e-09 -1.976877e-07 3.334986e-07 6.477417e-07
000110 f8 c9 35 b5 f6 59 1c b3 8c 98 32 b6 42 8f d3 b3
       -6.772166e-07 -3.64034e-08 -2.661286e-06 -9.8515116e-08
000120 38 4e 4e 33 b6 13 55 33 13 46 02 b3 52 68 dc 32
       4.8034252e-08 4.9610854e-08 -3.0331716e-08 2.565881e-08
000130 bd ad 84 31 6c 4e 40 33 11 f5 68 31 13 f3 94 33
       3.8614574e-09 4.4774808e-08 3.3899747e-09 6.936002e-08
000140 a0 d1 09 b3 18 f0 26 b0 53 f3 2f 32 c0 02 25 30
       -3.208845e-08 -6.073164e-10 1.0241666e-08 6.003056e-10
000150 ab a6 08 34 9c be 3e b3 52 94 65 34 27 99 a5 35
       1.272662e-07 -4.441118e-08 2.1381246e-07 1.2338031e-06
000160 b2 9b 63 ba 82 7c a3 3c cb 15 ff 36 aa 53 bc bc
       -0.0008682563 0.01995683 7.6021292e-06 -0.022989113
000170 c5 64 13 b5 86 61 63 b4 16 0f 4c 39 fd 0d 96 b4
       -5.4908406e-07 -2.1176501e-07 0.00019460576 -2.7949855e-07
000180 7f 00 a3 33 02 7b 0a 39 f7 7b 19 39 c5 ae 41 3a
       7.590369e-08 0.0001320653 0.00014637398 0.00073884084
000190 e3 4a 08 34 a0 07 4f b3 2d b4 cb b4 a4 ad 1d 3b
       1.269323e-07 -4.8202878e-08 -3.7942792e-07 0.0024059797
0001a0 c4 df 85 b3 3b ce a9 39 09 7c 94 b9 2b cb e6 3a
       -6.233998e-08 0.00032387846 -0.00028321173 0.0017608156
0001b0 e9 9b 0f b3 2d 48 73 b4 f8 3e 1c 37 0d 4f 84 b9
       -3.343658e-08 -2.2657396e-07 9.312986e-06 -0.000252359
0001c0 ed 7c 83 b3 2c 8a 1b b4 86 03 cd bb 1c 97 39 33
       -6.122887e-08 -1.4485767e-07 -0.0062565235 4.3211102e-08
0001d0 27 9c 35 37 b5 4e ac b3 79 26 e8 36 51 26 a0 b5
       1.0824798e-05 -8.023691e-08 6.9186176e-06 -1.193208e-06
0001e0 ab a6 1c b3 05 23 b1 35 47 5f 1c 35 bb 05 cc 36
       -3.6473164e-08 1.319772e-06 5.8253175e-07 6.080341e-06
0001f0 fa 5e bb b5 3a ab 57 32 eb c0 2b b3 f0 45 19 b3
       -1.3960228e-06 1.25535795e-08 -3.9989498e-08 -3.5686696e-08
000200 f8 86 12 34 62 a8 b3 32 71 24 16 b5 40 91 06 b6
       1.3646411e-07 2.0914914e-08 -5.5932384e-07 -2.0052103e-06
000210 62 c4 f0 32 56 7e d8 31 8a 98 f2 31 28 66 16 b4
       2.8028982e-08 6.30079e-09 7.0604687e-09 -1.4007003e-07
000220 ae 00 10 b4 40 66 16 30 99 32 b5 33 08 fa 03 b3
       -1.3411292e-07 5.471499e-10 8.437673e-08 -3.0728216e-08
000230 a8 1e 70 33 e2 59 85 b3 2f af 7b b6 41 9e 22 34
       5.5907236e-08 -6.209645e-08 -3.7503885e-06 1.5144998e-07
000240 e6 a0 c0 b3 48 d4 2b b2 3e 89 4a 32 2e 17 19 b4
       -8.969964e-08 -1.0001777e-08 1.1789153e-08 -1.4257668e-07
000250 01 a4 11 b7 50 3e 19 b3 c5 5c 9a b3 f8 55 bf b4
       -8.680859e-06 -3.567976e-08 -7.1880585e-08 -3.5639073e-07
000260 c2 8a 91 b8 75 3a 57 32 6c 4b 28 33 14 21 ed b4
       -6.9399845e-05 1.2527939e-08 3.9184144e-08 -4.4168758e-07
000270 52 72 42 33 c8 ed 5d b5 0e 1d f5 b2 9f a9 c3 33
       4.527312e-08 -8.2674933e-07 -2.8534966e-08 9.111249e-08
000280 0c ca 19 b1 2e ba 5b 33 9a 76 ae b4 e6 c2 17 b5
       -2.237928e-09 5.115924e-08 -3.249632e-07 -5.65355e-07
000290 db 02 18 b3 fb 10 f6 32 90 d8 ac b2 fd fb da 31
       -3.5392855e-08 2.8645891e-08 -2.0121917e-08 6.373283e-09
0002a0 54 a6 37 b6 ba eb 19 b2 89 d4 9f 31 82 29 1d b2
       -2.736594e-06 -8.95937e-09 4.6516715e-09 -9.1480405e-09
0002b0 66 96 e6 b4 5e 52 d9 b4 8f ea c8 31 fd 3f 32 34
       -4.2950268e-07 -4.047933e-07 5.8474323e-09 1.660082e-07
0002c0 3b 2d 0c b2 e4 26 5b b1 13 cc 9d b5 56 78 ca b6
       -8.159357e-09 -3.1890801e-09 -1.1756805e-06 -6.034078e-06
0002d0 05 9f b2 34 c6 ed 22 33 79 d7 53 33 11 a2 f8 b1
       3.3270786e-07 3.7934818e-08 4.9323237e-08 -7.2361748e-09
0002e0 cb fc 88 b3 ef 70 a0 3a c6 66 2b 34 89 52 01 35
       -6.378976e-08 0.0012240688 1.5963005e-07 4.817635e-07
0002f0 15 04 19 b3 34 8d ee 32 da 07 b4 32 18 42 41 32
       -3.56268e-08 2.7771058e-08 2.0958328e-08 1.12491065e-08
000300 dc bd 25 39 8c 97 a4 34 ac 8e 1d 36 1b bb 0e b3
       0.00015806354 3.0657645e-07 2.347787e-06 -3.3232123e-08
000310 c3 e7 45 34 23 6b 59 34 a1 3c c6 b7 b4 37 51 b1
       1.8431369e-07 2.0248676e-07 -2.3631672e-05 -3.0445166e-09
000320 60 f4 11 b5 30 1c 0f b4 b5 e3 5c b3 66 8d e8 31
       -5.437232e-07 -1.3328167e-07 -5.142984e-08 6.768164e-09
000330 96 98 74 33 ed 19 bc 35 b4 13 8b b4 94 8f bd 36
       5.6949453e-08 1.4014637e-06 -2.5905103e-07 5.6493536e-06
000340 b8 17 5b 31 8f b4 80 b3 c5 89 ba 32 38 27 3c b3
       3.1882177e-09 -5.993308e-08 2.17159e-08 -4.380783e-08
000350 1b 1a ae 34 36 49 60 33 91 5f 6b b4 fc 6a b6 b6
       3.242902e-07 5.222065e-08 -2.1920847e-07 -5.4364773e-06
000360 a1 c6 ea 35 24 95 17 b4 92 ee 0b 32 43 01 ac b6
       1.7492167e-06 -1.4117228e-07 8.1451095e-09 -5.1261463e-06
000370 9f 96 ef 38 ae 3f 1a b5 85 40 11 b4 6a 5d 93 34
       0.000114244634 -5.7462137e-07 -1.352765e-07 2.744885e-07
000380 df f4 d7 b3 8a 21 2b 33 48 c3 51 34 64 f3 8d 35
       -1.00562595e-07 3.9844544e-08 1.9535685e-07 1.0576155e-06
000390 56 d0 34 b4 e3 f0 5b b6 0f af b4 b2 c6 f6 e4 33
       -1.6839599e-07 -3.2773758e-06 -2.1034365e-08 1.0661965e-07
0003a0 e6 0b 59 33 ac 0b 79 38 4a e0 81 33 01 82 98 34
       5.053507e-08 5.9377096e-05 6.0478285e-08 2.8406797e-07
0003b0 0e 0d 59 3d c0 4f a3 36 a8 44 bb 36 35 47 28 35
       0.052990966 4.8670627e-06 5.581027e-06 6.2688497e-07
0003c0 05 3e 44 ba dc 91 7e b4 74 0c 85 36 f4 03 b3 32
       -0.0007486048 -2.3708657e-07 3.9651586e-06 2.084014e-08
0003d0 cd 09 4b bc f4 1c e9 3a 02 d2 fd 3a b8 46 88 3c
       -0.012392473 0.0017785118 0.0019364955 0.016635284
0003e0 37 ef 1f b4 6d 44 e2 33 e9 dd 92 34 69 eb 91 ba
       -1.4895055e-07 1.0536392e-07 2.735608e-07 -0.001113278
0003f0 b2 fb 85 b2 69 5f c3 b1 1a e0 81 36 62 e1 87 b4
       -1.5597696e-08 -5.686094e-09 3.8705884e-06 -2.5309697e-07

bias f4 [18]
000000 7c f6 0d 30 5a 01 de 31 f8 cc 74 31 f5 64 05 b1
       5.1645777e-10 6.461204e-09 3.5623184e-09 -1.9411435e-09
000010 d6 37 82 b1 4f da 12 b1 d0 4e 48 b1 4e 2f e3 b0
       -3.7898458e-09 -2.136989e-09 -2.914863e-09 -1.6529869e-09
000020 f2 33 03 31 2e d2 9b b1 7e 6a dc b1 8a ab 3c b1
       1.9092536e-09 -4.5349884e-09 -6.4149495e-09 -2.745511e-09
000030 c2 02 48 b1 cc f1 76 31 ea 10 19 31 e7 a4 41 31
       -2.9105398e-09 3.5935157e-09 2.2274045e-09 2.8178933e-09
000040 4e 79 05 b1 0c 77 65 b0
       -1.9423e-09 -8.347889e-10

weight f4 [18]
000000 7a 60 aa b7 ac 6b 06 3a b6 74 13 b6 30 d8 1b b1
       -2.0310505e-05 0.00051277387 -2.1972642e-06 -2.2678357e-09
000010 67 78 e5 3b 5e 78 4b 3a fe b4 5f b8 9d 23 37 b8
       0.0070028785 0.00077617716 -5.3335905e-05 -4.3663767e-05
000020 a1 c6 dd 33 44 60 24 36 ff d9 43 b9 96 6f ab 35
       1.0327245e-07 2.4493938e-06 -0.00018677859 1.2772969e-06
000030 31 dc 3f 37 51 37 ab 3d 77 5d 6d b8 c0 59 61 b5
       1.14357545e-05 0.0836016 -5.659225e-05 -8.3949635e-07
000040 d3 82 b2 38 a4 d7 87 b7
       8.512069e-05 -1.619367e-05

bias f4 [18]
000000 e2 2f af 38 01 72 0a 39 68 80 c3 b3 63 0e d9 34
       8.353569e-05 0.00013203175 -9.103752e-08 4.0429867e-07
000010 2d 96 e2 bb 60 69 40 ba b9 92 32 38 dc 98 86 36
       -0.006914875 -0.0007339921 4.2575153e-05 4.0113064e-06
000020 24 40 05 b3 cc e8 30 37 88 cc 13 36 24 80 9f 35
       -3.102481e-08 1.054462e-05 2.202376e-06 1.1883717e-06
000030 26 ce 3a b8 b9 f1 1d 39 4c f2 43 38 38 da 27 34
       -4.4537846e-05 0.00015062735 4.671728e-05 1.5632475e-07
000040 2a 19 44 b7 16 bf 16 37
       -1.1688369e-05 8.985187e-06

running_mean f4 [18]
000000 91 70 8d 35 12 93 94 35 30 89 f3 33 a8 af c6 b0
       1.053808e-06 1.1069662e-06 1.13405235e-07 -1.4456321e-09
000010 90 29 c4 35 9f 22 a2 b2 95 ca b1 b0 c8 68 af b2
       1.4615234e-06 -1.8875026e-08 -1.2936022e-09 -2.042033e-08
000020 85 78 32 31 c1 89 6d b1 67 73 02 b2 4d 98 65 36
       2.5970917e-09 -3.4566343e-09 -7.593235e-09 3.421231e-06
000030 23 44 e6 b1 ef fe ac 36 91 59 b4 b3 63 7d 35 31
       -6.7016273e-09 5.1556776e-06 -8.398195e-08 2.641024e-09
000040 21 1f eb b1 f2 35 09 b1
       -6.842939e-09 -1.9966788e-09

running_var f4 [18]
000000 4a 49 23 32 36 01 33 32 c3 8d c9 2f 52 a0 2b 2b
       9.504513e-09 1.0419447e-08 3.6662415e-10 6.0973893e-13
000010 43 44 8f 32 4b dd e4 2d d9 d2 52 2c 20 21 8f 2d
       1.6678433e-08 2.6018873e-11 2.9959839e-12 1.6271928e-11
000020 9e af c0 2a 00 3b 6c 2d b8 cc 8f 2e 94 d2 8d 33
       3.422791e-13 1.34281475e-11 6.5392525e-11 6.604128e-08
000030 24 e3 52 2f b6 9f fa 33 ea 30 c0 30 b2 6b 53 2a
       1.9180085e-10 1.16705834e-07 1.3983741e-09 1.8777929e-13
000040 4f a9 01 30 1b 6e 8c 2c
       4.717053e-10 3.9912635e-12

weight f4 [3, 18, 1]
000000 32 04 0d bd 14 9c 0e ba 60 f3 2a 34 02 c3 58 bc
       -0.03442783 -0.00054401276 1.5921023e-07 -0.013230087
000010 9a 71 84 33 ac 52 2a be 23 90 c6 3c ae 5a 4d bc
       6.167393e-08 -0.166331 0.024238652 -0.012533827
000020 2b 8c 89 3d 48 fa 6b bd e1 d9 90 ba 55 e5 89 3c
       0.06716188 -0.057611734 -0.0011051261 0.016832987
000030 63 5c 25 b2 5b 20 98 3e ef fc 04 3c 80 2a 05 3d
       -9.62527e-09 0.29712185 0.008116945 0.032511234
000040 86 9b 65 b9 02 99 f3 b4 87 5c b9 b6 c5 d9 56 bd
       -0.00021897079 -4.5373605e-07 -5.5242012e-06 -0.052453775
000050 d5 fe 9b 35 7e 4a e0 33 c4 29 5a bd 6f 3b a7 b2
       1.1622566e-06 1.0444363e-07 -0.053262487 -1.9468386e-08
000060 01 5d 4b 31 69 91 ad 3b a9 42 f7 3c a4 58 80 33
       2.9593255e-09 0.0052968753 0.030183153 5.976588e-08
000070 0a b7 16 38 1e c7 1c b4 af 51 88 33 1a bf 92 3d
       3.5933255e-05 -1.460107e-07 6.347852e-08 0.07165356
000080 10 44 59 b9 49 a4 fa b6 94 af 5b 3a 36 d6 fd bb
       -0.00020720088 -7.469706e-06 0.000838035 -0.007746483
000090 c8 ba 49 3d a9 e6 8f bd af db 09 34 60 22 54 35
       0.049250394 -0.07026417 1.283904e-07 7.9026177e-07
0000a0 d3 c9 84 bd 09 8f 9a 3b 7b 66 0d bd e7 0f 1f bc
       -0.064838074 0.004716758 -0.03452156 -0.009708381
0000b0 93 80 87 b6 f2 11 f2 bc 08 e3 ad 3b 9d 67 d5 3a
       -4.0382815e-06 -0.029549573 0.0053066052 0.001628149
0000c0 3c c3 90 bd 47 a0 b2 bc 41 e3 09 bc 24 a1 99 ba
       -0.07068488 -0.021804942 -0.008415998 -0.0011720997
0000d0 4a 3b f0 3d 54 5e 3c bc
       0.117300585 -0.011497099

bias f4 [3]
000000 d2 aa 7f 30 59 91 05 31 51 a2 bc 31
       9.301121e-10 1.9436668e-09 5.4899734e-09

weight f4 [3]
000000 04 99 c5 bd 0a d2 50 bd ca 48 07 3d
       -0.09648326 -0.05098156 0.0330284

bias f4 [3]
000000 23 36 ec be 54 f3 ee be e4 3c 05 bf
       -0.46135053 -0.4667002 -0.52046037

running_mean f4 [3]
000000 82 f1 89 38 5e 3c 38 37 77 ec 6a b7
       6.5776534e-05 1.098131e-05 -1.4002543e-05

running_var f4 [3]
000000 e8 44 6c 36 44 3a e3 34 a5 6d cc 33
       3.520685e-06 4.232444e-07 9.5194345e-08

weight f4 [1, 2]
000000 51 6a ce 3e b3 61 83 3e
       0.40315488 0.25660476
