experiments_generated_data/obs_5_pred_3/models/tcn.pt (torch, 24835 bytes, 31 tensors)

weight f4 [30, 5, 1]
0	0xb50d8d74	-5.2732435e-07
1	0x3645fbc0	2.9501825e-06
2	0x35ca2f70	1.5063979e-06
3	0x35a4b4f4	1.2271616e-06
4	0xb5954a46	-1.1122982e-06
5	0xb9dbacf7	-0.00041899804
6	0xb60b6265	-2.0769887e-06
7	0xb735b31e	-1.0830145e-05
8	0x387a4217	5.9666196e-05
9	0xb612676b	-2.1815893e-06
10	0x3d2ac466	0.041691206
11	0x3719d9a3	9.170183e-06
12	0x3cc336df	0.023829876
13	0xb6751a5e	-3.6523193e-06
14	0x3b6d8bae	0.0036246586
15	0x33bbbedd	8.742584e-08
16	0x33061eb0	3.1227216e-08
17	0xb6b3908e	-5.351444e-06
18	0x3360db72	5.235365e-08
19	0x3391bd08	6.786473e-08
20	0x3c1b6e8c	0.009486806
21	0x3a0be97e	0.0005337222
22	0xb2b16caa	-2.0654927e-08
23	0x32f52b0d	2.8541331e-08
24	0x38b31fb1	8.541288e-05
25	0xb4cdee74	-3.8357723e-07
26	0xb53830e0	-6.8616464e-07
27	0xb4fef3b7	-4.7488513e-07
28	0xb4810200	-2.4029578e-07
29	0x34c4e031	3.6670966e-07
30	0xb3d8638d	-1.0076392e-07
31	0xb432414c	-1.6601297e-07
32	0x343bc3d5	1.7486975e-07
33	0xb40a1c5d	-1.286257e-07
34	0xb31e9016	-3.6918287e-08
35	0xb3b3c2ae	-8.370749e-08
36	0xb22a9ba8	-9.9306945e-09
37	0xb253aa99	-1.2320606e-08
38	0x33f1c765	1.1258707e-07
39	0xb2b8542f	-2.1458701e-08
40	0xb401ca2c	-1.2087611e-07
41	0xb4d037c4	-3.8783594e-07
42	0x332ff2bc	4.096613e-08
43	0x3241e63e	1.128643e-08
44	0x34c3b6b9	3.645453e-07
45	0xb38308b9	-6.1017495e-08
46	0xb30df64f	-3.3053137e-08
47	0x3439310a	1.7247308e-07
48	0x33732ea7	5.6620276e-08
49	0xb32d7330	-4.0384464e-08
50	0xbc41b9f4	-0.01182412
51	0xbc158865	-0.009126757
52	0xba6a61d2	-0.0008940968
53	0xbc84d0e6	-0.016212892
54	0xbc711aa3	-0.014715823
55	0xb5910c9e	-1.0807014e-06
56	0xb607ae1d	-2.0217915e-06
57	0x35cad0b0	1.5110909e-06
58	0x355ccb82	8.225253e-07
59	0x34e99761	4.3509775e-07
60	0xb33c9ae5	-4.3913037e-08
61	0xb2e5f0cc	-2.676861e-08
62	0xb2bcff16	-2.200208e-08
63	0x3468716b	2.1647945e-07
64	0xb3a8ad38	-7.854618e-08
65	0xb449da49	-1.8798995e-07
66	0xb40b57a2	-1.2977264e-07
67	0xb433e444	-1.6753717e-07
68	0x34147930	1.3827662e-07
69	0xb2ef28a8	-2.784175e-08
70	0xb6a8d1cc	-5.0312137e-06
71	0xb5064fea	-5.003518e-07
72	0x364ebaf5	3.0805215e-06
73	0xb4fd3038	-4.7160006e-07
74	0x3600b285	1.9177398e-06
75	0xb6601094	-3.338825e-06
76	0x33b14cf8	8.256205e-08
77	0x3510f228	5.3996564e-07
78	0x356434c5	8.501341e-07
79	0xb41e95e9	-1.4769434e-07
80	0x32c8bf08	2.3369935e-08
81	0x37b9b3d2	2.2137454e-05
82	0xb2cfb66c	-2.4180927e-08
83	0x33c7cde8	9.304114e-08
84	0x34b1df7c	3.3131425e-07
85	0x36604c54	3.342303e-06
86	0x36339288	2.675837e-06
87	0x362a43dc	2.5371473e-06
88	0xb4492c83	-1.8735777e-07
89	0x2fb944e0	3.3700243e-10
90	0x325aab96	1.2728284e-08
91	0x32b04f75	2.052523e-08
92	0xbaa6680d	-0.0012695804
93	0xb2a19138	-1.8808905e-08
94	0x3873846a	5.8059035e-05
95	0xb3e0d9e5	-1.04704476e-07
96	0x33aeaa90	8.1335315e-08
97	0x33a79aac	7.804678e-08
98	0x33ad9d5a	8.084562e-08
99	0xb40cfc34	-1.3130267e-07
100	0x3579e798	9.309674e-07
101	0xb55c16fa	-8.198982e-07
102	0x35f9452e	1.857208e-06
103	0x3482b348	2.434483e-07
104	0xb5069622	-5.013736e-07
105	0x3df9b50a	0.121927336
106	0x3c048d84	0.008090381
107	0x3baf585e	0.0053511104
108	0x3c18165c	0.009282675
109	0x3c872b87	0.016500248
110	0xb546ebef	-7.4104076e-07
111	0xb5afe5ea	-1.310543e-06
112	0x361d50af	2.3441787e-06
113	0x364dc823	3.0663875e-06
114	0xb6377b0c	-2.7340748e-06
115	0xb5d9a19c	-1.6214794e-06
116	0x35995be2	1.142613e-06
117	0x351d6d43	5.8646054e-07
118	0xb43a6d33	-1.7362326e-07
119	0x350d374c	5.260706e-07
120	0x387e2c4b	6.059957e-05
121	0xb5b299d5	-1.3306804e-06
122	0xb1792d22	-3.6259924e-09
123	0x3786b5b5	1.6058659e-05
124	0xb44be9d8	-1.899092e-07
125	0xb5f808c4	-1.8479991e-06
126	0x329dff18	1.8393209e-08
127	0xb374ba90	-5.6980355e-08
128	0xb3518812	-4.878536e-08
129	0xb5fa18a5	-1.8633624e-06
130	0x31992d70	4.4580517e-09
131	0xb427dd83	-1.5633672e-07
132	0xb4c97118	-3.7521454e-07
133	0xb3019390	-3.016936e-08
134	0x342637ec	1.5480299e-07
135	0x35d9a57c	1.6215922e-06
136	0x35ab8b4a	1.2781031e-06
137	0x35dd5bff	1.6492558e-06
138	0xb421a684	-1.5054871e-07
139	0x3558be6e	8.074338e-07
140	0x32b8b8e0	2.150449e-08
141	0xb1bc6df0	-5.4840186e-09
142	0x31ba7660	5.42677e-09
143	0xb1d5051e	-6.1996976e-09
144	0xb67b667c	-3.7461568e-06
145	0x35a3c584	1.2201931e-06
146	0xb5a25f11	-1.2097609e-06
147	0x33563ea0	4.9882715e-08
148	0xb2c9573f	-2.3439155e-08
149	0x347a9a69	2.3339238e-07

bias f4 [30]
0	0xafd91d20	-3.9492765e-10
1	0xaf029b48	-1.1878598e-10
2	0xb102fa0b	-1.9059623e-09
3	0xaf488200	-1.823608e-10
4	0xb12255fd	-2.3622981e-09
5	0x30bb7557	1.3639391e-09
6	0x30d59474	1.5539983e-09
7	0xb13b76ef	-2.7279687e-09
8	0xb00b15c6	-5.059885e-10
9	0xb00fd438	-5.232468e-10
10	0x31454c0c	2.87105e-09
11	0x305476c8	7.729395e-10
12	0xb153ac38	-3.0802436e-09
13	0xb0f3e667	-1.7746061e-09
14	0x3120e723	2.341445e-09
15	0x2fb546c8	3.2974e-10
16	0x2f826350	2.3717428e-10
17	0xb0b6e788	-1.3308048e-09
18	0xb1110cc2	-2.110753e-09
19	0x30f9762e	1.8150723e-09
20	0xb051b9c6	-7.6297757e-10
21	0xaf9ec9b4	-2.888335e-10
22	0xade30280	-2.5808022e-11
23	0x307b6cf0	9.146808e-10
24	0x302ce946	6.2904737e-10
25	0xb15350a9	-3.0750391e-09
26	0xafceae00	-3.7594816e-10
27	0x30a79f94	1.2196204e-09
28	0x310ec300	2.0774564e-09
29	0xaf70013c	-2.1828311e-10

weight f4 [30]
0	0xb5150bfc	-5.5524265e-07
1	0x362e10f5	2.593789e-06
2	0x34d7e584	4.0213865e-07
3	0x343458d8	1.6796128e-07
4	0xb4c0f2b4	-3.5939377e-07
5	0xb5819a50	-9.65616e-07
6	0x33ab82cd	7.9866005e-08
7	0xb3b2d5fa	-8.327693e-08
8	0xb5d7bb51	-1.6073265e-06
9	0xb47d9d20	-2.3619623e-07
10	0xb521e662	-6.0312425e-07
11	0xb6085bab	-2.0318937e-06
12	0x3511c729	5.4306525e-07
13	0xb46fa6fa	-2.2319355e-07
14	0xb51c29b8	-5.817524e-07
15	0xb69e5af8	-4.719357e-06
16	0x358c1da8	1.0439444e-06
17	0xb6115cf9	-2.16608e-06
18	0xb25ea7f0	-1.2960285e-08
19	0x34677b1c	2.1558338e-07
20	0xb5fd4853	-1.8871018e-06
21	0x358bf5c8	1.0427839e-06
22	0xb683071f	-3.9049332e-06
23	0xb616f8c2	-2.2496538e-06
24	0x3523cc3b	6.1019426e-07
25	0xb54ec368	-7.7025334e-07
26	0x3380a20c	5.9899406e-08
27	0xb60b1344	-2.0723828e-06
28	0x34134d7b	1.3718629e-07
29	0xb6be1f24	-5.6660665e-06

bias f4 [30]
0	0x34b94ac3	3.4513332e-07
1	0xb5605cb2	-8.358139e-07
2	0xb4878621	-2.52433e-07
3	0xb339b599	-4.323883e-08
4	0xb49e76de	-2.951628e-07
5	0x35e71888	1.7217981e-06
6	0x341d1693	1.4629977e-07
7	0x345e2909	2.069029e-07
8	0x344e74a8	1.9227684e-07
9	0x336a4a81	5.455013e-08
10	0x346ed4ba	2.2242867e-07
11	0xb5b42194	-1.3420818e-06
12	0x355a8bdc	8.141485e-07
13	0x34888c93	2.5434255e-07
14	0xb5e348fe	-1.6934061e-06
15	0x34e732a7	4.3063957e-07
16	0x3560cd17	8.374495e-07
17	0x35057dfc	4.972969e-07
18	0x336ca33e	5.50965e-08
19	0x350dc889	5.281841e-07
20	0xb5ca5b0a	-1.5076669e-06
21	0x343cf4be	1.7597901e-07
22	0x3683e487	3.9307083e-06
23	0xb46e046d	-2.2167087e-07
24	0x34e9ce1c	4.3549596e-07
25	0x34d39e65	3.941706e-07
26	0xb40b84df	-1.2993722e-07
27	0x358fea49	1.0722516e-06
28	0xb486d91b	-2.511741e-07
29	0x360151d1	1.9270121e-06

running_mean f4 [30]
0	0x34be487c	3.5442997e-07
1	0xb83d5144	-4.5136796e-05
2	0x3c00fa39	0.007872158
3	0xb50cf376	-5.2508346e-07
4	0x3aa03c9c	0.0012225094
5	0xb3012807	-3.0071558e-08
6	0xb21b262d	-9.030868e-09
7	0xb3357b70	-4.2254612e-08
8	0x33561576	4.9845276e-08
9	0x32fdb369	2.9534663e-08
10	0xbbd5dc4c	-0.0065265056
11	0xb30eea14	-3.3274844e-08
12	0xb31b2a17	-3.612703e-08
13	0xb1195aa4	-2.2315954e-09
14	0x35204150	5.9699687e-07
15	0xb4555f0a	-1.9871746e-07
16	0x36df0cef	6.6474236e-06
17	0x34fb7ffe	4.684552e-07
18	0xb9353b8f	-0.00017283692
19	0xb325372a	-3.8467228e-08
20	0x32875001	1.575245e-08
21	0x3c90ef0f	0.017692117
22	0xb4d0f809	-3.8923488e-07
23	0x34fe2b1f	4.7342562e-07
24	0x37989ea4	1.8193685e-05
25	0x353126da	6.5994175e-07
26	0xb3c94686	-9.37262e-08
27	0x34d43692	3.9527782e-07
28	0xb5f03792	-1.7897567e-06
29	0x33e40206	1.06174454e-07

running_var f4 [30]
0	0x2f4549fb	1.7943329e-10
1	0x33a691fb	7.756531e-08
2	0x3ae00022	0.0017089883
3	0x2f20e4c1	1.4633185e-10
4	0x383f81cb	4.5658828e-05
5	0x2c944f61	4.215226e-12
6	0x2b74c8eb	8.6965043e-13
7	0x2bb0babf	1.2557385e-12
8	0x2c75694d	3.4875048e-12
9	0x2c184396	2.1638017e-12
10	0x3a8ae451	0.0010596608
11	0x2de3b5bb	2.5887617e-11
12	0x2af852b0	4.4111026e-13
13	0x2b273c2f	5.941384e-13
14	0x2fd1b93f	3.8148504e-10
15	0x2f1ea896	1.442991e-10
16	0x318874a5	3.971382e-09
17	0x3013c3bb	5.375644e-10
18	0x3583b749	9.813604e-07
19	0x2b13ef35	5.255686e-13
20	0x2d8d3df0	1.605735e-11
21	0x3c0d9287	0.008640892
22	0x2f0e8e11	1.2965297e-10
23	0x2ed893ce	9.848798e-11
24	0x32dce355	2.571475e-08
25	0x30531641	7.679298e-10
26	0x2bdd9fa9	1.5747309e-12
27	0x2e909364	6.574544e-11
28	0x3029500d	6.15956e-10
29	0x2d17c693	8.627449e-12

weight f4 [24, 30, 1]
0	0xb2fda563	-2.9528286e-08
1	0x36ef87ad	7.13855e-06
2	0x3193a289	4.296741e-09
3	0xb301ac73	-3.0191995e-08
4	0xb1e9c8a4	-6.8040027e-09
5	0xb2559a89	-1.2433369e-08
6	0xb31e3f70	-3.6844938e-08
7	0x31b64766	5.305014e-09
8	0x338d7647	6.587339e-08
9	0x3305ba97	3.1136178e-08
10	0x32596708	1.2654489e-08
11	0xb13ad707	-2.7188791e-09
12	0x317cb96a	3.6776222e-09
13	0x3251adcb	1.2204917e-08
14	0xb1fc9e61	-7.352171e-09
15	0x3375e014	5.7247306e-08
16	0x33f2f44a	1.1313439e-07
17	0x330f748d	3.3400784e-08
18	0xb334f712	-4.2134225e-08
19	0xb229b04e	-9.877182e-09
20	0xb162c700	-3.3000447e-09
21	0x3210dd24	8.432185e-09
22	0x305c9cd8	8.025842e-10
23	0xb284bc4c	-1.545245e-08
24	0xb2d2e943	-2.4553293e-08
25	0xb1a48b72	-4.7888813e-09
26	0xb220ee0a	-9.36735e-09
27	0xb0bd405c	-1.3769852e-09
28	0xb1c51f93	-5.737044e-09
29	0x3390ca24	6.742292e-08
30	0xb31af9f9	-3.6083268e-08
31	0x389f5b82	7.5987555e-05
32	0xb28dfd61	-1.6529784e-08
33	0x354707d3	7.414466e-07
34	0xb1c6df67	-5.7879563e-09
35	0xb2c7e0b5	-2.3268834e-08
36	0x33055438	3.1043072e-08
37	0x3a9cc4ce	0.0011960508
38	0xb59fb3ce	-1.1898753e-06
39	0x332eb65f	4.0678398e-08
40	0x33ebbe15	1.0977616e-07
41	0x34f36599	4.53362e-07
42	0xb2a7c9f8	-1.9533203e-08
43	0x33367e45	4.249002e-08
44	0x32b3969c	2.0906832e-08
45	0x33c7bc77	9.300941e-08
46	0xb32060d7	-3.734098e-08
47	0xb40c58ce	-1.3070823e-07
48	0x31ccf15a	5.96462e-09
49	0x331dd0ab	3.6744193e-08
50	0x31ebdf33	6.864775e-09
51	0x329d0d88	1.8283359e-08
52	0x3502265f	4.848461e-07
53	0xb00a8e5a	-5.04064e-10
54	0x328120c0	1.503247e-08
55	0xb66c9f6f	-3.5259543e-06
56	0xb2f34f05	-2.8324857e-08
57	0x34bca99c	3.5141136e-07
58	0xb32f6ea9	-4.0846007e-08
59	0xb4eb961e	-4.3881386e-07
60	0xb1acc7df	-5.0285816e-09
61	0x3196a5df	4.384432e-09
62	0xb204ca84	-7.729458e-09
63	0xb2600468	-1.3039518e-08
64	0xb25b0290	-1.274806e-08
65	0xb0c2c2cb	-1.4170721e-09
66	0x31d6dbd6	6.253212e-09
67	0xb04e5dce	-7.507567e-10
68	0x326decdb	1.384907e-08
69	0xb231db78	-1.0352657e-08
70	0x326dd2d9	1.3843157e-08
71	0x30d26b16	1.5309947e-09
72	0x31bceae0	5.4982223e-09
73	0xb24ea8a9	-1.2029127e-08
74	0xb2a2989e	-1.8928684e-08
75	0xb313d650	-3.442102e-08
76	0x3240a830	1.1214112e-08
77	0xb241c4d6	-1.1278834e-08
78	0xb0ddda03	-1.6141829e-09
79	0x30fa8344	1.8227202e-09
80	0x320f2ad8	8.333437e-09
81	0xb216a87b	-8.769457e-09
82	0x31d8f0fd	6.3138246e-09
83	0x32a44215	1.9122163e-08
84	0x31a79e8c	4.8783644e-09
85	0x321a7cfc	8.992398e-09
86	0xb22683fe	-9.692483e-09
87	0x32027120	7.592718e-09
88	0x3186f38d	3.927602e-09
89	0x31acdaec	5.0307474e-09
90	0x335582ac	4.9711772e-08
91	0x3399a485	7.1545436e-08
92	0xb2b9d540	-2.163381e-08
93	0xb11a25ec	-2.2431506e-09
94	0x3340334b	4.4750134e-08
95	0x339c00ed	7.2644845e-08
96	0xb232b8b8	-1.0402964e-08
97	0xb0e665a0	-1.6763586e-09
98	0xb3dd4f0e	-1.03054944e-07
99	0x3212e006	8.5492555e-09
100	0x3330a9da	4.1132672e-08
101	0x3144ef60	2.8657823e-09
102	0x31cfebda	6.051306e-09
103	0xb2024527	-7.582719e-09
104	0xb2949462	-1.7296944e-08
105	0xb3ca0e32	-9.40894e-08
106	0x3299c4b3	1.7900993e-08
107	0x323f9ee4	1.1153791e-08
108	0xb1383cf5	-2.6810174e-09
109	0x31fef553	7.420263e-09
110	0xb328250c	-3.9149242e-08
111	0xb2aa24a6	-1.980727e-08
112	0xb13b8670	-2.72885e-09
113	0x3307be41	3.1605172e-08
114	0xb31158e1	-3.384128e-08
115	0xb426452f	-1.5485124e-07
116	0x323c7791	1.09702265e-08
117	0x31d6cce6	6.251514e-09
118	0x334587b8	4.5991072e-08
119	0xb3860bad	-6.241985e-08
120	0x336ff995	5.5873517e-08
121	0xbc320733	-0.010865974
122	0xb1f9c9ae	-7.269782e-09
123	0xb2ff89fe	-2.9748659e-08
124	0x339da883	7.341534e-08
125	0xb2de28c6	-2.5862743e-08
126	0x33f39ec0	1.1344446e-07
127	0xb8b4dcb8	-8.624181e-05
128	0xbc433c71	-0.011916266
129	0xb4c8c270	-3.7394375e-07
130	0xb50c5ddf	-5.2290665e-07
131	0x34cfef6f	3.8730965e-07
132	0x350797ae	5.051214e-07
133	0x3329113d	3.9364057e-08
134	0x32898bac	1.6012415e-08
135	0xbb5fd5b8	-0.0034154486
136	0x35135bc5	5.489531e-07
137	0x33bc82bb	8.778212e-08
138	0xb120c0be	-2.3392626e-09
139	0x32fb85ec	2.9281146e-08
140	0x34ab6c98	3.1930244e-07
141	0xb47fdbe8	-2.3828727e-07
142	0xbc8ce7da	-0.0172004
143	0x33a3ce79	7.627836e-08
144	0x364359b4	2.9109478e-06
145	0xbb46ee54	-0.0030354457
146	0x33924807	6.8117565e-08
147	0xb4a2fad1	-3.0357344e-07
148	0xb10a6de8	-2.0144117e-09
149	0xb6735f14	-3.6265164e-06
150	0x3524d9c9	6.141168e-07
151	0xbb1a21ae	-0.002351861
152	0xb412c662	-1.3669481e-07
153	0xb415f837	-1.3967006e-07
154	0x350f31a6	5.33439e-07
155	0xb45ef4e2	-2.0764449e-07
156	0xb344a82f	-4.578777e-08
157	0xb3295997	-3.942986e-08
158	0xb38db6bd	-6.599064e-08
159	0x331cf31e	3.6542694e-08
160	0xb2a0de66	-1.8727587e-08
161	0xb5936796	-1.0982501e-06
162	0x32f23d48	2.8200375e-08
163	0x32915e85	1.6923204e-08
164	0xb5145a12	-5.5265366e-07
165	0xb460b73b	-2.0928285e-07
166	0x348e4998	2.6503108e-07
167	0xb60f7b21	-2.138033e-06
168	0x3363437e	5.291394e-08
169	0xb066550e	-8.379438e-10
170	0xb31dee40	-3.6771098e-08
171	0xb2f20e70	-2.8179073e-08
172	0xb7cfb254	-2.4759363e-05
173	0xb57c66ed	-9.402709e-07
174	0x3427d641	1.5631032e-07
175	0x33ce39f4	9.603164e-08
176	0x32fb3a94	2.9246884e-08
177	0xb69a93d1	-4.6067657e-06
178	0x33bcb664	8.787609e-08
179	0x3921dd02	0.00015436488
180	0xb24af083	-1.18126335e-08
181	0x39e12f5d	0.00042950633
182	0xb050d69c	-7.597494e-10
183	0x33d54199	9.9305176e-08
184	0x324e0a43	1.1993111e-08
185	0xb21d65ae	-9.161722e-09
186	0x3331dd92	4.141254e-08
187	0x32835d25	1.5292764e-08
188	0x31a08262	4.6714357e-09
189	0x321a5644	8.983594e-09
190	0xb396fc7a	-7.0308445e-08
191	0x3290ab17	1.6841609e-08
192	0x3159fe9a	3.172238e-09
193	0xb181c73a	-3.7770436e-09
194	0x32dd4285	2.5758036e-08
195	0x32088bb3	7.948006e-09
196	0xb22ffe70	-1.0244193e-08
197	0xb332556e	-4.1521552e-08
198	0x337a4fbe	5.8280186e-08
199	0xb3364444	-4.2437264e-08
200	0xb259ae04	-1.2670629e-08
201	0x339a0439	7.171952e-08
202	0x33784f90	5.781436e-08
203	0xb3c4cecf	-9.1645795e-08
204	0x32fff54f	2.979746e-08
205	0xb2b70c40	-2.1309575e-08
206	0x31929d3f	4.267036e-09
207	0xb1f2d38a	-7.067176e-09
208	0xb3176037	-3.5244934e-08
209	0x34511821	1.947342e-07
210	0x33b7045d	8.522395e-08
211	0x3cd7be41	0.026335837
212	0xb38cbe5c	-6.553884e-08
213	0x321b451f	9.037904e-09
214	0xb2941ffc	-1.7244012e-08
215	0xb3d80ffe	-1.0061193e-07
216	0x33216e00	3.7585778e-08
217	0x321d7f53	9.167553e-09
218	0x383ecd21	4.549057e-05
219	0xb52ef0d4	-6.51705e-07
220	0xb6616561	-3.3586623e-06
221	0x31ecc34f	6.890708e-09
222	0xb30f7a31	-3.3405914e-08
223	0xb444d5ec	-1.8331747e-07
224	0xb41b7ba3	-1.4480479e-07
225	0xb62181d2	-2.4066435e-06
226	0x325cdabc	1.285542e-08
227	0xb3c512ce	-9.176948e-08
228	0x349902b1	2.850043e-07
229	0x33ddc8a7	1.0327613e-07
230	0x33781c55	5.7767767e-08
231	0x395d69ad	0.0002111557
232	0x3a11fd95	0.00055690977
233	0xb445aeb8	-1.8410617e-07
234	0x39feb088	0.0004857818
235	0x34966729	2.8014736e-07
236	0xb35a6dfb	-5.0857107e-08
237	0x32f9ffa6	2.910367e-08
238	0x3694ad4e	4.430919e-06
239	0x328f46da	1.667961e-08
240	0x30c4164c	1.4267214e-09
241	0x33927f4d	6.821811e-08
242	0x32e5600a	2.6702782e-08
243	0xb2cd9ec0	-2.3937332e-08
244	0x336ae941	5.4694514e-08
245	0xb238c631	-1.0755273e-08
246	0xb288c30e	-1.5921184e-08
247	0xb23b74ec	-1.09114175e-08
248	0xb2b60a9b	-2.1192411e-08
249	0xb27082e4	-1.39996e-08
250	0xb1a0c278	-4.6787214e-09
251	0xb3232c95	-3.7991942e-08
252	0x3262ec54	1.3208666e-08
253	0xb1f85438	-7.2273245e-09
254	0x32a25384	1.889726e-08
255	0xb3ccadb3	-9.531086e-08

bias f4 [24]
0	0x3089112c	9.972942e-10
1	0x30d6634a	1.5598769e-09
2	0x2f615010	2.0492075e-10
3	0xafd71066	-3.9119924e-10
4	0xafeb468c	-4.2796378e-10
5	0xafbff08e	-3.4913622e-10
6	0xb0963791	-1.0929729e-09
7	0x30ba5b37	1.3559206e-09
8	0xb0b9d4a3	-1.3520957e-09
9	0x3023044b	5.9305155e-10
10	0x30b6500b	1.3264992e-09
11	0xb08b1156	-1.0118508e-09
12	0x3052e9d1	7.672983e-10
13	0xb01f45a7	-5.7942845e-10
14	0x30bcea45	1.3745384e-09
15	0x2ea9a100	7.7138296e-11
16	0xb0954622	-1.086111e-09
17	0x2fd9cc30	3.9617154e-10
18	0x30670590	8.4045215e-10
19	0xb0049ac6	-4.8241267e-10
20	0xb02d1951	-6.297301e-10
21	0xafc12d94	-3.513888e-10
22	0x2db3e000	2.044942e-11
23	0xb01e3a7a	-5.7563165e-10

weight f4 [24]
0	0x352fb127	6.545037e-07
1	0xb328c4a5	-3.9294395e-08
2	0x328d8bd4	1.6478147e-08
3	0xb2e02a12	-2.6096163e-08
4	0x35a76879	1.2472875e-06
5	0x36000df4	1.9081608e-06
6	0xb4a596e5	-3.0843435e-07
7	0x33de2cf2	1.0345856e-07
8	0xb3cb8678	-9.477384e-08
9	0xb45d8abe	-2.0632703e-07
10	0xb327cf48	-3.907124e-08
11	0xb39dc5f8	-7.3468925e-08
12	0xb3a1407e	-7.508878e-08
13	0x3510488e	5.374976e-07
14	0xb1f7f2d8	-7.2162543e-09
15	0xb27b090a	-1.4612178e-08
16	0x3146580e	2.8862845e-09
17	0x3400248d	1.1934226e-07
18	0x359b25b2	1.1559371e-06
19	0x36441eef	2.9224282e-06
20	0xb5becebd	-1.4216272e-06
21	0xb4048357	-1.2341239e-07
22	0xb55abe6e	-8.148844e-07
23	0x330ad916	3.2328067e-08

bias f4 [24]
0	0x34dc3ee7	4.102396e-07
1	0x34ebe8d9	4.394158e-07
2	0x32acff1c	2.0139446e-08
3	0xb4b0fac9	-3.2965025e-07
4	0xb58a833a	-1.0319993e-06
5	0xb59ffa2b	-1.1919232e-06
6	0x348b9885	2.600174e-07
7	0x33b744e8	8.5341355e-08
8	0x32d6d6c6	2.5010547e-08
9	0xb44ce8d1	-1.9083679e-07
10	0x3470bdf6	2.2420849e-07
11	0xb3b83918	-8.578553e-08
12	0x33862101	6.2458646e-08
13	0x34c6d39c	3.703434e-07
14	0xb48e8c53	-2.655166e-07
15	0x329e73a8	1.8446215e-08
16	0xb1c996c3	-5.8670095e-09
17	0xb3e0486c	-1.0443986e-07
18	0xb552116e	-7.825646e-07
19	0x36508754	3.1073187e-06
20	0x35813afe	9.628418e-07
21	0x3405733f	1.2428517e-07
22	0xb21e2acc	-9.206541e-09
23	0x3226a7e4	9.700646e-09

running_mean f4 [24]
0	0x300be2ea	5.089037e-10
1	0x3102402a	1.8953963e-09
2	0xaf101930	-1.3105672e-10
3	0xaea1d20a	-7.358743e-11
4	0xb43c737a	-1.7550875e-07
5	0xb2be1e79	-2.2132769e-08
6	0x31bff67b	5.586853e-09
7	0x3453e114	1.9732789e-07
8	0x2f66671e	2.0955013e-10
9	0x2e71885c	5.4918167e-11
10	0xaf345180	-1.6399859e-10
11	0xb30147a0	-3.0100296e-08
12	0x31b011c3	5.1242934e-09
13	0x34d94a37	4.0473398e-07
14	0xaf5ab977	-1.9892875e-10
15	0xae367faf	-4.1495415e-11
16	0x2f3dda47	1.7266998e-10
17	0x30ec8cb1	1.7211247e-09
18	0xb14a630d	-2.9451173e-09
19	0xb27e2989	-1.479419e-08
20	0xb0935e6d	-1.0722495e-09
21	0x2f2c60a7	1.5677647e-10
22	0x31886c03	3.9704005e-09
23	0xb1580a2b	-3.1437917e-09

running_var f4 [24]
0	0x2929b77c	3.7684686e-14
1	0x29b76e39	8.145953e-14
2	0x2770f229	3.3437966e-15
3	0x26fbe851	1.7479593e-15
4	0x2c37f846	2.6143684e-12
5	0x2ac3ac55	3.4758538e-13
6	0x29989800	6.776524e-14
7	0x2b868a1f	9.559609e-13
8	0x278df85a	3.9404625e-15
9	0x286fd570	1.3313447e-14
10	0x26bdf6a9	1.3181367e-15
11	0x2a0656b4	1.1931672e-13
12	0x291a93ae	3.432296e-14
13	0x2bb1930f	1.2617423e-12
14	0x289d9baa	1.749801e-14
15	0x286a42fe	1.3004136e-14
16	0x27821e61	3.6115185e-15
17	0x297eb3e3	5.6555357e-14
18	0x29f795ab	1.0994967e-13
19	0x2b1e0f37	5.615399e-13
20	0x298001e0	5.684667e-14
21	0x285115e0	1.1606574e-14
22	0x2a1fadfe	1.4182403e-13
23	0x290e2604	3.1563307e-14

weight f4 [9, 24, 1]
0	0xb40da19b	-1.319044e-07
1	0xb3e596e6	-1.0691092e-07
2	0x32479194	1.1616425e-08
3	0x32c82cba	2.3303404e-08
4	0xb4404308	-1.7905779e-07
5	0xb50d3cde	-5.2615167e-07
6	0x3376de11	5.7478307e-08
7	0xb46efeaa	-2.2258124e-07
8	0x3200e4f7	7.502641e-09
9	0x3246b46f	1.1566143e-08
10	0x312ed786	2.5442843e-09
11	0x32961ac5	1.7474472e-08
12	0x34182b6b	1.4171898e-07
13	0x336f935e	5.5780554e-08
14	0xb2872392	-1.5732244e-08
15	0xb223da63	-9.537504e-09
16	0x328d9c18	1.6485544e-08
17	0xb400afdf	-1.198491e-07
18	0xb5596911	-8.099169e-07
19	0x35bfe357	1.4296774e-06
20	0x33995de6	7.141698e-08
21	0xb36380e7	-5.2969792e-08
22	0xb3ff28bb	-1.1881772e-07
23	0xb1735d81	-3.5414305e-09
24	0xba90d3e7	-0.001104948
25	0xb1507a52	-3.0337515e-09
26	0x33e32287	1.0576792e-07
27	0x35d0a821	1.554614e-06
28	0xb4b6dc4e	-3.4060434e-07
29	0x3367423e	5.3844126e-08
30	0xb29fe87b	-1.8615756e-08
31	0xb255613c	-1.242034e-08
32	0xb235f4af	-1.0591221e-08
33	0xb2000376	-7.4513675e-09
34	0x31e2f265	6.6050228e-09
35	0x33bed194	8.8856865e-08
36	0x35326443	6.645607e-07
37	0x3ce3d11b	0.02780967
38	0x35b3e8e0	1.3404315e-06
39	0xb4293d17	-1.5761576e-07
40	0xb315b8b7	-3.4859763e-08
41	0xb4348b36	-1.6814451e-07
42	0x33ba8d0c	8.686956e-08
43	0xb4da0098	-4.0606096e-07
44	0x324196e6	1.1268389e-08
45	0x330dbadb	3.2999065e-08
46	0x3311826c	3.387906e-08
47	0x31f21fe6	7.0467534e-09
48	0xb6327900	-2.6594498e-06
49	0xb24d60e8	-1.1954604e-08
50	0x346a853d	2.184142e-07
51	0x3193c740	4.300915e-09
52	0x32223216	9.441029e-09
53	0x39d84c98	0.00041255797
54	0xb2b273fc	-2.077467e-08
55	0xb87ff832	-6.1027888e-05
56	0x362e5eb8	2.5983154e-06
57	0x3042b3cc	7.0832296e-10
58	0xb5158844	-5.570512e-07
59	0x33eac168	1.09316545e-07
60	0x3424764d	1.5316728e-07
61	0xb3122c33	-3.4033473e-08
62	0xb2b0bebe	-2.0575836e-08
63	0x3750317b	1.2409287e-05
64	0xb3426b70	-4.526686e-08
65	0x32986213	1.7739728e-08
66	0x345a0d8f	2.0307765e-07
67	0x33531f48	4.9155716e-08
68	0xb6c9b758	-6.011611e-06
69	0xb452e0d7	-1.963957e-07
70	0xb47d879b	-2.3611794e-07
71	0x3396b4de	7.017819e-08
72	0x37e36475	2.7107288e-05
73	0x3293a33c	1.7187283e-08
74	0xb1c0ae27	-5.6077343e-09
75	0x349452cb	2.7627388e-07
76	0xb2528069	-1.2252806e-08
77	0x36457473	2.942307e-06
78	0xb98e4cad	-0.00027141478
79	0xb9009293	-0.00012261634
80	0x3127bd96	2.4409466e-09
81	0xb39d16e5	-7.315047e-08
82	0xb4040e16	-1.2298582e-07
83	0x31855bf8	3.881265e-09
84	0xb436ad1a	-1.7013045e-07
85	0x330c505b	3.2669373e-08
86	0x33d4570b	9.887852e-08
87	0x311f0fa2	2.3146431e-09
88	0x37b3c62a	2.143074e-05
89	0x352907b6	6.2968627e-07
90	0xb61fe97d	-2.3828754e-06
91	0x3ba56edf	0.0050486173
92	0xb32bc46b	-3.999268e-08
93	0x3289bfa6	1.603605e-08
94	0x32c3d85a	2.2799373e-08
95	0xb635b7ad	-2.7078015e-06
96	0x30af4f50	1.2755468e-09
97	0x3441f53f	1.8063746e-07
98	0xb32c8832	-4.017074e-08
99	0xb30263fd	-3.0358922e-08
100	0xb676fb44	-3.6803112e-06
101	0x3411e016	1.35857e-07
102	0x35fa620c	1.8654987e-06
103	0xb16e7f93	-3.4706076e-09
104	0x31f3ec68	7.099107e-09
105	0xb65776c5	-3.210663e-06
106	0xb1882bee	-3.963115e-09
107	0x3533f583	6.7039963e-07
108	0x340affce	1.2945313e-07
109	0xb30b8f52	-3.249381e-08
110	0xb32f4295	-4.080592e-08
111	0xb23cdbbb	-1.0993001e-08
112	0xb3214676	-3.7549817e-08
113	0x3406a850	1.2540954e-07
114	0xb3a1ef5c	-7.540686e-08
115	0x3397c63c	7.067544e-08
116	0x36466c24	2.9567245e-06
117	0x33772e99	5.755155e-08
118	0xb222d389	-9.477739e-09
119	0x3134bc66	2.630054e-09
120	0xb67af06f	-3.7392854e-06
121	0xb4f4821a	-4.5543203e-07
122	0xb31c170e	-3.634255e-08
123	0x353f0b15	7.116917e-07
124	0xb60ee706	-2.1294122e-06
125	0x35121639	5.4421577e-07
126	0x32ab7d59	1.9964022e-08
127	0xb2e21339	-2.6318604e-08
128	0xb2b891f5	-2.1486793e-08
129	0xb184ac4c	-3.8612935e-09
130	0x352f5361	6.531391e-07
131	0xb36f204d	-5.56759e-08
132	0xb33e05a9	-4.424297e-08
133	0x34680dfc	2.1611771e-07
134	0xb57f8b1a	-9.519732e-07
135	0x3398680c	7.0969776e-08
136	0x3454aa30	1.9805952e-07
137	0x33afc01b	8.184016e-08
138	0x3830c48f	4.214473e-05
139	0x34b448aa	3.3580483e-07
140	0xb4b2e0a3	-3.3318528e-07
141	0xb2375ae6	-1.067267e-08
142	0xb43ec9db	-1.7768564e-07
143	0x37ae38b7	2.0768826e-05
144	0x3402b846	1.2174232e-07
145	0xb2a37cd9	-1.9032472e-08
146	0xb385fee1	-6.239657e-08
147	0xb3a57e38	-7.70637e-08
148	0x368c06ce	4.1731173e-06
149	0xb68dbadb	-4.2238803e-06
150	0xb40c077e	-1.3041242e-07
151	0x349c3dfe	2.910237e-07
152	0x35060d6f	4.993844e-07
153	0xb282f78c	-1.5246563e-08
154	0xb70e48f5	-8.480846e-06
155	0xb2d8ee40	-2.5254053e-08
156	0x30cd8c7a	1.4955639e-09
157	0xb465a716	-2.1388072e-07
158	0x30a0eb4e	1.170841e-09
159	0xb300e60e	-3.0011556e-08
160	0xb2560b04	-1.2458944e-08
161	0xb25a389b	-1.2702141e-08
162	0xb3426ad4	-4.5266304e-08
163	0x3925d614	0.00015815377
164	0x35286e22	6.274514e-07
165	0xb32ec99c	-4.0695895e-08
166	0xb3a6cfcf	-7.7677775e-08
167	0xb2daba31	-2.546321e-08
168	0x34578e7a	2.0075268e-07
169	0xb48ca78c	-2.6198938e-07
170	0x34cf7caf	3.8647474e-07
171	0xb4df306c	-4.1572218e-07
172	0x37238e79	9.748729e-06
173	0xb3433a5e	-4.545506e-08
174	0x31e1f74a	6.5764754e-09
175	0xb06053be	-8.160973e-10
176	0xb222f0d1	-9.484396e-09
177	0xb4422828	-1.8082267e-07
178	0x35df4172	1.6633842e-06
179	0x35b50df4	1.3489612e-06
180	0xb19a96fe	-4.4991557e-09
181	0x38f508ca	0.000116841475
182	0x360bfc4e	2.0859475e-06
183	0x3138de7d	2.6901994e-09
184	0x3a3cb96a	0.00071992597
185	0xb1b29ebd	-5.1985283e-09
186	0x32032d78	7.635542e-09
187	0x3b8be0d9	0.0042687473
188	0x3abd0c0a	0.0014423144
189	0xb2997d62	-1.7868562e-08
190	0xb38cd3de	-6.5577964e-08
191	0xb3a6cb8d	-7.767003e-08
192	0xb67b2585	-3.7423754e-06
193	0x3484c2cc	2.472865e-07
194	0x3865b5f5	5.4767315e-05
195	0xb5b99060	-1.3825593e-06
196	0xba2d265c	-0.0006605142
197	0xb32d9a64	-4.042012e-08
198	0x36938ec8	4.3975633e-06
199	0x3347df7b	4.6536552e-08
200	0x39884555	0.00025991598
201	0x379a0833	1.8362049e-05
202	0x3903d194	0.00012571207
203	0xb6142310	-2.2074128e-06
204	0x3c959001	0.018257143
205	0x32d9dcd2	2.5362542e-08
206	0xb39dd743	-7.350038e-08
207	0xbb98a910	-0.0046588257
208	0xb4a36e4c	-3.0441367e-07
209	0xb2d4d9ae	-2.4779037e-08
210	0xb2fca748	-2.9412732e-08
211	0xb1f2cf1a	-7.0666717e-09
212	0xaf26ef00	-1.5182522e-10
213	0x3404be8a	1.2362776e-07
214	0x303c2879	6.8451517e-10
215	0x3490a50a	2.6942172e-07

bias f4 [9]
0	0x2fe6244e	4.1862552e-10
1	0x304e08a7	7.495466e-10
2	0xaee3b600	-1.03550946e-10
3	0xb0d2e414	-1.5344335e-09
4	0x2fcdb948	3.7420933e-10
5	0xaeb7fee0	-8.3671514e-11
6	0xb0c33075	-1.420189e-09
7	0xb0818440	-9.423573e-10
8	0x2cbabb00	5.307199e-12

weight f4 [9]
0	0xb4f54563	-4.5685292e-07
1	0xb52e15fd	-6.485205e-07
2	0x323b0be4	1.0887536e-08
3	0x320bed9d	8.144892e-09
4	0xb59f499b	-1.1867845e-06
5	0x3598c551	1.1382309e-06
6	0xb5a85f81	-1.2544771e-06
7	0xb42f3133	-1.6316044e-07
8	0xb2a58a00	-1.9271283e-08

bias f4 [9]
0	0x35677682	8.622666e-07
1	0xb27cf3e0	-1.4723781e-08
2	0xb3a7a4b4	-7.806503e-08
3	0xb5be1709	-1.4162807e-06
4	0x3556aa68	7.9969186e-07
5	0x338b7154	6.493306e-08
6	0xb6090f3f	-2.0423465e-06
7	0xb568b7b6	-8.669407e-07
8	0xb2dba3f0	-2.5569506e-08

running_mean f4 [9]
0	0xaea59634	-7.530013e-11
1	0x337d0072	5.8906558e-08
2	0x303cc20a	6.866975e-10
3	0x331ded17	3.6770043e-08
4	0x2f25642c	1.5042251e-10
5	0x2ed890d1	9.848267e-11
6	0x3114197b	2.1551319e-09
7	0x331044c3	3.359015e-08
8	0x2e21b0a0	3.6764036e-11

running_var f4 [9]
0	0x28d22769	2.3331775e-14
1	0x2816f333	8.379408e-15
2	0x29628813	5.0300106e-14
3	0x29fdac80	1.1265381e-13
4	0x297c85af	5.6071192e-14
5	0x29afc4ac	7.805678e-14
6	0x298b0952	6.174457e-14
7	0x2a3f326c	1.6981701e-13
8	0x296c9283	5.2529605e-14

weight f4 [30, 9, 1]
0	0x31b515d7	5.270276e-09
1	0x324967ac	1.1723312e-08
2	0x31357b62	2.6409102e-09
3	0x321681f8	8.760701e-09
4	0xb2a0f36a	-1.8737143e-08
5	0x336b2cab	5.4755827e-08
6	0x338835ce	6.3427805e-08
7	0x3168c58e	3.387274e-09
8	0xb284fce9	-1.5481833e-08
9	0xb956faae	-0.00020502016
10	0x38b2f3d1	8.533116e-05
11	0x3903946a	0.00012548422
12	0xb3cc70a6	-9.519981e-08
13	0xb2d2d4a1	-2.454391e-08
14	0x339a7ac0	7.193512e-08
15	0x39cca7b6	0.00039034866
16	0xb9fc209c	-0.0004808948
17	0xb6fede16	-7.595644e-06
18	0x330aa9da	3.2285108e-08
19	0x32d9537a	2.5300086e-08
20	0xb01d6448	-5.7258775e-10
21	0xb1b650ae	-5.3060694e-09
22	0x33d22fb1	9.787562e-08
23	0x357bc428	9.379023e-07
24	0xb46e011a	-2.2165878e-07
25	0xb1cd3f9c	-5.973517e-09
26	0xb20bb78b	-8.132598e-09
27	0xb8908c22	-6.892557e-05
28	0x3b1eb26b	0.0024215232
29	0xb2b635f8	-2.121213e-08
30	0x319e8900	4.6139803e-09
31	0xb34a046c	-4.703581e-08
32	0x36ac9722	5.1435936e-06
33	0x3bd08cb2	0.0063644284
34	0xb216995c	-8.766019e-09
35	0xb37918fd	-5.7997557e-08
36	0xb403f32d	-1.2288793e-07
37	0xb231e143	-1.0353975e-08
38	0xb366510f	-5.362477e-08
39	0x31a43fa4	4.7802633e-09
40	0xb2de221a	-2.5859709e-08
41	0x351efae9	5.922471e-07
42	0xb4dd3baa	-4.120787e-07
43	0xb30d2b57	-3.2868538e-08
44	0x345fe2fa	2.0851067e-07
45	0x3353e07e	4.933144e-08
46	0xb395b989	-6.972102e-08
47	0xaf3a7e20	-1.696141e-10
48	0x31e7d631	6.7473356e-09
49	0xb3ce0f8a	-9.595449e-08
50	0xb3ce86b6	-9.617126e-08
51	0x37161b8c	8.9471105e-06
52	0x342049be	1.4927988e-07
53	0xb2116ecf	-8.465306e-09
54	0x33c3181c	9.0847806e-08
55	0xb342befa	-4.5342837e-08
56	0xb1f00fdd	-6.9867228e-09
57	0xb3e496f1	-1.06445334e-07
58	0xb33b1b7b	-4.3564324e-08
59	0x33be56e0	8.863367e-08
60	0xb48f0307	-2.6638028e-07
61	0x326c5a46	1.3757534e-08
62	0xb28ebb44	-1.6616134e-08
63	0x334984e4	4.6919823e-08
64	0x31aecbcf	5.087237e-09
65	0x363b68c2	2.7926149e-06
66	0x353af1ff	6.964255e-07
67	0xb487c5d1	-2.528964e-07
68	0xb91634f1	-0.00014324837
69	0x34dcba04	4.1113537e-07
70	0x32826aba	1.5182525e-08
71	0xb38284ed	-6.077776e-08
72	0x39958c53	0.00028524044
73	0x3269cbd1	1.36087275e-08
74	0xb3e52e69	-1.06720854e-07
75	0xb1846040	-3.852648e-09
76	0x31939f86	4.296399e-09
77	0x33518714	4.8784457e-08
78	0x320f2c7e	8.333812e-09
79	0x32a9106e	1.968166e-08
80	0x342a3784	1.585268e-07
81	0x329bfac2	1.8158406e-08
82	0x32c7d515	2.3263548e-08
83	0x340ad5a2	1.292997e-07
84	0x317c3bf8	3.6704915e-09
85	0x320ac5bc	8.077617e-09
86	0xb3f5b90a	-1.144236e-07
87	0xb2a7ad8d	-1.952028e-08
88	0x2c86ca00	3.8309356e-12
89	0x32e69603	2.6843741e-08
90	0x3b619462	0.0034420718
91	0xbac685d1	-0.0015146082
92	0xbc2a3ab1	-0.01038997
93	0xbb8da61b	-0.00432278
94	0xbb1a18c6	-0.0023513301
95	0xb4c9573c	-3.750264e-07
96	0x354006c8	7.153544e-07
97	0xba5de6c6	-0.0008464869
98	0xb24aaa8c	-1.1796725e-08
99	0xb18b33f6	-4.0513397e-09
100	0xb37d51c5	-5.8980522e-08
101	0x336f7c76	5.575972e-08
102	0xaff18a4c	-4.393591e-10
103	0x35137f97	5.4947435e-07
104	0xb401d8be	-1.2092912e-07
105	0x349b520a	2.893069e-07
106	0x325722ea	1.2522586e-08
107	0xb2a5b699	-1.9291564e-08
108	0xb38e5078	-6.6270275e-08
109	0x341be6e9	1.4519505e-07
110	0xb285b002	-1.5563277e-08
111	0x31632596	3.3054213e-09
112	0x32b044f2	2.052045e-08
113	0xb3d36ee0	-9.845621e-08
114	0x3657b1d7	3.2141013e-06
115	0x3248c54b	1.1686391e-08
116	0xb1e5215a	-6.668569e-09
117	0xb48bfbf7	-2.6074096e-07
118	0x3794ea41	1.7752058e-05
119	0x355001e0	7.7488767e-07
120	0x32d6ff6f	2.5029037e-08
121	0x33f9a855	1.16255855e-07
122	0x34aad159	3.1817288e-07
123	0x3acad2f0	0.0015474241
124	0x31c72883	5.796268e-09
125	0xb33aff92	-4.353894e-08
126	0x39e57125	0.00043762583
127	0xaf57ba4c	-1.9620322e-10
128	0x34f58bec	4.5736613e-07
129	0x33878e8a	6.312355e-08
130	0x32b74743	2.133641e-08
131	0xb402d44d	-1.2184428e-07
132	0x33c3d65c	9.119387e-08
133	0x31048f5a	1.9290014e-09
134	0xb2bbb393	-2.1851326e-08
135	0x33da91f8	1.01779676e-07
136	0xb2cc0cf9	-2.3754625e-08
137	0x3388e863	6.3752644e-08
138	0x303c06f4	6.840388e-10
139	0xb44c4edc	-1.902767e-07
140	0x35002c18	4.774788e-07
141	0x33b30d7e	8.337791e-08
142	0xb1b47300	-5.2517635e-09
143	0xb1f706f9	-7.189439e-09
144	0xb3ab1e71	-7.968345e-08
145	0xb235e723	-1.0588141e-08
146	0x32456240	1.1489249e-08
147	0x30f4f75b	1.7823639e-09
148	0xb229cbcd	-9.883434e-09
149	0x3545b17e	7.3646504e-07
150	0xb44ada2a	-1.8892084e-07
151	0xb1c45f0e	-5.7151572e-09
152	0xb02d44d2	-6.3034833e-10
153	0xb34cc15c	-4.767331e-08
154	0xb3a6f65f	-7.774792e-08
155	0x32c49f80	2.2889935e-08
156	0x3141116a	2.8095095e-09
157	0xb4e96d8e	-4.3479344e-07
158	0x340fe604	1.3401592e-07
159	0xb60dd910	-2.1136984e-06
160	0x337d941f	5.9040868e-08
161	0xb22ec50f	-1.0172939e-08
162	0xb21a3f66	-8.978395e-09
163	0xb1a048e4	-4.6648996e-09
164	0xb40a7917	-1.2896304e-07
165	0xb5d7d54c	-1.6080826e-06
166	0x381b6111	3.704528e-05
167	0xb193ec4e	-4.305128e-09
168	0xb4b300cf	-3.3341937e-07
169	0xb69e65c1	-4.7206127e-06
170	0x319d9dc4	4.5872373e-09
171	0xb92d6dce	-0.00016539471
172	0xb2096b41	-7.998836e-09
173	0x3099bcf8	1.1185923e-09
174	0xb0da392a	-1.5877835e-09
175	0xb4272005	-1.5564736e-07
176	0xb4a2e215	-3.0339348e-07
177	0xb629a3ae	-2.5278237e-06
178	0x38200e44	3.816026e-05
179	0xb4c71493	-3.7081608e-07
180	0x359cfb18	1.1695984e-06
181	0xb38e5d1f	-6.629329e-08
182	0x3a875ed3	0.0010327942
183	0xb3d8816a	-1.0081824e-07
184	0x3816aa65	3.592148e-05
185	0xb5de0ce8	-1.6544045e-06
186	0xb50ec4ed	-5.3185687e-07
187	0x331144b2	3.382292e-08
188	0x320d583e	8.227344e-09
189	0x3448fe76	1.8719024e-07
190	0xb416cb07	-1.40437e-07
191	0x33864164	6.251756e-08
192	0xb31c337b	-3.63684e-08
193	0x34c72f5e	3.7101103e-07
194	0xb2effd06	-2.7938324e-08
195	0x346aa7e2	2.1854024e-07
196	0xb3597a57	-5.0635517e-08
197	0x3285f08b	1.5592624e-08
198	0xb218003d	-8.847619e-09
199	0x334334ff	4.5450175e-08
200	0xb1d1451c	-6.0905574e-09
201	0xb2235279	-9.506601e-09
202	0xb44434f2	-1.8273184e-07
203	0xb3120a02	-3.4002376e-08
204	0xb40dab32	-1.3193929e-07
205	0xb401dc85	-1.2094286e-07
206	0x349c76dc	2.9143746e-07
207	0x340ee10b	1.3306651e-07
208	0xb2cb79b9	-2.3687663e-08
209	0xb65a818c	-3.2559938e-06
210	0xb64a232b	-3.0120816e-06
211	0x34e66693	4.291547e-07
212	0x3645660f	2.9414693e-06
213	0xb9ae3096	-0.00033224066
214	0x378dd85f	1.6909265e-05
215	0x3407d847	1.2651536e-07
216	0xb5125348	-5.451043e-07
217	0xb28d0cc2	-1.6420362e-08
218	0x315a7b49	3.1793255e-09
219	0x362c8583	2.5707711e-06
220	0xb42c53dc	-1.6049256e-07
221	0xb50dd622	-5.28382e-07
222	0xb5145af5	-5.5266656e-07
223	0x31a102c7	4.6860325e-09
224	0x3331b0a2	4.137167e-08
225	0x32c8c170	2.337103e-08
226	0x335ce7c0	5.1433517e-08
227	0xb283be0d	-1.5336832e-08
228	0x31713365	3.509933e-09
229	0xb3cb634c	-9.470986e-08
230	0x31ef32b9	6.961582e-09
231	0x35bc5a25	1.4033327e-06
232	0x326796a1	1.3480219e-08
233	0xb23b9c30	-1.09203455e-08
234	0x33ed5d4c	1.1053143e-07
235	0x34235ad0	1.5213595e-07
236	0x31cfe69e	6.050711e-09
237	0x315b7a20	3.1938114e-09
238	0xb4d629ce	-3.9891023e-07
239	0x364f6766	3.090559e-06
240	0x3631b8d9	2.648265e-06
241	0x32a60438	1.9326862e-08
242	0xb3987bbc	-7.100559e-08
243	0xb349a648	-4.695019e-08
244	0x32391ed8	1.077543e-08
245	0xb16c62df	-3.4398722e-09
246	0x308454f0	9.628405e-10
247	0xb25c6985	-1.2829678e-08
248	0xb4232bc5	-1.5196481e-07
249	0xb3030e81	-3.0514006e-08
250	0xb2da03b4	-2.5380224e-08
251	0x321aa477	9.001375e-09
252	0x323c6d08	1.0967831e-08
253	0x33f9715b	1.1615585e-07
254	0xb290179f	-1.6774548e-08
255	0xb25aed3e	-1.2743213e-08

bias f4 [30]
0	0x3097554e	1.1010941e-09
1	0xb1113660	-2.1131186e-09
2	0x2d680a80	1.3190005e-11
3	0x31240f7f	2.387395e-09
4	0x304cd010	7.451044e-10
5	0x312e7e81	2.5392242e-09
6	0x30439a01	7.115944e-10
7	0x30c789e3	1.4518345e-09
8	0xb0fd56fd	-1.8432896e-09
9	0xb0643aec	-8.302965e-10
10	0xb079fcfb	-9.094518e-10
11	0x3069aeb6	8.5013185e-10
12	0x2ed75c50	9.793466e-11
13	0x311380cc	2.1464528e-09
14	0x30112824	5.2807736e-10
15	0x30da11d7	1.5866658e-09
16	0x30b00415	1.2806846e-09
17	0xb13d5122	-2.7549238e-09
18	0x31392c2f	2.6946159e-09
19	0x308141bd	9.404669e-10
20	0x311de745	2.2977968e-09
21	0xb138969a	-2.686113e-09
22	0x3068b26e	8.465467e-10
23	0x31532493	3.0725331e-09
24	0x30adfe70	1.2659722e-09
25	0xb0a3063e	-1.1861585e-09
26	0x30aaa8e2	1.2417127e-09
27	0xafa8bcc8	-3.069316e-10
28	0xb0b3e3c8	-1.3088703e-09
29	0xb0cebcb3	-1.5042104e-09

weight f4 [30]
0	0x31d7a450	6.2760037e-09
1	0x359fbd1c	1.1901461e-06
2	0xb4f5a5d0	-4.575545e-07
3	0x34b05d5c	3.2850483e-07
4	0xb50a8b84	-5.161203e-07
5	0x34287f2c	1.5692484e-07
6	0x33242284	3.8215617e-08
7	0xb62e20bb	-2.5947072e-06
8	0x336e60df	5.5501797e-08
9	0x33892e41	6.387973e-08
10	0x363794eb	2.7355807e-06
11	0xb46c3394	-2.1997977e-07
12	0xb41d7388	-1.4663794e-07
13	0xb5fbe798	-1.876836e-06
14	0x345d49b5	2.0609043e-07
15	0xb40ade2c	-1.2933077e-07
16	0xb4f3a9f9	-4.5385949e-07
17	0x34fd8877	4.7224214e-07
18	0xb013f17a	-5.382145e-10
19	0x36410937	2.8764605e-06
20	0xb4be75e3	-3.5476032e-07
21	0xb488efdb	-2.5506492e-07
22	0x34d76a62	4.0124274e-07
23	0xb45cbfe4	-2.0558906e-07
24	0x364cd205	3.0520616e-06
25	0x34818240	2.4122892e-07
26	0xb67abb1c	-3.7361815e-06
27	0x3431f032	1.6571792e-07
28	0xb5129d23	-5.46179e-07
29	0x330a5d34	3.2215397e-08

bias f4 [30]
0	0xb5e51eb0	-1.7070761e-06
1	0x372ca744	1.02909435e-05
2	0x36ea0787	6.9746197e-06
3	0x348b9a7f	2.6003178e-07
4	0x380d8b30	3.3746648e-05
5	0xb5d51b6d	-1.5877719e-06
6	0xb9152a0a	-0.00014225408
7	0x39972667	0.00028829576
8	0xb5bd575f	-1.4107026e-06
9	0x37644f8a	1.3608378e-05
10	0xb86a5dd1	-5.587732e-05
11	0xb6572edc	-3.2064772e-06
12	0x37f96151	2.972843e-05
13	0x34678a7c	2.1563932e-07
14	0xb6fa7c39	-7.465042e-06
15	0x3513cdb4	5.5061105e-07
16	0x368b2f7b	4.1480503e-06
17	0xb72a8f72	-1.0166188e-05
18	0xb57b7a6e	-9.3682945e-07
19	0x37122216	8.710214e-06
20	0x3500b1ce	4.7942456e-07
21	0xb590f634	-1.0800491e-06
22	0xb6a3f52b	-4.88632e-06
23	0x38946629	7.076219e-05
24	0x35d72084	1.6028212e-06
25	0x362fb8d0	2.6184607e-06
26	0x3650d5c2	3.1118839e-06
27	0x37fb8fbf	2.9988469e-05
28	0xb4222606	-1.5101259e-07
29	0xb45f37f5	-2.078885e-07

running_mean f4 [30]
0	0xad20c56d	-9.138784e-12
1	0x30410c18	7.023018e-10
2	0x2fcb583e	3.6988185e-10
3	0x324e454f	1.2006537e-08
4	0xae5d9b9a	-5.0387784e-11
5	0x2f6b76a5	2.1415276e-10
6	0xaf0d5ff9	-1.2857972e-10
7	0xb02fffcb	-6.4028133e-10
8	0x2f40696e	1.7499754e-10
9	0x2e52f3de	4.796507e-11
10	0xb077db08	-9.016934e-10
11	0xaf260c8b	-1.5102068e-10
12	0xb00389a9	-4.785315e-10
13	0x3170b2bc	3.5026195e-09
14	0x2f55c940	1.9443736e-10
15	0xafb1bf23	-3.2331923e-10
16	0xaf2d9a16	-1.5789e-10
17	0xae2c7806	-3.9214874e-11
18	0x2e686cef	5.2847445e-11
19	0xaf1843f0	-1.3848456e-10
20	0x2f97a74f	2.758562e-10
21	0x2fa74bb0	3.0430902e-10
22	0xabe1b141	-1.6036409e-12
23	0xb0c8be42	-1.460599e-09
24	0xaf0a6c84	-1.258958e-10
25	0xae6516d3	-5.2088844e-11
26	0xb005e081	-4.870416e-10
27	0xae8c7c33	-6.388525e-11
28	0xafadbbae	-3.160187e-10
29	0x2eb64255	8.288185e-11

running_var f4 [30]
0	0x2652cb05	7.313353e-16
1	0x29d9c73c	9.6712975e-14
2	0x27745c03	3.3911682e-15
3	0x2a6a5adf	2.0814902e-13
4	0x27c90698	5.5795856e-15
5	0x290472ad	2.9409353e-14
6	0x27f672c2	6.8403137e-15
7	0x29d7309f	9.5563524e-14
8	0x280d9a89	7.860582e-15
9	0x27a96002	4.7011015e-15
10	0x294a2b18	4.4890388e-14
11	0x278d9a05	3.930235e-15
12	0x28893420	1.5232661e-14
13	0x299b353a	6.892616e-14
14	0x2875684b	1.3622847e-14
15	0x2807e276	7.543111e-15
16	0x27931152	4.0819475e-15
17	0x28b1d9a3	1.9745332e-14
18	0x29240999	3.642364e-14
19	0x28ebb130	2.6167084e-14
20	0x298d4dd1	6.275157e-14
21	0x2885568c	1.48035e-14
22	0x27dd5eb4	6.14425e-15
23	0x29fbc704	1.1181163e-13
24	0x285574db	1.1849214e-14
25	0x2859084c	1.2047719e-14
26	0x29b82095	8.1768935e-14
27	0x264a5491	7.0197437e-16
28	0x28dd4ca8	2.4569173e-14
29	0x266333ae	7.8826485e-16

weight f4 [3, 30, 1]
0	0x370ad415	8.27482e-06
1	0xba159107	-0.00057055097
2	0xb29c9cf2	-1.823216e-08
3	0x39724509	0.00023104636
4	0x343d89cf	1.7652131e-07
5	0xb3e3ad67	-1.0602053e-07
6	0xb22a1d66	-9.901987e-09
7	0xb56d0760	-8.830011e-07
8	0xb486cf56	-2.5110302e-07
9	0x350d2f57	5.259548e-07
10	0x34c4b900	3.664245e-07
11	0xbc2cccb4	-0.010546852
12	0x32ec48f6	2.7507195e-08
13	0x3721fd94	9.655389e-06
14	0xb8f79871	-0.00011806272
15	0xbb0f1ebb	-0.0021838385
16	0x354ab733	7.5517454e-07
17	0xb9ed33ec	-0.00045242847
18	0x33680836	5.4024177e-08
19	0xba034343	-0.0005007276
20	0x3b4c5a8a	0.0031181895
21	0x3a604e84	0.00085566216
22	0xb603d30b	-1.9643364e-06
23	0xb989faf6	-0.00026317657
24	0x39620c63	0.00021557654
25	0xb4c7491b	-3.711983e-07
26	0x3a9dccde	0.0012039205
27	0x33698d80	5.4378233e-08
28	0x32d875c6	2.5199267e-08
29	0xb5323164	-6.638204e-07
30	0x3b576ded	0.0032871917
31	0xbaa9930e	-0.0012937502
32	0x3a051565	0.00050767354
33	0xb3e29399	-1.0550793e-07
34	0x3c5863e5	0.01320741
35	0xb338ef06	-4.305823e-08
36	0xbb85e23d	-0.0040858076
37	0xbd0701d3	-0.032960724
38	0x32c8157c	2.3292834e-08
39	0x3375dc4a	5.724386e-08
40	0xbc92b6ae	-0.017909374
41	0xbcef8574	-0.02923844
42	0x3b153e16	0.0022772602
43	0x39a04270	0.00030567078
44	0xba4d74fc	-0.00078375614
45	0x36ce6c2d	6.1518717e-06
46	0x3c02ab0b	0.00797535
47	0xba2768db	-0.0006386169
48	0x3a207c31	0.00061220216
49	0xbd602488	-0.05472234
50	0x356a2f6f	8.724082e-07
51	0x3560f1f6	8.37986e-07
52	0xbae3cfc8	-0.0017380649
53	0xbba178df	-0.004927739
54	0x390d660a	0.0001348482
55	0xb3f7c0ac	-1.15368806e-07
56	0x3c254776	0.010087838
57	0xb53db8a0	-7.067665e-07
58	0x36667596	3.4341115e-06
59	0x3869c165	5.573164e-05
60	0x3be89bba	0.007098642
61	0xbd2d358d	-0.042287398
62	0x33b3f3be	8.3796735e-08
63	0x3688da16	4.0785044e-06
64	0xb5c89dcd	-1.4947087e-06
65	0xbb8b6a93	-0.004254648
66	0xbd41eced	-0.04734509
67	0xbd8577f7	-0.06517022
68	0x3c9ed9b5	0.01939092
69	0xbc1842b1	-0.009293244
70	0xb445536e	-1.8377406e-07
71	0x3c5bacba	0.01340788
72	0xbb647154	-0.0034857588
73	0xbbc6e6ff	-0.0060700173
74	0x3cab2b3d	0.020894641
75	0xbbd489da	-0.0064861597
76	0x364e7290	3.0763076e-06
77	0x3d49fffa	0.049316384
78	0x350c57e6	5.2281973e-07
79	0xb4462131	-1.8452262e-07
80	0xbd4b47c1	-0.049628977
81	0x3d4ce936	0.050027095
82	0x3d88fe9b	0.06689187
83	0xbd8e9a29	-0.069629975
84	0xb38b94f5	-6.499787e-08
85	0xbb5b5e89	-0.0033473095
86	0xba36deeb	-0.00069759664
87	0x3dafe6c0	0.08588934
88	0x3c73985c	0.014867868
89	0xb4954e16	-2.7810228e-07

bias f4 [3]
0	0x307b0bff	9.1330316e-10
1	0xb36b61b5	-5.4804065e-08
2	0x32e23f94	2.6338775e-08

weight f4 [3]
0	0x3e15e688	0.14638722
1	0x3dc1364f	0.09434187
2	0x3dba2e22	0.090908304

bias f4 [3]
0	0xbe2b38b0	-0.16720843
1	0xbe461bee	-0.19346592
2	0xbe3a6b30	-0.18204951

running_mean f4 [3]
0	0xb4040eaa	-1.2298793e-07
1	0xb75040bd	-1.2412839e-05
2	0xb7e9e197	-2.7880813e-05

running_var f4 [3]
0	0x2afac792	4.45474e-13
1	0x2e4adec6	4.6127345e-11
2	0x2f00b05c	1.1704188e-10

weight f4 [1, 2]
0	0x3cb7b0ad	0.022423113
1	0x3a9438c5	0.0011308423
