experiments_generated_data/obs_5_pred_3/models/tcn_lstm.pt (torch, 736868 bytes, 51 tensors)

weight f4 [6, 5, 1]
0	0xb2b10b86	-2.0610752e-08
1	0x33fde0cb	1.182212e-07
2	0x3312c4ee	3.417238e-08
3	0x32646fa2	1.3296729e-08
4	0x32433458	1.13623955e-08
5	0xb3b2442d	-8.301172e-08
6	0xb24d3260	-1.1944024e-08
7	0xb2f9cd11	-2.9080669e-08
8	0xb113439f	-2.1429754e-09
9	0x33308e21	4.110746e-08
10	0x3329cf22	3.9536765e-08
11	0xb3b595f4	-8.4557456e-08
12	0x330c004a	3.2596553e-08
13	0x311e44dc	2.3031168e-09
14	0x32229030	9.4624255e-09
15	0xb4746124	-2.275961e-07
16	0x34e79f06	4.3142808e-07
17	0xb4b221bd	-3.3179631e-07
18	0xb4b80c44	-3.4281595e-07
19	0x32d914cc	2.5271582e-08
20	0xb506c6a4	-5.020795e-07
21	0x32afff2e	2.0488724e-08
22	0x313fa546	2.7888105e-09
23	0xb4083aa7	-1.2687325e-07
24	0xb52d0ba9	-6.446449e-07
25	0x31ed46b0	6.905644e-09
26	0xb3217890	-3.7595385e-08
27	0xb35981fc	-5.064247e-08
28	0x33683609	5.4065854e-08
29	0x32ba0877	2.16571e-08

bias f4 [6]
0	0xb1486c7b	-2.9165494e-09
1	0xb224cca8	-9.59259e-09
2	0xaf9ffc10	-2.9101033e-10
3	0x300d3144	5.136551e-10
4	0x324baa08	1.1854816e-08
5	0xb1993337	-4.4587085e-09

weight f4 [6]
0	0xb44c83b4	-1.9046894e-07
1	0xb284ecc9	-1.54745e-08
2	0xb32c5b05	-4.0129652e-08
3	0xb4e51934	-4.2672912e-07
4	0xb2854e5b	-1.551887e-08
5	0x320f1455	8.3283185e-09

bias f4 [6]
0	0xb33f4d0c	-4.4540727e-08
1	0x340ed340	1.3301633e-07
2	0xb2c23812	-2.261007e-08
3	0x323e3514	1.1071524e-08
4	0xb2e80d59	-2.7014424e-08
5	0xb33f5db2	-4.455587e-08

running_mean f4 [6]
0	0x33407bef	4.48162e-08
1	0xb30a1544	-3.214997e-08
2	0x301e99d9	5.7698696e-10
3	0xb4217846	-1.5038049e-07
4	0xb4eac190	-4.3726732e-07
5	0xb189e850	-4.0136356e-09

running_var f4 [6]
0	0x29877aee	6.016529e-14
1	0x288443af	1.4684297e-14
2	0x289fe5e0	1.7752238e-14
3	0x2bb370e2	1.2750046e-12
4	0x2c10ba55	2.0567066e-12
5	0x288d90a9	1.5716881e-14

weight f4 [18, 6, 1]
0	0x328e2d0e	1.6551464e-08
1	0x33050570	3.097142e-08
2	0x327dc101	1.4770422e-08
3	0xb2e0c3e2	-2.616611e-08
4	0xb3532eda	-4.9169877e-08
5	0xb28812e5	-1.5841076e-08
6	0xb28dc563	-1.6504321e-08
7	0xb0fec2f8	-1.8536346e-09
8	0x32069e66	7.835842e-09
9	0x32558863	1.24292425e-08
10	0x3063e350	8.290515e-10
11	0x3297c10c	1.7666501e-08
12	0x3333389d	4.1728175e-08
13	0xb27604d6	-1.4320184e-08
14	0x318bcfbc	4.069049e-09
15	0xb37d4dbf	-5.8976863e-08
16	0x335853dd	5.0367692e-08
17	0x339c6995	7.283521e-08
18	0xb3883a0f	-6.343554e-08
19	0xb2be967e	-2.2187347e-08
20	0x31bb4f54	5.451435e-09
21	0xb30d1873	-3.2851357e-08
22	0x332fb33e	4.0908382e-08
23	0xb261fbfc	-1.3154018e-08
24	0x326595c0	1.3363604e-08
25	0x31f2d4a8	7.067303e-09
26	0x328bb2f8	1.6263115e-08
27	0x31959a1a	4.35399e-09
28	0x32a644cd	1.935623e-08
29	0x320fdaec	8.373473e-09
30	0xb34541f4	-4.592762e-08
31	0x307cb130	9.1928865e-10
32	0xb2a0cfac	-1.872089e-08
33	0xb2ade06c	-2.0241906e-08
34	0xb2cb6d8e	-2.368213e-08
35	0xb342a8bc	-4.5322608e-08
36	0x32b0be68	2.0575683e-08
37	0xb277103a	-1.4380982e-08
38	0xb1d3959e	-6.1579177e-09
39	0xb0e19840	-1.6414177e-09
40	0xb12e9e14	-2.541019e-09
41	0x331e5034	3.6860186e-08
42	0x32d2e682	2.455204e-08
43	0x3322145e	3.7737088e-08
44	0xb2d8153a	-2.5155362e-08
45	0x32125f5a	8.519999e-09
46	0x3183ab45	3.832073e-09
47	0xb1673d17	-3.364965e-09
48	0x339a273a	7.178319e-08
49	0xb324d2ae	-3.8375838e-08
50	0x3253b25b	1.232237e-08
51	0x344e4fca	1.9214272e-07
52	0x32ee001a	2.7706893e-08
53	0x31c2f8ab	5.6744134e-09
54	0x34113bf9	1.3525995e-07
55	0xb270f4e1	-1.4025518e-08
56	0x310b918a	2.0309892e-09
57	0xb39737ff	-7.041671e-08
58	0x32aa839d	1.9850456e-08
59	0x32ccdb01	2.3848317e-08
60	0xb3c042c4	-8.952841e-08
61	0x31a72d83	4.8655138e-09
62	0x324fd06a	1.2096374e-08
63	0xb434e93d	-1.6848658e-07
64	0xb28f92e0	-1.6714182e-08
65	0x32bd7382	2.2055023e-08
66	0x33d26166	9.796604e-08
67	0x319f4da1	4.6363344e-09
68	0x327988b5	1.4524791e-08
69	0xb3786382	-5.78325e-08
70	0xb45d9c64	-2.0639123e-07
71	0x32f564dd	2.8567621e-08
72	0x372e721f	1.0397779e-05
73	0xb270f410	-1.4025332e-08
74	0xb30232af	-3.031408e-08
75	0x387e5483	6.0637027e-05
76	0xb35ff6a5	-5.2145555e-08
77	0xb39bb452	-7.25055e-08
78	0xb202aaa2	-7.605793e-09
79	0xb08195e1	-9.428583e-10
80	0x331eb477	3.6951374e-08
81	0x3268aeb4	1.35439e-08
82	0x31917fa4	4.2345665e-09
83	0x33148164	3.4576615e-08
84	0xb0c69f70	-1.4451711e-09
85	0x323e1406	1.1064008e-08
86	0x32cd98c0	2.3934604e-08
87	0xb20df40d	-8.262771e-09
88	0xb1dee606	-6.487201e-09
89	0x328ff0f3	1.6756962e-08
90	0xb7062b93	-7.997168e-06
91	0x335bb83d	5.1157475e-08
92	0x31314f5e	2.5802005e-09
93	0xb472c3b7	-2.2609207e-07
94	0xb2ab94e4	-1.9974728e-08
95	0xb3292e82	-3.9390677e-08
96	0x3391404b	6.7637835e-08
97	0x33050ded	3.097914e-08
98	0x32d87b90	2.52019e-08
99	0x34735aae	2.2664128e-07
100	0x32a36332	1.9020806e-08
101	0x32827c98	1.519065e-08
102	0x33b0ae79	8.227375e-08
103	0x314517f4	2.8680889e-09
104	0xb277b9ce	-1.4419539e-08
105	0x34898819	2.5617263e-07
106	0xb215016d	-8.673266e-09
107	0xb3879857	-6.314138e-08

bias f4 [18]
0	0xb168cadc	-3.3875756e-09
1	0x31238a3c	2.37982e-09
2	0xb204b303	-7.724114e-09
3	0x31f37c2e	7.0863484e-09
4	0xb1103387	-2.0984048e-09
5	0x31524e0d	3.0603389e-09
6	0x32377df9	1.0680645e-08
7	0x31bca816	5.4906293e-09
8	0x321299c5	8.533282e-09
9	0xb1f84255	-7.225291e-09
10	0xb125f60a	-2.4150517e-09
11	0x2ee9ee80	1.06379794e-10
12	0xb0138b78	-5.3676485e-10
13	0xb19f22e9	-4.631478e-09
14	0xb1689996	-3.3847747e-09
15	0xb19b8c6c	-4.527058e-09
16	0x30f064c4	1.7490938e-09
17	0x32282960	9.788295e-09

weight f4 [18]
0	0xb3152786	-3.4727712e-08
1	0x3000c4d0	4.6845816e-10
2	0xb30f66d0	-3.338829e-08
3	0x31898455	4.002269e-09
4	0xb1fe7be6	-7.4064586e-09
5	0x31b03db3	5.1292885e-09
6	0x32fc5203	2.9373956e-08
7	0xb310ce05	-3.3714986e-08
8	0xb4915273	-2.7068344e-07
9	0x30b91b0c	1.3468209e-09
10	0xb43a9d6a	-1.7379867e-07
11	0xb1f341e6	-7.0797226e-09
12	0x34c5763a	3.678013e-07
13	0x31d0dac6	6.0784684e-09
14	0xb2824d36	-1.5169103e-08
15	0x32eafcc3	2.7356128e-08
16	0xb262fbea	-1.321221e-08
17	0x336e093d	5.5422095e-08

bias f4 [18]
0	0xb28f5c15	-1.6689265e-08
1	0x3267400a	1.34605305e-08
2	0xb3173105	-3.520201e-08
3	0xb2f2b1d1	-2.825337e-08
4	0xb1c7f680	-5.819686e-09
5	0xb28d09c6	-1.6419005e-08
6	0xb22346be	-9.503934e-09
7	0xb389b88e	-6.41313e-08
8	0x348ba736	2.601243e-07
9	0xb234cecb	-1.0524398e-08
10	0x329d5094	1.8313848e-08
11	0xb27706d4	-1.4378845e-08
12	0xb38186f5	-6.031579e-08
13	0xb32c2984	-4.008463e-08
14	0xb17d4d53	-3.68603e-09
15	0xb2194e51	-8.923579e-09
16	0xb1ab07c6	-4.9776387e-09
17	0xb358e4ca	-5.04995e-08

running_mean f4 [18]
0	0xb12c661b	-2.5087334e-09
1	0x30bbe1f0	1.3670256e-09
2	0xb1be6f0d	-5.542353e-09
3	0x31aba693	4.9956923e-09
4	0xb0cf7eab	-1.5097233e-09
5	0x311af6e9	2.2550302e-09
6	0x320832df	7.927809e-09
7	0x318d27ad	4.1081507e-09
8	0x31d992f2	6.332237e-09
9	0xb1aa6e6c	-4.9602047e-09
10	0xb0f308e0	-1.7683099e-09
11	0x30200ca5	5.822563e-10
12	0xafacb607	-3.1415956e-10
13	0xb14b85e9	-2.9616507e-09
14	0xb1258142	-2.4084135e-09
15	0xb1599151	-3.1660259e-09
16	0x30f5918f	1.7867466e-09
17	0x31f1d811	7.038587e-09

running_var f4 [18]
0	0x26b88b10	1.2805258e-15
1	0x26110a61	5.0321047e-16
2	0x273b7620	2.6015499e-15
3	0x27d62290	5.9434405e-15
4	0x2669af88	8.1076003e-16
5	0x276214a1	3.1374983e-15
6	0x2626ed0c	5.791408e-16
7	0x26204f23	5.56184e-16
8	0x27c7bfc3	5.5441504e-15
9	0x271ec24a	2.203223e-15
10	0x279e05ff	4.386031e-15
11	0x2761a142	3.131244e-15
12	0x28ce8c8b	2.2931545e-14
13	0x274a84d3	2.8105136e-15
14	0x2672c3d3	8.422601e-16
15	0x2893a338	1.6391063e-14
16	0x28381b71	1.0220002e-14
17	0x284ea7fc	1.1471723e-14

weight f4 [9, 18, 1]
0	0x2f8d7c45	2.573605e-10
1	0xb29caaa6	-1.8238392e-08
2	0x32c0f26b	2.246198e-08
3	0xb2064401	-7.815289e-09
4	0xb28179b4	-1.507292e-08
5	0xb3810c6a	-6.009289e-08
6	0xb02cb6b8	-6.2832894e-10
7	0x3089d3f1	1.0028299e-09
8	0xb31a7500	-3.596233e-08
9	0xb1eba477	-6.8580976e-09
10	0xb380163a	-5.9645075e-08
11	0xb25a9c6c	-1.2724836e-08
12	0x34173495	1.40821e-07
13	0x32e04adb	2.6111072e-08
14	0xb1d156a3	-6.09255e-09
15	0x3166acf6	3.3567722e-09
16	0xb2e0ca96	-2.6169158e-08
17	0x325be2e6	1.27990685e-08
18	0xb17ae572	-3.6510213e-09
19	0x31bf2c1c	5.5638463e-09
20	0x31c2962e	5.6632166e-09
21	0x328751ee	1.5753326e-08
22	0x2f2cc18c	1.571207e-10
23	0x33558cc1	4.9720942e-08
24	0x32a57864	1.9263275e-08
25	0x3202d94e	7.616405e-09
26	0x32259650	9.638441e-09
27	0x3202db79	7.616898e-09
28	0x3377adec	5.766735e-08
29	0x318fe576	4.1879344e-09
30	0xb38e77b3	-6.6341634e-08
31	0xb2b3ef66	-2.0947208e-08
32	0xb2a05d51	-1.8668887e-08
33	0xb2b10fa8	-2.0612632e-08
34	0xb36e1897	-5.5436058e-08
35	0x31f901c1	7.247053e-09
36	0x33002d75	2.9843665e-08
37	0x3343456c	4.5465114e-08
38	0x338416ef	6.1509006e-08
39	0xb0c10c52	-1.40461e-09
40	0xb23eb8cc	-1.11014735e-08
41	0xb2ce9ffe	-2.4054312e-08
42	0xb105b812	-1.945868e-09
43	0xb3465f2e	-4.6187033e-08
44	0x32e942fb	2.715523e-08
45	0xb239ffd0	-1.0826582e-08
46	0xb2a1b81a	-1.8826587e-08
47	0xb24d5a5d	-1.1953117e-08
48	0x334f421b	4.8256066e-08
49	0xb39db8fc	-7.344531e-08
50	0x3284d56c	1.5463876e-08
51	0xb3155875	-3.4772217e-08
52	0x31b45a36	5.2489453e-09
53	0x33bf2eb3	8.902625e-08
54	0xb30de8cd	-3.3040852e-08
55	0x3242630c	1.1314807e-08
56	0x32d2f3d8	2.4558105e-08
57	0xb2f42022	-2.841995e-08
58	0xb3625399	-5.2695757e-08
59	0x32ddf122	2.583744e-08
60	0xb426498f	-1.5486715e-07
61	0xb2a3ce06	-1.9069386e-08
62	0x34c0e55f	3.5929676e-07
63	0xb3a5a802	-7.713972e-08
64	0x34cb0bef	3.782038e-07
65	0x33d5ff3f	9.9650144e-08
66	0xb21f652c	-9.278022e-09
67	0xb2e18f2b	-2.6258553e-08
68	0x31a52cdc	4.807232e-09
69	0xb314c70d	-3.463997e-08
70	0x3304e41a	3.0941102e-08
71	0xb3b7c23e	-8.556934e-08
72	0xb20472b2	-7.70949e-09
73	0xb30501b7	-3.0968035e-08
74	0x32f992ef	2.9054233e-08
75	0x3395333d	6.9476734e-08
76	0x33726d02	5.6444158e-08
77	0x320fb851	8.365604e-09
78	0xb0646ea0	-8.3103124e-10
79	0x3421599d	1.5026895e-07
80	0xb9923c0a	-0.00027892023
81	0xb38adec0	-6.466644e-08
82	0xb9000a83	-0.00012210947
83	0x340b365a	1.2965157e-07
84	0x33370665	4.2613824e-08
85	0xb34b6944	-4.736036e-08
86	0xb2a5c4d0	-1.9298028e-08
87	0xb32a2023	-3.9610438e-08
88	0x33a3e8b3	7.632607e-08
89	0x3704d72a	7.91791e-06
90	0xb1917310	-4.2331365e-09
91	0xb219da60	-8.955425e-09
92	0xb2258f5e	-9.636862e-09
93	0xb321a4d7	-3.7635655e-08
94	0x31322ad4	2.5926754e-09
95	0xb20eb1bc	-8.3059e-09
96	0xb2698178	-1.3591823e-08
97	0x3494b1c4	2.769649e-07
98	0x35e4ae33	1.7038022e-06
99	0xb10374ca	-1.9129396e-09
100	0x32e040ae	2.6106445e-08
101	0xb30b6066	-3.2451133e-08
102	0x35ff2c68	1.9011904e-06
103	0xb280f650	-1.5013171e-08
104	0x31ddae4e	6.4517627e-09
105	0x340c0d9f	1.3043471e-07
106	0xb48811db	-2.5344966e-07
107	0x358481ae	9.872508e-07
108	0xb216e001	-8.782082e-09
109	0x3280f95c	1.5014557e-08
110	0xb2fe0bac	-2.95748e-08
111	0x3150a807	3.0363496e-09
112	0xb1c8f15a	-5.8482046e-09
113	0x3335f3c0	4.2364036e-08
114	0xb273d49c	-1.4192803e-08
115	0xb235eec7	-1.0589878e-08
116	0xb32c4e14	-4.0117882e-08
117	0xb20a9781	-8.067105e-09
118	0xb1983d15	-4.4307265e-09
119	0xb21d89b5	-9.169914e-09
120	0xb2b941ec	-2.1566812e-08
121	0xb30179dd	-3.0145987e-08
122	0xb2b8f66b	-2.1532477e-08
123	0x326f86b4	1.3942259e-08
124	0xb2bf2a5b	-2.2254588e-08
125	0x331d28dc	3.6591572e-08
126	0x338b3f13	6.484165e-08
127	0xb2e4b721	-2.662597e-08
128	0x3314ef3c	3.4676518e-08
129	0xb2d906b3	-2.5265171e-08
130	0x332f1701	4.0766285e-08
131	0x329674ac	1.7515355e-08
132	0xb27aec74	-1.46056784e-08
133	0xb24035aa	-1.1188073e-08
134	0x3339cd92	4.3260634e-08
135	0xb28e1ded	-1.6544584e-08
136	0x33310049	4.1211283e-08
137	0x34029266	1.2160453e-07
138	0x34e27fca	4.218876e-07
139	0x3224d15a	9.593657e-09
140	0xb2028fa0	-7.5996525e-09
141	0x337965f0	5.8067542e-08
142	0x330ad753	3.2326465e-08
143	0x3326d2ca	3.88416e-08
144	0x32cbf02f	2.3741533e-08
145	0xae76bb00	-5.6100014e-11
146	0x33059acd	3.1107266e-08
147	0xb2989af8	-1.77656e-08
148	0xb2985e54	-1.7738024e-08
149	0xb3a8c9f7	-7.859847e-08
150	0xb1b8e92c	-5.3816134e-09
151	0xb369f596	-5.44729e-08
152	0x3347144f	4.635177e-08
153	0x3118c8ac	2.223298e-09
154	0xb52077ac	-5.977879e-07
155	0x33a2c8e8	7.5802575e-08
156	0x32911fde	1.6894713e-08
157	0x336bf34a	5.493647e-08
158	0xb19fd206	-4.651386e-09
159	0xb1e26778	-6.5892287e-09
160	0xb1a94327	-4.9261817e-09
161	0xb3b2caca	-8.325658e-08

bias f4 [9]
0	0x31188c4c	2.219866e-09
1	0x31da855e	6.359797e-09
2	0xb18cc241	-4.0966204e-09
3	0x312dac70	2.5272833e-09
4	0xb01429d0	-5.3901505e-10
5	0xb14ad22e	-2.9514342e-09
6	0x31284105	2.4484177e-09
7	0xae128c00	-3.33209e-11
8	0x312aca26	2.4853164e-09

weight f4 [9]
0	0x3411b815	1.3571146e-07
1	0x327fa9eb	1.4881588e-08
2	0x334c892f	4.762222e-08
3	0x32aa29d3	1.9809624e-08
4	0xb313c705	-3.4407112e-08
5	0x34d7275a	4.0075503e-07
6	0xb2259513	-9.63816e-09
7	0x317847e4	3.6129615e-09
8	0x332bef0a	4.0031445e-08

bias f4 [9]
0	0xb28d78ad	-1.6469437e-08
1	0xb0ac0ef0	-1.2518893e-09
2	0x3358a6fc	5.044329e-08
3	0x32e1694e	2.6241334e-08
4	0xb2445525	-1.1428061e-08
5	0x322e82a8	1.0157841e-08
6	0xb3226887	-3.781363e-08
7	0xb344ce34	-4.5822347e-08
8	0x32a6fc1c	1.943959e-08

running_mean f4 [9]
0	0x30e0b097	1.6348335e-09
1	0x31a3070a	4.7447246e-09
2	0xb1521324	-3.0569902e-09
3	0x30ddbf5a	1.6134252e-09
4	0xaff403dc	-4.4386084e-10
5	0xb111c85b	-2.1214166e-09
6	0x30fbbe56	1.831675e-09
7	0x2d72b798	1.3796873e-11
8	0x30f9bef2	1.8171404e-09

running_var f4 [9]
0	0x28a0cfad	1.7853633e-14
1	0x27be7b99	5.28696e-15
2	0x2806987a	7.471557e-15
3	0x288f64c4	1.591989e-14
4	0x28be99c4	2.1160923e-14
5	0x29297000	3.7622683e-14
6	0x27ea5adf	6.504657e-15
7	0x28c23962	2.1563213e-14
8	0x28a8e69a	1.8751754e-14

weight f4 [6, 9, 1]
0	0x331a3036	3.5899767e-08
1	0xb305c455	-3.114504e-08
2	0xb2bed379	-2.2215078e-08
3	0xb1ef945d	-6.9726824e-09
4	0xb2b93293	-2.1559833e-08
5	0x3071455c	8.7773855e-10
6	0xb0b4b098	-1.3146915e-09
7	0xb2dcef79	-2.572027e-08
8	0xb314e3cb	-3.466611e-08
9	0xb4d7ca70	-4.0194163e-07
10	0xb4080395	-1.266729e-07
11	0x332c51d3	4.012129e-08
12	0xb5596e9f	-8.0999774e-07
13	0xb2893830	-1.597445e-08
14	0x3348f364	4.678749e-08
15	0xb12f0715	-2.5469877e-09
16	0xb385dac2	-6.233087e-08
17	0xb437d856	-1.7121906e-07
18	0x336165d3	5.2479503e-08
19	0x3368b7fc	5.4184042e-08
20	0x32ba1dbc	2.1666771e-08
21	0x32b58cea	2.1135254e-08
22	0xb201c64d	-7.553877e-09
23	0xb4208c7f	-1.4952273e-07
24	0xb33f6eea	-4.457153e-08
25	0xb305d4b8	-3.1159942e-08
26	0xb18ed0f4	-4.156499e-09
27	0xb37d7b1f	-5.901813e-08
28	0xb340f419	-4.492549e-08
29	0x32ee4454	2.7737919e-08
30	0x32208c18	9.345079e-09
31	0xb0d55628	-1.5522277e-09
32	0xb3ecc3d1	-1.1025225e-07
33	0x3320f548	3.7475985e-08
34	0xb3766cff	-5.737547e-08
35	0xb34f9dd2	-4.833948e-08
36	0x33efe510	1.1170971e-07
37	0x30dc9d7e	1.6051869e-09
38	0xb2ca19f6	-2.35277e-08
39	0xb3a2504f	-7.558321e-08
40	0x320c3e58	8.163248e-09
41	0x339bbe9d	7.252422e-08
42	0x3252d9c2	1.2273121e-08
43	0xb272a4e3	-1.4123745e-08
44	0x32c31a6d	2.2713005e-08
45	0x3c57827d	0.013153669
46	0xb8641989	-5.4383218e-05
47	0xb292823f	-1.7055866e-08
48	0x3b42f8ab	0.0029750268
49	0x31673a2e	3.3647996e-09
50	0xb738c942	-1.1014114e-05
51	0x32ad928b	2.020649e-08
52	0xbc3abcac	-0.011397522
53	0x3708fff2	8.165824e-06

bias f4 [6]
0	0x30465464	7.2151907e-10
1	0x315db280	3.2261198e-09
2	0xb1333d50	-2.608278e-09
3	0xb17a66a8	-3.6438141e-09
4	0x311382b4	2.1465612e-09
5	0xb10e64de	-2.0721056e-09

weight f4 [6]
0	0x32a01acf	1.8638643e-08
1	0xb353f58d	-4.9350593e-08
2	0x3443cad4	1.8234579e-07
3	0xb3b0141c	-8.1992965e-08
4	0xb24406b2	-1.1410224e-08
5	0xb41817f8	-1.4164823e-07

bias f4 [6]
0	0xb3513ebe	-4.8718668e-08
1	0x33e693c2	1.07370866e-07
2	0x316e338e	3.4662864e-09
3	0xb2c5afd3	-2.3013774e-08
4	0x329833b1	1.7718635e-08
5	0xb24d803e	-1.1961729e-08

running_mean f4 [6]
0	0x2fc0432f	3.4972333e-10
1	0x31259486	2.4095086e-09
2	0xb0fb0a04	-1.82655e-09
3	0xb13beaf9	-2.7345648e-09
4	0x30d52464	1.5508133e-09
5	0xb0c244d1	-1.4134917e-09

running_var f4 [6]
0	0x27674808	3.2096738e-15
1	0x284f2964	1.14997835e-14
2	0x27808804	3.5674605e-15
3	0x285eeff0	1.2375504e-14
4	0x2853e65d	1.1762805e-14
5	0x29e117cc	9.996135e-14

weight f4 [27, 6, 1]
0	0x32205ffa	9.335048e-09
1	0x32bac0e9	2.1740975e-08
2	0xb2090ebe	-7.9778015e-09
3	0x3141ccb0	2.8201548e-09
4	0x32bd4f2c	2.2038499e-08
5	0x30b3e41c	1.3088797e-09
6	0x31095048	1.9981758e-09
7	0x336bee18	5.4931746e-08
8	0x31d2c048	6.1336642e-09
9	0xb13689ed	-2.6562887e-09
10	0xb37d77f5	-5.9015253e-08
11	0x329e3ac4	1.8420344e-08
12	0x330b96f6	3.2500758e-08
13	0xb3016070	-3.0122862e-08
14	0xb2f12508	-2.8072932e-08
15	0xb18e1a22	-4.135715e-09
16	0xb3b11d13	-8.247493e-08
17	0xb334a956	-4.2063526e-08
18	0x3329a7c1	3.950095e-08
19	0xb2819a29	-1.508768e-08
20	0xb0f76b7b	-1.8002163e-09
21	0xb3fbb437	-1.1720879e-07
22	0x31bbad47	5.4621156e-09
23	0x330b967a	3.2500317e-08
24	0x31e22d21	6.5825962e-09
25	0xb367920f	-5.3916718e-08
26	0x3295ca16	1.7437781e-08
27	0x32a3f84e	1.9088613e-08
28	0x32680c6e	1.35070035e-08
29	0x33a91e89	7.87523e-08
30	0xb2c0a3b6	-2.2426189e-08
31	0xb1e55815	-6.674791e-09
32	0xb4038368	-1.2248131e-07
33	0x332de69d	4.0489443e-08
34	0xb1f67b74	-7.1735773e-09
35	0xb281b15e	-1.5098234e-08
36	0xb0a884f2	-1.2261394e-09
37	0x30c5d228	1.4393366e-09
38	0xb205965a	-7.775805e-09
39	0xb1495d94	-2.9302543e-09
40	0xb174219d	-3.552578e-09
41	0x3274b714	1.4244296e-08
42	0xb2f039c0	-2.7965939e-08
43	0x32d98355	2.5321848e-08
44	0x33759274	5.7176706e-08
45	0xb26ad5aa	-1.3669174e-08
46	0x334f3106	4.824053e-08
47	0x335ff3e4	5.214305e-08
48	0xb15e3ee6	-3.2341005e-09
49	0x3302d299	3.045952e-08
50	0xb1f634a1	-7.1655255e-09
51	0xb1ed14bf	-6.8999664e-09
52	0x320087d0	7.481461e-09
53	0xb28835b0	-1.5856898e-08
54	0xb21ef23e	-9.25189e-09
55	0x314a412e	2.943192e-09
56	0xb2c85a80	-2.3324219e-08
57	0x32b79cd4	2.1375321e-08
58	0x325790ae	1.25475434e-08
59	0x32d55beb	2.4838263e-08
60	0x2fab0b20	3.1112624e-10
61	0x322adadc	9.945065e-09
62	0x317707e0	3.5947707e-09
63	0x31d9efee	6.342808e-09
64	0xb21c16b2	-9.085555e-09
65	0xb2ac9c68	-2.009456e-08
66	0xb175bc38	-3.5759182e-09
67	0xb2b115d6	-2.0615442e-08
68	0xb2a0080b	-1.8630109e-08
69	0x32bac6b8	2.1743617e-08
70	0x329dee90	1.8385691e-08
71	0xb3844d8d	-6.1608354e-08
72	0xb2696431	-1.3585166e-08
73	0xb30bd455	-3.2556574e-08
74	0xb42246bc	-1.5113159e-07
75	0x3410e3f8	1.349398e-07
76	0x32194cd5	8.923242e-09
77	0x34a5b2a2	3.0863617e-07
78	0xb10c6ae6	-2.0433446e-09
79	0xb28dad2e	-1.6493313e-08
80	0xb356d20b	-5.001679e-08
81	0xb2bf96ce	-2.2303905e-08
82	0x31bc7131	5.4843885e-09
83	0xb287de49	-1.5817152e-08
84	0x319cbede	4.5618966e-09
85	0x31169cc1	2.1916977e-09
86	0xb2c37538	-2.2754293e-08
87	0x330ed29e	3.3253507e-08
88	0x328f69a3	1.6695429e-08
89	0xb30fa7a7	-3.344726e-08
90	0x32db1a8a	2.5507024e-08
91	0xb305182e	-3.0988467e-08
92	0xb1c66458	-5.773966e-09
93	0xb34964b7	-4.689056e-08
94	0xb30ddc51	-3.3029497e-08
95	0x32fe0a3c	2.9574146e-08
96	0xb22fbfd1	-1.0229955e-08
97	0xb3573f79	-5.0116316e-08
98	0x323bda17	1.09344205e-08
99	0x338d0fa4	6.568669e-08
100	0xb3636862	-5.294749e-08
101	0x32f3d871	2.838735e-08
102	0xb2324ab4	-1.0377949e-08
103	0x395e6715	0.00021209971
104	0xb437e75b	-1.712737e-07
105	0xb2ad982e	-2.0209054e-08
106	0xb1f36969	-7.0842145e-09
107	0xb3961a6c	-6.9897254e-08
108	0xb102482e	-1.895852e-09
109	0x31fbfb14	7.3336057e-09
110	0x334be196	4.746979e-08
111	0x3300fe9d	3.0033892e-08
112	0x3160005b	3.2596492e-09
113	0xb31807ff	-3.539753e-08
114	0x329661dd	1.7506801e-08
115	0x3263c9ce	1.3259024e-08
116	0xb0e8cf90	-1.6939214e-09
117	0xb2aee64c	-2.0360993e-08
118	0x2f8f212a	2.6035113e-10
119	0x31f99b3d	7.2645023e-09
120	0xb32cee63	-4.0263682e-08
121	0xb348233d	-4.6598178e-08
122	0xb2ba7145	-2.1704759e-08
123	0xb22a1757	-9.900609e-09
124	0x32a485e6	1.9153003e-08
125	0x33cda651	9.576309e-08
126	0xb142cf7c	-2.8348657e-09
127	0xb1487d50	-2.9175062e-09
128	0x31d62958	6.23292e-09
129	0xb1f849e2	-7.2261495e-09
130	0x32d8a0c7	2.5218823e-08
131	0x2f11e080	1.3267432e-10
132	0xb2a33d2d	-1.9003517e-08
133	0x3242a57d	1.1329914e-08
134	0x32d9826f	2.532144e-08
135	0xb32927ba	-3.938451e-08
136	0x329dfbe9	1.8391761e-08
137	0x32c81906	2.3294444e-08
138	0x3204e6c7	7.735884e-09
139	0x33b8b650	8.60133e-08
140	0x347c54fa	2.3500243e-07
141	0xb410b3f0	-1.3476506e-07
142	0x32de0ed9	2.5850953e-08
143	0xb30e2412	-3.3094757e-08
144	0xb1d489f6	-6.1856964e-09
145	0xb2bfcc4a	-2.2328226e-08
146	0x3245f0ac	1.1521632e-08
147	0xb232fc37	-1.0418311e-08
148	0x337b939c	5.857474e-08
149	0xb5820f14	-9.690143e-07
150	0xb1328531	-2.597812e-09
151	0x3390e450	6.747052e-08
152	0xadbd09b0	-2.1491114e-11
153	0xb239b4a6	-1.0809492e-08
154	0xb3db137e	-1.0201528e-07
155	0xb336c605	-4.2555275e-08
156	0xb250893f	-1.21384e-08
157	0x3391e395	6.7934856e-08
158	0xb1f78bdc	-7.2045463e-09
159	0xb28cec5d	-1.640563e-08
160	0xb1f1016d	-7.0141852e-09
161	0xb2879376	-1.5783126e-08

bias f4 [27]
0	0x3156d560	3.1262388e-09
1	0x30c2ac20	1.4164279e-09
2	0xb0dd8144	-1.6116606e-09
3	0xb033a810	-6.535865e-10
4	0xb11b93d9	-2.263951e-09
5	0xb21c045e	-9.081388e-09
6	0xb11e3f2c	-2.3027935e-09
7	0x323bbd80	1.092792e-08
8	0x30b9ffd0	1.3533228e-09
9	0x31fd8656	7.3785413e-09
10	0xb1248673	-2.3941567e-09
11	0x3118bd3f	2.2226485e-09
12	0xb1afe86c	-5.1195936e-09
13	0x31095b9d	1.99882e-09
14	0xb206494a	-7.816491e-09
15	0xb180a3e4	-3.7439225e-09
16	0x2faa38e0	3.0963232e-10
17	0xb0b7238e	-1.3325108e-09
18	0x317feeca	3.724312e-09
19	0xb1487484	-2.9170062e-09
20	0x311c9dc3	2.2790665e-09
21	0x3224854d	9.5763655e-09
22	0xb171d216	-3.5189536e-09
23	0x312a241c	2.4758782e-09
24	0xb10374ec	-1.9129471e-09
25	0x31ddbff8	6.453771e-09
26	0xb0a8a85c	-1.2271459e-09

weight f4 [27]
0	0x31f0c20c	7.00698e-09
1	0x3427163d	1.5561177e-07
2	0xb327d5f0	-3.9077293e-08
3	0xb2bbf90c	-2.1882919e-08
4	0xb270146f	-1.3974485e-08
5	0x34016a76	1.2052791e-07
6	0xb3054fbc	-3.1038994e-08
7	0x33918e06	6.7779226e-08
8	0x330af416	3.2352624e-08
9	0x31ae00f4	5.064175e-09
10	0x32715cd1	1.404915e-08
11	0xb3988332	-7.101916e-08
12	0xb4372784	-1.7057579e-07
13	0xb147e270	-2.9087026e-09
14	0x3150aff8	3.036801e-09
15	0x2fcc01a0	3.7108538e-10
16	0xb14c1a68	-2.9700917e-09
17	0x333a2d90	4.334794e-08
18	0xb30e8566	-3.3183277e-08
19	0xb2a0da80	-1.8725814e-08
20	0x338cc51a	6.5551106e-08
21	0x31f054a1	6.9945405e-09
22	0x332ba193	3.996099e-08
23	0xb3835b18	-6.116733e-08
24	0xb210fea5	-8.439803e-09
25	0xb2f1fe76	-2.8171808e-08
26	0xb3239374	-3.8085503e-08

bias f4 [27]
0	0x3011a404	5.2983773e-10
1	0x3451deee	1.9545743e-07
2	0xb33fe47b	-4.4678455e-08
3	0xb336b4d7	-4.253965e-08
4	0xb33d515c	-4.4078988e-08
5	0xb2d3d2b7	-2.4659455e-08
6	0x32b00f08	2.0495932e-08
7	0x34a3933a	3.0468237e-07
8	0xb1c120cd	-5.6207683e-09
9	0x330926ac	3.193297e-08
10	0xb2bdbe3f	-2.208901e-08
11	0xb14ac0d2	-2.9504474e-09
12	0xb4ace0cd	-3.220106e-07
13	0x332e85b4	4.0634134e-08
14	0xb4bf02f8	-3.5578682e-07
15	0xb3e91c93	-1.08551056e-07
16	0x32f2d659	2.8269982e-08
17	0x32634d3d	1.3230701e-08
18	0xb29291ce	-1.7062941e-08
19	0x31185988	2.2169804e-09
20	0xb350882c	-4.855262e-08
21	0x3271d443	1.4076309e-08
22	0xb335d4a0	-4.2335728e-08
23	0x32f31e07	2.8302578e-08
24	0x32d6ee07	2.5021121e-08
25	0xb39fdfd7	-7.444731e-08
26	0xb2dc53aa	-2.5649417e-08

running_mean f4 [27]
0	0x31267eba	2.4228215e-09
1	0x30af1ff7	1.2742011e-09
2	0xb0b5bd7d	-1.3223339e-09
3	0xb00facfd	-5.226893e-10
4	0xb0ff173b	-1.8560294e-09
5	0xb1e84f49	-6.7611023e-09
6	0xb0e6651d	-1.6763441e-09
7	0x320c452b	8.1647995e-09
8	0x302561f6	6.016586e-10
9	0x31a94d96	4.927368e-09
10	0xb0eff8c2	-1.746024e-09
11	0x30dc7d7e	1.6042774e-09
12	0xb175666a	-3.5710408e-09
13	0x30d7ba0a	1.5696184e-09
14	0xb1cac30e	-5.901149e-09
15	0xb13bd333	-2.7332134e-09
16	0x2e6ba960	5.358325e-11
17	0xb08ab8a1	-1.0093296e-09
18	0x312f63f9	2.552268e-09
19	0xb10f094a	-2.081452e-09
20	0x30ede362	1.7308646e-09
21	0x31f07b2b	6.998922e-09
22	0xb122342b	-2.3603757e-09
23	0x30e9f328	1.702209e-09
24	0xb0c70d2c	-1.4482899e-09
25	0x31a6b30d	4.8515916e-09
26	0xb09c3206	-1.1364711e-09

running_var f4 [27]
0	0x262e8074	6.0542463e-16
1	0x27932dde	4.0850425e-15
2	0x2859dd2b	1.2093878e-14
3	0x272762ad	2.3229398e-15
4	0x283238c7	9.8932965e-15
5	0x287b92fe	1.3965173e-14
6	0x26648317	7.928105e-16
7	0x27a75f01	4.6454815e-15
8	0x26af0beb	1.2146295e-15
9	0x26fc2fba	1.7498949e-15
10	0x26849bbd	9.201553e-16
11	0x27fd4de6	7.0306064e-15
12	0x29526b06	4.6722195e-14
13	0x2785425f	3.6986875e-15
14	0x284498c7	1.0913314e-14
15	0x27b04b9f	4.89318e-15
16	0x2703195c	1.819365e-15
17	0x27b0c45a	4.9062698e-15
18	0x278160b9	3.590956e-15
19	0x26b82281	1.2776917e-15
20	0x290858c7	3.027507e-14
21	0x27aa6b6f	4.730096e-15
22	0x27589f70	3.0062453e-15
23	0x28bca475	2.0943515e-14
24	0x2928cea3	3.7482722e-14
25	0x28524d0f	1.1674051e-14
26	0x27615dd5	3.127589e-15

weight f4 [24, 27, 1]
0	0xb2789c97	-1.4471104e-08
1	0xb1cf9189	-6.0410383e-09
2	0xb236385a	-1.0606607e-08
3	0xb190f43e	-4.2187187e-09
4	0xb1042830	-1.9231372e-09
5	0x3212095f	8.500449e-09
6	0xb08bb020	-1.0163639e-09
7	0x31e1cdec	6.5717725e-09
8	0x32885ac0	1.5873752e-08
9	0xb1aaee88	-4.974769e-09
10	0x3143a588	2.8470328e-09
11	0xb2a3e3a7	-1.9079222e-08
12	0x31e7c520	6.7453954e-09
13	0xb1de1825	-6.4637953e-09
14	0x32bd5556	2.2041302e-08
15	0xb1eed3cb	-6.9507897e-09
16	0xb29d1188	-1.8285178e-08
17	0xb1113c38	-2.1134507e-09
18	0xb196e02a	-4.391059e-09
19	0x3191ec12	4.2468935e-09
20	0x31205aec	2.3334747e-09
21	0xb182759d	-3.796869e-09
22	0x3201a61e	7.546559e-09
23	0xb2818bb9	-1.5081115e-08
24	0x30e112ff	1.6376304e-09
25	0xb190b8ee	-4.2119757e-09
26	0xb124a1da	-2.3957143e-09
27	0x3255115a	1.2402177e-08
28	0x3244f4ac	1.14643335e-08
29	0x31352d11	2.6364584e-09
30	0x30f9946c	1.8159318e-09
31	0xb37f8029	-5.9488375e-08
32	0x33325847	4.1524142e-08
33	0xb02a8bc8	-6.204428e-10
34	0x330475d8	3.0840823e-08
35	0xb09fd078	-1.1628023e-09
36	0x31f7455c	7.1965314e-09
37	0x322861fc	9.801166e-09
38	0x3224d8f7	9.5953885e-09
39	0xb38e8638	-6.6368045e-08
40	0xb1a7b57c	-4.880972e-09
41	0xb391a07d	-6.781281e-08
42	0x334a267e	4.70668e-08
43	0xb2a51a23	-1.9220414e-08
44	0xb312b797	-3.4160248e-08
45	0x32cf44a0	2.4129179e-08
46	0x3213336b	8.568217e-09
47	0xb23a9e46	-1.0862612e-08
48	0x2f1ac120	1.407483e-10
49	0x328f7f38	1.6705243e-08
50	0x3391e0a6	6.792952e-08
51	0x32cd453a	2.3896622e-08
52	0x320e97f5	8.300039e-09
53	0xb1b11451	-5.1536877e-09
54	0xb21abe65	-9.0072705e-09
55	0xb2fb6238	-2.926491e-08
56	0xb274c8b4	-1.4248304e-08
57	0xb16c155a	-3.4354657e-09
58	0xb13f8e56	-2.7875067e-09
59	0x3289e843	1.605452e-08
60	0xb1796c30	-3.6295766e-09
61	0xb0711d28	-8.771672e-10
62	0xb2adcb2f	-2.0232248e-08
63	0x30dafc20	1.5933246e-09
64	0x3004d476	4.8323245e-10
65	0xb26b95b7	-1.37128415e-08
66	0xb2ab9d61	-1.9978588e-08
67	0xb1fe84a5	-7.407453e-09
68	0xb154b9e8	-3.0955736e-09
69	0x3217ded6	8.840024e-09
70	0xb1fe1578	-7.3948137e-09
71	0xb32f83f6	-4.086538e-08
72	0xb25c416d	-1.28205615e-08
73	0x3281297c	1.5036441e-08
74	0xb2808556	-1.4961795e-08
75	0xb2056c84	-7.7662925e-09
76	0xb1c9d3f5	-5.8739666e-09
77	0xb1a0f369	-4.6842854e-09
78	0xb24f8e18	-1.2081294e-08
79	0xb29e5f75	-1.843703e-08
80	0x2f44ab40	1.7886936e-10
81	0xb2dd3735	-2.5752891e-08
82	0x3108e8da	1.9922965e-09
83	0xb29e26ee	-1.8411324e-08
84	0x330c99c0	3.2736125e-08
85	0xb292df68	-1.709823e-08
86	0x324cd3c6	1.19225145e-08
87	0xb1df68c0	-6.502063e-09
88	0xb2e039c4	-2.61033e-08
89	0x32a4f816	1.920493e-08
90	0x32b6acd2	2.1266178e-08
91	0xb25f33e7	-1.299211e-08
92	0x329d30a7	1.829933e-08
93	0xb2913324	-1.6903478e-08
94	0x328c8915	1.6360483e-08
95	0xb1900b5e	-4.192244e-09
96	0xb1c6b3d4	-5.7830025e-09
97	0xb213abc0	-8.595578e-09
98	0x32ba6572	2.1699382e-08
99	0x32898f24	1.6013992e-08
100	0x321fd7bf	9.304073e-09
101	0xb13a9850	-2.7153142e-09
102	0x31636da4	3.309517e-09
103	0x314f782c	3.0190774e-09
104	0x30e64354	1.6753838e-09
105	0xb1624f64	-3.2932457e-09
106	0x32986c3d	1.774435e-08
107	0xb1bb2cfa	-5.4475295e-09
108	0x328aadd1	1.6144357e-08
109	0xb2d31a2e	-2.4575538e-08
110	0xb1707bc0	-3.499494e-09
111	0x32c951b9	2.3436643e-08
112	0xb11a88dc	-2.2487745e-09
113	0x3314753b	3.4565556e-08
114	0x324bfe7b	1.1874017e-08
115	0x32e53af5	2.668592e-08
116	0x31272464	2.4322384e-09
117	0xb27187da	-1.4058935e-08
118	0xb1d35bcf	-6.1513457e-09
119	0xb2822825	-1.5152247e-08
120	0x33022684	3.0303013e-08
121	0x3177cb02	3.6058627e-09
122	0xb1213649	-2.345944e-09
123	0x31120c4e	2.125279e-09
124	0xb250aa20	-1.2145875e-08
125	0xb29178d6	-1.6935171e-08
126	0x315d6fe5	3.2223337e-09
127	0xb291175b	-1.6890843e-08
128	0x32295677	9.8567545e-09
129	0xb35b6e20	-5.109007e-08
130	0x328e7d55	1.658797e-08
131	0xb215e84b	-8.725759e-09
132	0x3250f0c9	1.2161942e-08
133	0xb2352ebc	-1.0546213e-08
134	0x2de694e0	2.6214086e-11
135	0xb227d9e9	-9.770226e-09
136	0xb1760822	-3.5802334e-09
137	0xb189ad26	-4.0069095e-09
138	0x3193c80b	4.3010053e-09
139	0x31f68081	7.1741515e-09
140	0xb214dda1	-8.665126e-09
141	0x32c5736d	2.2986308e-08
142	0x3147e68a	2.9089358e-09
143	0xb0ab2800	-1.2453256e-09
144	0x318beef4	4.0725983e-09
145	0xb0e9baf0	-1.7006112e-09
146	0x32a64b9d	1.9359328e-08
147	0x32982ed3	1.7716422e-08
148	0xb1c133b3	-5.622917e-09
149	0x319e4be2	4.607032e-09
150	0x32a11ead	1.8756817e-08
151	0xb126113a	-2.4165971e-09
152	0x32a952cb	1.971184e-08
153	0xb2747562	-1.4229359e-08
154	0xb097b168	-1.1037118e-09
155	0x30900798	1.0479537e-09
156	0x32bac835	2.1744293e-08
157	0x32144ec6	8.632645e-09
158	0x32e2c03c	2.639728e-08
159	0xb306a948	-3.1353267e-08
160	0xb05378c0	-7.693295e-10
161	0x32eaf85f	2.7354131e-08
162	0xb17abc83	-3.6486945e-09
163	0xb1fbcfac	-7.328671e-09
164	0x33258be6	3.8544293e-08
165	0xb1daf6e5	-6.3727037e-09
166	0x31ef0ddb	6.9573907e-09
167	0x31e33d16	6.613514e-09
168	0xb23dcf7e	-1.1048426e-08
169	0xb2dc9899	-2.5680764e-08
170	0x318af32a	4.043973e-09
171	0x32a255b5	1.8898257e-08
172	0xb1c5adf9	-5.753233e-09
173	0x33e33e9d	1.05819005e-07
174	0xb202ca8c	-7.61305e-09
175	0xadacac00	-1.963052e-11
176	0x30bb048a	1.3607331e-09
177	0xb359ce6f	-5.0712e-08
178	0xb2f5a96a	-2.8598794e-08
179	0x33120b75	3.4003694e-08
180	0xb2ad8b3b	-2.0203165e-08
181	0xb186d0c2	-3.9236463e-09
182	0x33ed7fc6	1.10594144e-07
183	0xb294706b	-1.728059e-08
184	0x327a1d87	1.4558629e-08
185	0x339180fb	6.77555e-08
186	0x338153c0	6.0222646e-08
187	0xb39f6f88	-7.424302e-08
188	0x328d7c64	1.6471127e-08
189	0xb2823b0c	-1.5160843e-08
190	0xb1d78a8e	-6.2730754e-09
191	0xb26ab115	-1.36608564e-08
192	0xb1f8dbda	-7.242744e-09
193	0x32ac640b	2.006893e-08
194	0xb12a0172	-2.4739077e-09
195	0x303ecda8	6.941385e-10
196	0x33a3cb39	7.627245e-08
197	0x313ff5f1	2.793396e-09
198	0x311e5b22	2.304383e-09
199	0xb22e6bbb	-1.0152628e-08
200	0xaf98a270	-2.7764058e-10
201	0x33513358	4.87083e-08
202	0x31372bb0	2.6654838e-09
203	0x32b0c574	2.0578888e-08
204	0x31cdaf3b	5.9862066e-09
205	0xb3051d19	-3.099294e-08
206	0xb235dde0	-1.0586035e-08
207	0x3102a4b5	1.9011115e-09
208	0x32241a56	9.5520445e-09
209	0xb32365c3	-3.8043947e-08
210	0x3305e953	3.1178683e-08
211	0xb22ffe52	-1.0244166e-08
212	0xb2911405	-1.6889325e-08
213	0x2f163ba0	1.3663604e-10
214	0x31510789	3.0417786e-09
215	0xb1efabb7	-6.975337e-09
216	0xb17a98ad	-3.6466574e-09
217	0xb399ee47	-7.16796e-08
218	0x3103a8d0	1.9158968e-09
219	0x321e786d	9.224192e-09
220	0xb1a842a4	-4.8970197e-09
221	0x32857d43	1.55402e-08
222	0x31e63e62	6.700973e-09
223	0x32c0db6e	2.2451527e-08
224	0xb2b7aca5	-2.1382514e-08
225	0xb28ac243	-1.6153654e-08
226	0xb196ab35	-4.3850386e-09
227	0xb207f352	-7.913359e-09
228	0xb185b39d	-3.891229e-09
229	0x321caec3	9.120131e-09
230	0x3273605c	1.4166371e-08
231	0xb2b9cf76	-2.1631177e-08
232	0x321304fa	8.557658e-09
233	0xb2619b5c	-1.3132048e-08
234	0x31cc6da8	5.949648e-09
235	0xb20f4f58	-8.341736e-09
236	0xb30bdd87	-3.2564937e-08
237	0x32c4b89c	2.2901354e-08
238	0x32568414	1.24864705e-08
239	0x3382573b	6.069464e-08
240	0xb262187c	-1.31604985e-08
241	0xb2179b65	-8.824689e-09
242	0x3388b8db	6.3666185e-08
243	0x32667367	1.34140015e-08
244	0x34286e29	1.5686295e-07
245	0xb3384564	-4.290395e-08
246	0x32490eee	1.17031345e-08
247	0xb239f64a	-1.0824417e-08
248	0xb41096f6	-1.3465964e-07
249	0xb228506a	-9.797171e-09
250	0x325bcfc0	1.2794715e-08
251	0x2f781580	2.2563107e-10
252	0xb2ad6d3c	-2.0189525e-08
253	0x32277bf1	9.74886e-09
254	0xb38f8992	-6.68398e-08
255	0x341006cb	1.3413516e-07

bias f4 [24]
0	0xaf488a70	-1.8239077e-10
1	0xb14a179f	-2.9408296e-09
2	0x30bda024	1.3797075e-09
3	0xb0db7102	-1.5966466e-09
4	0xafb04df8	-3.2069614e-10
5	0x311061d3	2.1010365e-09
6	0xb0ba1a68	-1.3540786e-09
7	0xaf87fb58	-2.4734947e-10
8	0x2f0a2360	1.2563595e-10
9	0x310ea79f	2.0759001e-09
10	0x316cc154	3.4452414e-09
11	0x30cdc7fd	1.4972553e-09
12	0x3155c1ce	3.1105745e-09
13	0x31c79976	5.8091087e-09
14	0x31923c77	4.2560333e-09
15	0xb1605f9c	-3.2650638e-09
16	0x312c3f4d	2.5065277e-09
17	0x2e2c6080	3.919398e-11
18	0x3043cd9c	7.1232775e-10
19	0xb1711c72	-3.5086285e-09
20	0x3034862c	6.567429e-10
21	0x313394ec	2.613258e-09
22	0x31467293	2.887792e-09
23	0x31a8ea62	4.9160898e-09

weight f4 [24]
0	0xb322de4c	-3.7920742e-08
1	0xb2825f68	-1.5177378e-08
2	0xb2fbf924	-2.9333542e-08
3	0xb31044c8	-3.359017e-08
4	0xb26dfbe2	-1.3852487e-08
5	0xb2881721	-1.5843002e-08
6	0xb3a9c38f	-7.905248e-08
7	0xb1267e80	-2.4228086e-09
8	0x32bc687e	2.1933598e-08
9	0x33ae03e9	8.103218e-08
10	0xb3fa7b37	-1.1663945e-07
11	0x3323d46a	3.8144584e-08
12	0x312906fc	2.4596707e-09
13	0x3318c757	3.5571556e-08
14	0x32ea4223	2.727126e-08
15	0x338f1ad6	6.663838e-08
16	0x343d06b8	1.7604441e-07
17	0xb3e55ee0	-1.0680901e-07
18	0xb286d472	-1.5696262e-08
19	0xb28e1f99	-1.6545345e-08
20	0x32857052	1.5534315e-08
21	0xb33b2108	-4.3569372e-08
22	0x338cdd6d	6.559535e-08
23	0x31b495de	5.2557274e-09

bias f4 [24]
0	0x331c57d8	3.6401474e-08
1	0xb28cf470	-1.6409302e-08
2	0x32223289	9.441131e-09
3	0x2f0f5a40	1.3037837e-10
4	0xb0a67d96	-1.2113783e-09
5	0x33033981	3.0553114e-08
6	0x334baeae	4.742349e-08
7	0xb354c348	-4.9537704e-08
8	0x332c7f53	4.016267e-08
9	0x33069e29	3.1343152e-08
10	0xb0f73074	-1.7985387e-09
11	0xb2d6a705	-2.498883e-08
12	0x33103087	3.3571748e-08
13	0xb351df93	-4.8864944e-08
14	0x32d5dd97	2.4897231e-08
15	0xb10320c2	-1.908163e-09
16	0xb3e1f290	-1.0521501e-07
17	0xb3fa91a8	-1.1668027e-07
18	0x338a45af	6.438801e-08
19	0x3248194b	1.1647283e-08
20	0xb3dec53b	-1.03735566e-07
21	0x339ec5b8	7.393413e-08
22	0xb31835d2	-3.5439207e-08
23	0x31ede488	6.923589e-09

running_mean f4 [24]
0	0xaf5f5065	-2.0310294e-10
1	0xb113bbb3	-2.149801e-09
2	0x30a5d508	1.2065877e-09
3	0xb095c2ce	-1.0896544e-09
4	0xaf97d305	-2.7616678e-10
5	0x30d1a960	1.5254891e-09
6	0xb0839a0e	-9.57529e-10
7	0xaf00daae	-1.1719223e-10
8	0x2e62531b	5.1460263e-11
9	0x30d38486	1.5389936e-09
10	0x312cb6de	2.5133242e-09
11	0x309bf784	1.1348082e-09
12	0x311a6269	2.246589e-09
13	0x319409c6	4.308478e-09
14	0x315f9b6f	3.2539125e-09
15	0xb1250e53	-2.4018803e-09
16	0x30f17b82	1.7570161e-09
17	0xae2061b8	-3.646658e-11
18	0x30059e3f	4.861e-10
19	0xb134516e	-2.6239735e-09
20	0x30178389	5.51204e-10
21	0x30ef6fc5	1.7421306e-09
22	0x310e7cff	2.0734772e-09
23	0x317a88c0	3.6457521e-09

running_var f4 [24]
0	0x26471dbd	6.9082297e-16
1	0x289aaace	1.717151e-14
2	0x2764b39a	3.1738718e-15
3	0x26c46f6d	1.3630434e-15
4	0x2777b504	3.4376265e-15
5	0x2706919f	1.8675177e-15
6	0x27e9e561	6.4919184e-15
7	0x280f9b5e	7.9717845e-15
8	0x276a9204	3.2553179e-15
9	0x2870a951	1.3359391e-14
10	0x2926ce89	3.7038545e-14
11	0x282d4268	9.617829e-15
12	0x26cca669	1.4200449e-15
13	0x27e92050	6.4705524e-15
14	0x27231294	2.2630865e-15
15	0x280a06a3	7.661978e-15
16	0x2936094c	4.0420182e-14
17	0x29122445	3.244997e-14
18	0x284b0ec6	1.1271967e-14
19	0x275e65cf	3.086388e-15
20	0x27931cca	4.083191e-15
21	0x28fed652	2.8292611e-14
22	0x27d24f08	5.8372395e-15
23	0x27616625	3.1280395e-15

weight f4 [3, 24, 1]
0	0x337dd0f2	5.9096187e-08
1	0xb3cd398b	-9.5565234e-08
2	0xb36f5777	-5.5726073e-08
3	0x3317d18e	3.5348016e-08
4	0x30ff9d3f	1.8598384e-09
5	0x32f1a62a	2.8131655e-08
6	0xb4319298	-1.653774e-07
7	0x32481f79	1.1648688e-08
8	0x33083502	3.1713178e-08
9	0xb3bcee7a	-8.797811e-08
10	0x3694651c	4.4225144e-06
11	0x326c78aa	1.3764444e-08
12	0xb47c369b	-2.3489194e-07
13	0x338ddb17	6.6056764e-08
14	0x3337846c	4.2728445e-08
15	0xb51cc4af	-5.840074e-07
16	0x3827d189	4.0011048e-05
17	0x341c39bf	1.454964e-07
18	0x32b74f84	2.1340163e-08
19	0xb1b3a144	-5.2279194e-09
20	0xb23e8ce2	-1.1091489e-08
21	0xb3a1c882	-7.533619e-08
22	0xb41368b3	-1.3728531e-07
23	0xb05dabed	-8.0643653e-10
24	0x31883444	3.964063e-09
25	0xb254e453	-1.2391939e-08
26	0xb2e893b8	-2.707553e-08
27	0xb27e86da	-1.4815408e-08
28	0xb36d3c9e	-5.5235994e-08
29	0x330a322c	3.217626e-08
30	0xb2eba8fc	-2.7434446e-08
31	0xb39cf0b4	-7.3081e-08
32	0xb38d3598	-6.575573e-08
33	0x32b2aaac	2.079954e-08
34	0x3bd7bffb	0.006584165
35	0x31a611a1	4.83324e-09
36	0xb37a1127	-5.822326e-08
37	0xb111a683	-2.1194928e-09
38	0xb496dbdd	-2.809965e-07
39	0x35f1b9f4	1.8010019e-06
40	0x367e7811	3.7918837e-06
41	0x3b50e5f6	0.0031875349
42	0xb425a2c6	-1.5426039e-07
43	0x31e2b9fc	6.5986097e-09
44	0x33cb1c76	9.458101e-08
45	0x3460f728	2.095154e-07
46	0x394d8639	0.00019600325
47	0xb2bd4056	-2.2031752e-08
48	0x314536e2	2.869847e-09
49	0xb25e30be	-1.2933183e-08
50	0xb1c65f43	-5.7733884e-09
51	0x32c96522	2.344547e-08
52	0x3314d1ec	3.4649858e-08
53	0x31050152	1.9354798e-09
54	0x30819f80	9.431318e-10
55	0x31f6fe7a	7.188473e-09
56	0xb2ed86eb	-2.7651785e-08
57	0x343b0c0f	1.7420119e-07
58	0xb58242c3	-9.705185e-07
59	0x32c72525	2.318354e-08
60	0xb38a6765	-6.444933e-08
61	0xb375dcd2	-5.7244343e-08
62	0x3338df42	4.304389e-08
63	0x336da218	5.5328286e-08
64	0x3380cfb2	5.998244e-08
65	0xb6462d22	-2.953057e-06
66	0xb3901df8	-6.710974e-08
67	0xb27b7ae2	-1.4638063e-08
68	0x322933f0	9.848904e-09
69	0xb1ea13ef	-6.8125625e-09
70	0xb3053bd1	-3.102088e-08
71	0xb02fd55b	-6.3967825e-10

bias f4 [3]
0	0x316f7c90	3.4849883e-09
1	0xb05b121c	-7.969747e-10
2	0xb175c30a	-3.576306e-09

weight f4 [3]
0	0x3a317ec5	0.00067709043
1	0x3c70a026	0.01468662
2	0x3828168e	4.0075327e-05

bias f4 [3]
0	0xbf01c257	-0.50687164
1	0xbdab9732	-0.083784476
2	0xbd5b515a	-0.05354438

running_mean f4 [3]
0	0x312eb415	2.5422697e-09
1	0xb0033a28	-4.774017e-10
2	0xb1371459	-2.6641571e-09

running_var f4 [3]
0	0x2a0a2fd9	1.2273463e-13
1	0x2a94705b	2.6368043e-13
2	0x28def81d	2.4754553e-14

weight_ih_l0 f4 [480, 2]
0	0x319216c2	4.2517465e-09
1	0xb1a477a4	-4.7866298e-09
2	0xb2c16208	-2.2512737e-08
3	0xb2a69ba9	-1.939573e-08
4	0xb1fbbdf1	-7.3266553e-09
5	0xb1a8478a	-4.8975766e-09
6	0x3297812f	1.763746e-08
7	0x32747390	1.4228945e-08
8	0x32092135	7.982e-09
9	0xaff620f0	-4.4770543e-10
10	0x31eba594	6.858224e-09
11	0x32248fb2	9.578729e-09
12	0x32958193	1.7404806e-08
13	0x324e593e	1.20110695e-08
14	0xb299e991	-1.7917758e-08
15	0x329239d9	1.7022943e-08
16	0x331f1a08	3.7043748e-08
17	0xb1347c0c	-2.626396e-09
18	0x334468b5	4.5730037e-08
19	0x33110b8d	3.377095e-08
20	0xb26d90d4	-1.3828146e-08
21	0xb2908295	-1.6823188e-08
22	0xb19629b2	-4.3703148e-09
23	0x31fbe709	7.331327e-09
24	0xb38e1073	-6.6153824e-08
25	0x3292588c	1.7036903e-08
26	0xb2c9e354	-2.3502857e-08
27	0x31b0ae7b	5.1421103e-09
28	0x322b8366	9.983387e-09
29	0x32d14079	2.4360121e-08
30	0xb1a5c1d6	-4.8241686e-09
31	0x329290b6	1.7062444e-08
32	0x31d735fc	6.263461e-09
33	0xb0505914	-7.5796547e-10
34	0x32057144	7.7673725e-09
35	0x31c3a577	5.694058e-09
36	0xb2a1f45e	-1.8853992e-08
37	0x32bd8609	2.2063448e-08
38	0xb0477c8c	-7.257277e-10
39	0x304bafb8	7.410068e-10
40	0x319ddcba	4.594395e-09
41	0x3280e9b1	1.5007432e-08
42	0xb2007a08	-7.478327e-09
43	0x32a3d3a9	1.907195e-08
44	0xaf70cea8	-2.1901292e-10
45	0xb306b91d	-3.1367666e-08
46	0xb2ee704a	-2.775791e-08
47	0x33153e12	3.474822e-08
48	0x330e82a3	3.3180765e-08
49	0x32acd116	2.0118517e-08
50	0x322e8a0c	1.0159521e-08
51	0x3215a993	8.711498e-09
52	0xb2beaa0c	-2.219624e-08
53	0xb29a7a1c	-1.7983488e-08
54	0xb292bd78	-1.7082797e-08
55	0x323caf14	1.0982848e-08
56	0xb199f75a	-4.4810067e-09
57	0xb2ca52db	-2.3553573e-08
58	0xb1cbada5	-5.9278187e-09
59	0x32ab0231	1.9908017e-08
60	0xb27cefcd	-1.4722855e-08
61	0x32c807b0	2.328656e-08
62	0xb13fb208	-2.7895357e-09
63	0xb2a21bff	-1.8872013e-08
64	0x3254178e	1.234538e-08
65	0xb2b5fabc	-2.1185194e-08
66	0x2fc62eb4	3.6049175e-10
67	0xb22ccaae	-1.0057802e-08
68	0x3262c8ad	1.320056e-08
69	0x328e7582	1.6584412e-08
70	0x32518d81	1.2197575e-08
71	0x327e9b0d	1.482e-08
72	0xb285b284	-1.5564417e-08
73	0x3278480c	1.44518815e-08
74	0xb1d0ca74	-6.076613e-09
75	0xb1900ab7	-4.1921697e-09
76	0xb2391ac6	-1.0774505e-08
77	0xb2927493	-1.7049649e-08
78	0xb1872f26	-3.9343773e-09
79	0x31c38ed1	5.6914833e-09
80	0x325620f0	1.2463929e-08
81	0x3221a9e4	9.410062e-09
82	0xb3388772	-4.2964025e-08
83	0xb1ca399a	-5.8855223e-09
84	0x32805f9d	1.4944641e-08
85	0x3323da1f	3.8149775e-08
86	0xb302dd66	-3.0469344e-08
87	0xb2ee35c8	-2.7731303e-08
88	0xb2c2c79a	-2.267534e-08
89	0x326b1d1c	1.3685419e-08
90	0xb23da72e	-1.103926e-08
91	0x32fd4b9a	2.9487456e-08
92	0x3214af6c	8.65462e-09
93	0x32b4da84	2.1054127e-08
94	0xb1e9cf62	-6.804769e-09
95	0xb27f169f	-1.4848097e-08
96	0xb13a14f0	-2.7078464e-09
97	0xb2027c57	-7.5952675e-09
98	0x2f2879f0	1.5322832e-10
99	0xb280188c	-1.4912324e-08
100	0x328ed4f1	1.662781e-08
101	0xb2c42c30	-2.2837497e-08
102	0xb1bf83aa	-5.5738e-09
103	0xb1f13b93	-7.020796e-09
104	0xb1ab5f42	-4.9875846e-09
105	0x321e86d7	9.2274695e-09
106	0xb18e43da	-4.1404578e-09
107	0x3290e700	1.6868853e-08
108	0xb2cd8259	-2.3924416e-08
109	0x2ef82c00	1.128555e-10
110	0x312b1a2c	2.4898652e-09
111	0xb2ab1aab	-1.9919147e-08
112	0x334ecdbe	4.8150234e-08
113	0x32216194	9.39362e-09
114	0xb20dc663	-8.252388e-09
115	0x32d6670c	2.495974e-08
116	0x302dfae3	6.3293565e-10
117	0x2e0d9980	3.2196024e-11
118	0x312d064a	2.5178388e-09
119	0xb18facf3	-4.18151e-09
120	0x32fe6c78	2.9618818e-08
121	0xb229b55e	-9.878333e-09
122	0xb20433ba	-7.6951725e-09
123	0x32163c83	8.744908e-09
124	0x316d2fd8	3.4515235e-09
125	0xb25a8bb6	-1.2721037e-08
126	0xb22604e7	-9.663586e-09
127	0xb0a6bff2	-1.2132644e-09
128	0x32b2aba6	2.0799984e-08
129	0xb1b47cfd	-5.252899e-09
130	0xb24586a8	-1.14975265e-08
131	0xb2a1cf18	-1.8837042e-08
132	0xb2660fee	-1.3391384e-08
133	0x324422b6	1.1416594e-08
134	0xb2819800	-1.5086698e-08
135	0xb20a8ba0	-8.064404e-09
136	0xb2790228	-1.4494198e-08
137	0x331e7ad0	3.689894e-08
138	0xb2217e56	-9.400159e-09
139	0xb328a060	-3.926141e-08
140	0xb0778710	-9.005001e-10
141	0x31bf10ab	5.5607265e-09
142	0x330c8f83	3.2726813e-08
143	0xb26b4f74	-1.3696866e-08
144	0x330cec0d	3.2810977e-08
145	0x32c9fa37	2.3513264e-08
146	0x329d8d75	1.8341533e-08
147	0x32cc2593	2.3765812e-08
148	0xb147fd85	-2.910242e-09
149	0xb2d259cf	-2.4488058e-08
150	0x31911fdf	4.2236787e-09
151	0xb2c79690	-2.3235117e-08
152	0xb289ce7b	-1.6042796e-08
153	0x331a7b3c	3.5968e-08
154	0x311a8d07	2.2490114e-09
155	0xb2a41dd6	-1.910568e-08
156	0x31f2aeaa	7.062984e-09
157	0x32c27efd	2.264232e-08
158	0x30bb39fa	1.3622519e-09
159	0xb295ec96	-1.745347e-08
160	0xb26f57a6	-1.393156e-08
161	0x32861b61	1.5612104e-08
162	0x326bdbd2	1.3728782e-08
163	0x321455de	8.634258e-09
164	0xb1c6a0ee	-5.780854e-09
165	0xb2a09de0	-1.8698245e-08
166	0xb2363eff	-1.0608118e-08
167	0xb2d0496b	-2.4247774e-08
168	0xb1ca73b9	-5.89213e-09
169	0xb14c09aa	-2.96914e-09
170	0xb229f509	-9.892809e-09
171	0xb12c0b2c	-2.5035645e-09
172	0xb25d61f0	-1.28861615e-08
173	0xb2862fd6	-1.5621406e-08
174	0x32aea734	2.0332301e-08
175	0xb2af3237	-2.0395516e-08
176	0xb35fa7b7	-5.207377e-08
177	0xb237d8d2	-1.0701301e-08
178	0x3220b820	9.355091e-09
179	0xb20284a3	-7.597154e-09
180	0xb19506cd	-4.337244e-09
181	0x32bd5627	2.2041673e-08
182	0xb28093f2	-1.4968439e-08
183	0x320be04a	8.141862e-09
184	0xb253d64b	-1.2330541e-08
185	0xb245c334	-1.1511293e-08
186	0xb199b703	-4.473692e-09
187	0xb2a62e66	-1.9346043e-08
188	0xb2fef222	-2.9679601e-08
189	0xb36cdedf	-5.5150732e-08
190	0xb18569b6	-3.8828274e-09
191	0x31ce50f0	6.0045906e-09
192	0x3207e59d	7.910242e-09
193	0x31bf5a96	5.56913e-09
194	0x31e4f113	6.6630803e-09
195	0xb2434bbe	-1.1367716e-08
196	0x32c43853	2.2843016e-08
197	0x32f38b3c	2.835224e-08
198	0x330e12d4	3.3079075e-08
199	0xb105640c	-1.9410917e-09
200	0xb2cf6838	-2.4145365e-08
201	0xb3105c6a	-3.3611663e-08
202	0xb28690af	-1.5665448e-08
203	0xb232bc29	-1.0403746e-08
204	0xb2e6ca1e	-2.6867436e-08
205	0x3268e14f	1.3555407e-08
206	0x32610e74	1.310001e-08
207	0x3301f077	3.0253855e-08
208	0xafc9ea24	-3.6728054e-10
209	0xb2bcff0c	-2.2002062e-08
210	0xafa7bef6	-3.051281e-10
211	0x32161158	8.735093e-09
212	0xb2687a44	-1.3531977e-08
213	0xb2d2b50c	-2.4529548e-08
214	0x328bc8a1	1.6272965e-08
215	0x32924a60	1.7030459e-08
216	0xb100c1a4	-1.8736523e-09
217	0xb24121e7	-1.1241787e-08
218	0xb1a89782	-4.906668e-09
219	0x32f1d884	2.8154552e-08
220	0xb287e75a	-1.5821275e-08
221	0x3266399a	1.3400859e-08
222	0xb1e8e328	-6.7779133e-09
223	0xb29b7370	-1.809687e-08
224	0xb21f7623	-9.281879e-09
225	0x3300ed2d	3.0018033e-08
226	0xb21549fa	-8.689762e-09
227	0x3246f850	1.1581577e-08
228	0xb29f3b35	-1.853696e-08
229	0xb2984674	-1.7727167e-08
230	0x329f0949	1.8514259e-08
231	0xb1ecf03d	-6.895816e-09
232	0xafc13650	-3.5145087e-10
233	0x3206b4f0	7.840967e-09
234	0x30be99f6	1.3868078e-09
235	0x31fa298c	7.280681e-09
236	0x33649d9d	5.3228735e-08
237	0xb300f692	-3.0026577e-08
238	0x30515828	7.6159035e-10
239	0xb2bc4ba9	-2.1920487e-08
240	0x31983e21	4.4308455e-09
241	0xb1916fea	-4.2327786e-09
242	0xb2d85191	-2.5182802e-08
243	0x32998b88	1.7874996e-08
244	0xb1b87ce4	-5.3693032e-09
245	0xb1a6576a	-4.8411737e-09
246	0x315493d4	3.093409e-09
247	0x324264d0	1.1315208e-08
248	0xb25405f4	-1.2341378e-08
249	0xb19abc05	-4.5033652e-09
250	0xb1ada9e4	-5.054277e-09
251	0xaf62ada0	-2.0616264e-10
252	0xb0c38fb8	-1.4228965e-09
253	0xb26f8828	-1.3942589e-08
254	0x318964fc	3.9987054e-09
255	0x3291c112	1.696802e-08
