experiments_generated_data/obs_5_pred_3/models/time_series_linear.pt (torch, 2586 bytes, 2 tensors)

weight f4 [3, 10]
0	0x3cd658c0	0.026165366
1	0x3db86329	0.09003288
2	0x3ae75a70	0.0017650854
3	0x3e6723ae	0.22572204
4	0x3ceeea79	0.02916454
5	0xbe2e2fcb	-0.17010419
6	0xbd3214fe	-0.04347705
7	0xbdf25363	-0.11832311
8	0x3cc1ee48	0.023673192
9	0xbd5cb2c4	-0.05388142
10	0xbcaa829c	-0.020814233
11	0xbd945eb9	-0.072446294
12	0xbba1fb84	-0.004943313
13	0xbe2b853d	-0.16750045
14	0xbc63c1a7	-0.013901151
15	0x3e2ff0bd	0.17181678
16	0xbd357246	-0.044298433
17	0x3de53ca1	0.11193205
18	0xbcd41114	-0.02588705
19	0x3d074651	0.033026043
20	0x3ceeffba	0.029174674
21	0x3d6ee9e7	0.058328535
22	0x3d514fcb	0.051101487
23	0x3e8da5c4	0.27665532
24	0x3d2fdde1	0.04293621
25	0xbe3147c6	-0.17312536
26	0xbc1d5b4f	-0.009604289
27	0x3cb9d1e6	0.022683095
28	0x3d2329d4	0.039834812
29	0xbe777a64	-0.24167782

bias f4 [3]
0	0x3f06f0e9	0.5271135
1	0x3f00c58e	0.50301445
2	0x3f089ec9	0.53367287
