experiments_generated_data/obs_5_pred_2/models/tcn.pt (torch, 20291 bytes, 31 tensors)

weight f4 [12, 5, 1]
000000 c2 1e d9 b1 65 98 da b2 ec ad 15 b3 4a 91 3b b4
       -6.319028e-09 -2.5447841e-08 -3.4849947e-08 -1.7468588e-07
000010 d0 e8 19 b2 6a 63 8f bc cd e4 77 bb 1c 58 60 b6
       -8.9587076e-09 -0.017503459 -0.0037825585 -3.3429887e-06
000020 f8 83 c0 bc 08 d0 2f bb 4c 7b 7f 34 31 24 4f b3
       -0.023500428 -0.0026826877 2.3793581e-07 -4.822886e-08
000030 b1 3e 8a 32 a6 63 01 ba 56 58 06 b2 97 43 00 b7
       1.6093823e-08 -0.0004935808 -7.819912e-09 -7.6451315e-06
000040 d9 6e 57 b3 ed 35 26 35 b2 ea 6e 33 f1 cc 12 38
       -5.0159404e-08 6.191829e-07 5.5627147e-08 3.499998e-05
000050 d8 d2 57 32 fd 80 59 32 65 f2 c5 b1 30 61 ad 33
       1.2562587e-08 1.2660391e-08 -5.7610117e-09 8.0736186e-08
000060 6b 1d 8a 33 18 5d fe b1 7b 87 95 31 9a 16 34 31
       6.431477e-08 -7.4029565e-09 4.351873e-09 2.6206295e-09
000070 66 96 6e 32 e4 7b f6 31 1c 6f 95 30 9e 7d 89 b1
       1.388762e-08 7.173627e-09 1.0872756e-09 -4.001506e-09
000080 7d 77 9e 32 8e 91 be b2 56 54 1e 31 e2 6a 32 b1
       1.8447958e-08 -2.2185102e-08 2.3039965e-09 -2.5963165e-09
000090 f9 a5 9a 32 7a e1 3f b1 36 31 41 b1 55 37 86 32
       1.8003435e-08 -2.7922327e-09 -2.811317e-09 1.5624815e-08
0000a0 bc 6a d2 b2 4b bd ac 33 c6 07 77 b1 3c 80 cc 30
       -2.4495755e-08 8.043806e-08 -3.594765e-09 1.48794e-09
0000b0 d6 06 b0 32 ea 82 8b b2 69 fb 1c 31 51 91 1d b2
       2.0492205e-08 -1.6241263e-08 2.2843898e-09 -9.171644e-09
0000c0 e7 1e 32 32 0c ed 84 b2 c0 50 0c b2 6e 8d 44 32
       1.036799e-08 -1.5474619e-08 -8.167433e-09 1.1440859e-08
0000d0 04 e8 67 30 a4 c4 07 b3 f2 25 43 b2 85 4a 15 31
       8.4367024e-10 -3.161098e-08 -1.1359122e-08 2.1724713e-09
0000e0 9f 23 2c 33 38 25 8e b1 3d 88 34 33 7c 10 3d 32
       4.0079268e-08 -4.136975e-09 4.2033424e-08 1.1004996e-08

bias f4 [12]
000000 72 10 0a b1 48 91 59 31 3f 1a 08 31 fa 44 b2 b0
       -2.009099e-09 3.1660239e-09 1.9805524e-09 -1.2970809e-09
000010 4a f4 c0 30 f2 09 b0 30 62 92 af 30 56 77 94 b0
       1.403927e-09 1.2808512e-09 1.277453e-09 -1.0802335e-09
000020 56 e6 36 b0 43 f8 48 b1 57 2c a9 30 f2 14 41 b0
       -6.653854e-10 -2.924495e-09 1.230897e-09 -7.0242756e-10

weight f4 [12]
000000 6d 81 5a 33 27 58 b3 31 05 a6 dd b6 88 9a 12 33
       5.0874792e-08 5.2196074e-09 -6.6056405e-06 3.413382e-08
000010 cf ec d7 b2 62 8a 94 3a d4 73 dc 32 eb 47 d5 b1
       -2.5136982e-08 0.0011332745 2.5664043e-08 -6.207292e-09
000020 19 c1 d0 b2 82 ee 2a b1 44 a4 ef b2 57 b6 e7 37
       -2.4302198e-08 -2.4873832e-09 -2.7897961e-08 2.7622254e-05

bias f4 [12]
000000 b0 b7 cd 30 ea ac 7d b3 f0 d2 e5 32 da f2 9d 32
       1.496792e-09 -5.9063417e-08 2.6755032e-08 1.8387642e-08
000010 f1 31 03 31 41 2f 9d b4 3a 12 14 36 ed 9f 47 b2
       1.9091397e-09 -2.927791e-07 2.2064328e-06 -1.1619687e-08
000020 ef da 02 33 00 e2 3e 32 3f 88 02 34 5b 69 e9 b4
       3.0467103e-08 1.1110842e-08 1.215676e-07 -4.3476288e-07

running_mean f4 [12]
000000 03 75 28 b3 79 c3 10 bc 56 c7 d1 b8 e5 7b f0 36
       -3.922197e-08 -0.008835667 -0.00010003026 7.1669806e-06
000010 3f bd 5d 33 05 e7 29 31 8f 1c 0b b1 3d 7b 07 31
       5.162769e-08 2.4724056e-09 -2.0243396e-09 1.9715138e-09
000020 8b 67 8b 32 f1 4b b8 b1 98 12 6c b1 17 97 18 32
       1.6228816e-08 -5.3637383e-09 -3.435309e-09 8.881918e-09

running_var f4 [12]
000000 b3 34 a4 2a 2f 0a 44 3a b5 af 00 34 60 86 de 30
       2.916882e-13 0.0007478324 1.1984851e-07 1.6190818e-09
000010 c4 b5 d6 2a 95 ff 3e 27 2b 7a a8 27 4c a1 43 27
       3.8140162e-13 2.6506348e-15 4.676182e-15 2.7149125e-15
000020 96 99 33 29 5b 83 19 28 3a 93 82 27 aa 42 32 29
       3.98792e-14 8.521689e-15 3.624187e-15 3.958176e-14

weight f4 [16, 12, 1]
000000 df 3a 7a 39 1a 99 7b 32 82 c8 68 3a 5f c9 bf 35
       0.00023863789 1.4644934e-08 0.00088799756 1.4289216e-06
000010 5a 48 a7 b2 c5 9d bb 34 0f c3 e9 34 66 8f 5a b0
       -1.947426e-08 3.4946257e-07 4.3541556e-07 -7.951172e-10
000020 07 f2 c9 b8 d2 bf f3 34 50 71 83 b1 ac 7d 8f ba
       -9.629508e-05 4.5401845e-07 -3.825484e-09 -0.0010947487
000030 66 84 e4 b3 69 74 54 33 00 2f 11 b3 83 22 29 33
       -1.06411605e-07 4.946597e-08 -3.380319e-08 3.9379767e-08
000040 86 34 9c 30 03 3a 07 b3 20 41 ba 31 46 b4 8f b3
       1.1365422e-09 -3.14849e-08 5.4207163e-09 -6.691748e-08
000050 31 bd a8 32 59 e8 af b1 33 ff 3a 32 43 21 93 32
       1.9643808e-08 -5.119585e-09 1.08846505e-08 1.7128178e-08
000060 36 35 f2 32 97 f7 a3 33 5c ee b9 b1 ba 5f 83 33
       2.8196705e-08 7.635315e-08 -5.411307e-09 6.1175754e-08
000070 5c 9c ae 2f fc 58 9f b1 c8 b9 f6 31 14 33 83 b2
       3.1761516e-10 -4.6376254e-09 7.180663e-09 -1.5273635e-08
000080 ba 24 27 b1 ac 76 a3 31 18 59 ea b1 60 2d 33 2e
       -2.4322575e-09 4.757416e-09 -6.820425e-09 4.074019e-11
000090 13 42 63 b1 9d f9 dd b4 b5 c0 0a 33 7c 81 8b 30
       -3.3070406e-09 -4.1346075e-07 3.2305895e-08 1.0150383e-09
0000a0 5f 41 23 b5 fa aa fd b2 bc df 91 b7 45 ce b3 b4
       -6.081736e-07 -2.9530828e-08 -1.7389531e-05 -3.349143e-07
0000b0 4b 63 1d 33 2e a8 c6 b4 4f 03 4f b2 d0 06 29 33
       3.6644717e-08 -3.700274e-07 -1.2049738e-08 3.9354575e-08
0000c0 bc ea 81 b3 92 09 03 32 d5 6b 00 b3 a8 55 8e 30
       -6.0497285e-08 7.62738e-09 -2.9900395e-08 1.0356205e-09
0000d0 15 ed 9d b3 2b 5d af b6 1c b7 b6 b2 90 6a f5 39
       -7.354007e-08 -5.2262526e-06 -2.1270857e-08 0.00046809437
0000e0 b5 20 b7 30 be b8 4e b2 e1 df 3e 32 c1 98 59 b5
       1.3324298e-09 -1.2032784e-08 1.111036e-08 -8.1061086e-07
0000f0 d0 b2 a7 2f 01 00 2d 34 70 71 55 35 38 29 cb 32
       3.0504177e-10 1.6111882e-07 7.9513757e-07 2.3651054e-08
000100 05 90 6a 3b d7 6d 83 3c 70 f4 85 31 46 3e 8a b1
       0.0035791409 0.016043587 3.8985988e-09 -4.0234083e-09
000110 b5 64 1d b6 2c b1 a9 31 19 63 7b 3a 78 9e 85 30
       -2.3453442e-06 4.9386895e-09 0.0009589657 9.722063e-10
000120 ef 30 00 b2 77 8f 29 b1 f5 a9 6b b1 0a 09 73 31
       -7.461707e-09 -2.4674287e-09 -3.429361e-09 3.5366292e-09
000130 4f 81 42 b1 30 85 aa af 31 45 c6 b1 04 8e d8 30
       -2.830422e-09 -3.1017455e-10 -5.7704246e-09 1.5756432e-09
000140 99 30 71 b2 a8 e2 a4 33 89 f8 9d b2 e1 ed e9 b1
       -1.4039096e-08 7.6780736e-08 -1.8390226e-08 -6.808236e-09
000150 37 f4 25 35 1d c0 6d 39 26 bf 10 31 3d f1 5f 32
       6.182267e-07 0.00022673649 2.1063413e-09 1.303516e-08
000160 ea bb fb b5 31 d1 ab 39 ee 7d 6c b2 58 fd 9f 32
       -1.8755647e-06 0.0003277152 -1.3765641e-08 1.8625244e-08
000170 c5 65 06 b4 3b c1 ba b2 b6 a4 8c b3 f7 42 8b 36
       -1.2516746e-07 -2.1741121e-08 -6.549219e-08 4.1503185e-06
000180 89 1e a9 31 60 33 9c b2 7c 11 a9 30 98 5c 1a 36
       4.922019e-09 -1.8184153e-08 1.2301338e-09 2.3001685e-06
000190 76 e1 b5 35 8f 8c 28 b4 ea a5 1b 31 90 28 99 32
       1.3551169e-06 -1.5697354e-07 2.264978e-09 1.782999e-08
0001a0 5b 2d ee b1 fd 2e 5b 33 ae 55 4a 32 6e ad 98 b2
       -6.931868e-09 5.1032647e-08 1.1777429e-08 -1.7773996e-08
0001b0 f4 dc 04 b2 f7 49 e6 b3 c4 be 1c 31 82 86 a5 33
       -7.73365e-09 -1.0723664e-07 2.2809425e-09 7.707878e-08
0001c0 3d 45 0d 3b 24 82 60 3b 8c 1f 35 34 d2 01 00 b1
       0.0021556162 0.0034257257 1.6868415e-07 -1.8627486e-09
0001d0 00 b3 31 3c eb d9 d7 3a b7 50 1b b4 58 30 c4 3a
       0.0108459 0.0016468143 -1.4464864e-07 0.0014968021
0001e0 a5 ed a3 3b 13 9f c6 39 e8 33 f5 3b 69 05 c1 36
       0.0050026947 0.00037884022 0.0074829943 5.752478e-06
0001f0 83 48 38 34 17 56 24 b7 19 8b 13 32 6c fd a4 38
       1.7162715e-07 -9.795206e-06 8.588153e-09 7.867333e-05
000200 84 bf 0e 34 02 eb 6f 32 40 75 c9 b1 07 e6 c8 af
       1.3294454e-07 1.39650655e-08 -5.8631997e-09 -3.6543232e-10
000210 74 c1 d0 38 ae dd 07 b4 09 5c 30 3b fb c7 5c b3
       9.954246e-05 -1.2653501e-07 0.0026910326 -5.1404623e-08
000220 25 ea f6 3a 50 51 6c b5 dc ec 90 32 98 d2 91 b0
       0.0018838091 -8.8035176e-07 1.6871518e-08 -1.0609993e-09
000230 4e 71 69 38 b2 99 24 33 16 7f 74 b3 e4 fb 0b 33
       5.5657052e-05 3.832401e-08 -5.692626e-08 3.2592553e-08
000240 01 31 c8 32 0a 51 6c 32 49 ef 31 39 3c 14 3c 33
       2.3305349e-08 1.3755434e-08 0.00016969176 4.3790564e-08
000250 4a 0b 29 33 3e 26 08 33 b8 af 33 b2 51 8d 63 32
       3.9358646e-08 3.169975e-08 -1.0459125e-08 1.3245271e-08
000260 48 e0 9e 31 a3 00 13 34 65 20 40 3a 2b cd b9 b1
       4.623903e-09 1.3690673e-07 0.0007329046 -5.4075335e-09
000270 1f ee 0a 33 3f 68 0e 36 7d 8c d6 32 9a 7c 2b 32
       3.23472e-08 2.1220328e-06 2.4976766e-08 9.981841e-09
000280 38 ac e9 31 6a 99 7e 31 61 7d 43 b2 9f 79 21 b1
       6.8007715e-09 3.704907e-09 -1.1379002e-08 -2.3497717e-09
000290 f6 31 1c b2 0b 13 8a 31 62 21 22 31 e2 41 1f 31
       -9.091755e-09 4.0184935e-09 2.3593079e-09 2.3174995e-09
0002a0 58 9e f1 31 7a 9b 8a ba 28 f4 8d 38 7f 2f bb b2
       7.0320247e-09 -0.00105749 6.7688816e-05 -2.1791264e-08
0002b0 35 39 26 34 17 f4 69 b1 ce d4 09 b4 2c d8 ae 33
       1.5480767e-07 -3.4044711e-09 -1.2836537e-07 8.141828e-08
0002c0 4e ea b0 b3 37 bc 07 bc 02 37 16 3a 0a 6a 22 34
       -8.2382584e-08 -0.00828462 0.00057302427 1.5126002e-07
0002d0 bd 25 a2 bb 08 80 8e 33 cb f4 d6 32 f6 15 ce 31
       -0.0049483464 6.635679e-08 2.5024198e-08 5.9978857e-09
0002e0 bc 6f 6c 3a e6 65 d0 3a 7e 3a 1d 32 6a 41 9f ba
       0.0009019335 0.0015899509 9.151902e-09 -0.0012150232
0002f0 24 67 92 3a 56 68 fe b4 a0 3f 44 32 b7 b6 47 37
       0.0011169654 -4.73871e-07 1.1423168e-08 1.1903866e-05

bias f4 [16]
000000 91 87 09 30 c8 cf 18 b1 bc ec 9e 30 ec 48 ab 30
       5.003296e-10 -2.2237021e-09 1.1563297e-09 1.2462613e-09
000010 f0 e0 79 b0 19 6f 20 b1 50 04 c4 30 8a 14 b3 30
       -9.090533e-10 -2.3346216e-09 1.4262103e-09 1.3029802e-09
000020 29 81 36 30 bc 64 b1 2f 11 1d 93 30 c2 68 a2 b0
       6.639476e-10 3.2267689e-10 1.0703919e-09 -1.1816825e-09
000030 07 5d 49 b0 4e 29 8c b0 8a 27 90 b0 e7 97 4d 30
       -7.3255574e-10 -1.019808e-09 -1.0488617e-09 7.479443e-10

weight f4 [16]
000000 de d6 38 b2 a9 31 a6 b2 59 70 41 31 27 32 99 39
       -1.0759065e-08 -1.9347526e-08 2.8149059e-09 0.000292198
000010 8a d1 30 b3 2d 47 5d 32 50 44 6e 2e cf c9 28 b2
       -4.1168768e-08 1.2880077e-08 5.417561e-11 -9.824773e-09
000020 d2 10 75 b3 93 5c 43 35 31 70 8e 31 3d 95 63 3b
       -5.7058806e-08 7.2777874e-07 4.1454986e-09 0.0034726404
000030 9e d6 ca 31 5a 8c 09 b2 86 6f 97 b4 43 09 d8 31
       5.903373e-09 -8.006362e-09 -2.8207086e-07 6.2874803e-09

bias f4 [16]
000000 38 dd 0c b2 82 17 5b b1 00 3c 12 b4 37 55 5e 36
       -8.199372e-09 -3.1882057e-09 -1.3619137e-07 3.313018e-06
000010 f2 3a 71 b2 37 8c 46 36 04 3b 59 32 9f 2d 76 b1
       -1.4041449e-08 2.9585915e-06 1.2644481e-08 -3.5823644e-09
000020 b7 53 30 b4 bb 7e d1 b1 a7 c9 8f 31 80 84 67 af
       -1.6421733e-07 -6.097108e-09 4.184773e-09 -2.1056401e-10
000030 a4 77 17 32 d6 27 41 b2 73 48 56 32 c0 e0 c6 31
       8.81656e-09 -1.1243136e-08 1.24729125e-08 5.7881095e-09

running_mean f4 [16]
000000 5a 16 4e 31 49 fc 85 af 10 f7 7d 2f a7 8e a7 2c
       2.998965e-09 -2.4371818e-10 2.309799e-10 4.762263e-12
000010 23 6e 94 2e e2 05 9b 30 85 ea 36 2f d3 f7 0b 30
       6.749825e-11 1.1279406e-09 1.6636122e-10 5.0920085e-10
000020 34 24 85 2f 71 23 15 31 3f 60 4c 32 03 45 a9 31
       2.4218283e-10 2.17025e-09 1.1896247e-08 4.926393e-09
000030 ea af a0 30 fa e0 2e af 99 23 7a 2f f2 60 5a 30
       1.169153e-09 -1.5905136e-10 2.2750014e-10 7.9445706e-10

running_var f4 [16]
000000 18 d2 b0 2b e9 95 26 28 3a ee 63 27 6f 4c 99 28
       1.2563865e-12 9.247358e-15 3.1631721e-15 1.701956e-14
000010 cf 43 48 2a 6e 92 da 2b 13 75 b0 26 02 fa 0c 2a
       1.7787094e-13 1.5530474e-12 1.2244186e-15 1.2521237e-13
000020 4a 1d 58 29 3f 34 79 2b 33 22 30 2c 10 9e 94 2b
       4.798704e-14 8.8535077e-13 2.5030089e-12 1.0559904e-12
000030 7e eb e4 2a 8b 7b 35 27 cc 44 9c 2a 6d 56 30 2b
       4.0664341e-13 2.5185769e-15 2.7758904e-13 6.26477e-13

weight f4 [16, 16, 1]
000000 35 30 af 31 30 4a 1e b0 bd 62 10 32 ec c4 f8 32
       5.098651e-09 -5.758549e-10 8.404354e-09 2.896055e-08
000010 aa a3 02 b4 f4 d0 aa 32 f4 fb 06 b3 09 c5 83 b9
       -1.2166734e-07 1.9885626e-08 -3.1428456e-08 -0.0002513307
000020 c4 50 f4 af 2e 6b e2 b2 3d dd 20 38 af 74 3c 3b
       -4.444073e-10 -2.6358602e-08 3.8353017e-05 0.0028756072
000030 17 67 b0 b2 51 05 2e b4 9d 69 7c b6 44 98 62 b3
       -2.0535976e-08 -1.6206947e-07 -3.7612401e-06 -5.275821e-08
000040 41 cc 91 b2 a6 88 2a b2 f0 21 c6 b1 90 49 88 32
       -1.6973106e-08 -9.926373e-09 -5.7664167e-09 1.5865936e-08
000050 7d d4 4a b6 23 aa 6e b2 bf a2 a7 b2 a3 bf fb b4
       -3.022403e-06 -1.3892108e-08 -1.9515367e-08 -4.6891827e-07
000060 19 e0 dc 34 74 09 20 b4 b8 d6 bd 31 26 35 45 b2
       4.1141246e-07 -1.49046e-07 5.5250347e-09 -1.1478994e-08
000070 80 00 5f b2 ed 1e 22 b2 8a e7 fe b5 b9 4f db b3
       -1.2980422e-08 -9.436673e-09 -1.8991861e-06 -1.0212484e-07
000080 db 4e 97 3b dc d4 65 3a ac e3 f6 31 3e e3 bf 31
       0.0046175546 0.0008767375 7.1854256e-09 5.584666e-09
000090 4c 52 ac 33 f7 d1 82 b5 6c 18 0e b2 ea d5 44 33
       8.024344e-08 -9.746863e-07 -8.271041e-09 4.582936e-08
0000a0 fd fa 31 33 b8 f1 e2 35 25 2a 8a 39 ba b8 db 3c
       4.1439296e-08 1.6908662e-06 0.0002635281 0.026821483
0000b0 e8 dd e8 32 3e 5f 42 b2 e3 bc 4b 3d df 01 0c 3a
       2.7109266e-08 -1.1313942e-08 0.049740683 0.0005340855
0000c0 7e 94 78 af c9 20 e2 32 83 12 b2 33 a8 08 b3 35
       -2.2608224e-10 2.6324772e-08 8.292138e-08 1.3339059e-06
0000d0 e9 9a 80 33 fc c6 99 b1 f4 fe 72 33 a4 fd 91 b0
       5.9886425e-08 -4.475508e-09 5.6576894e-08 -1.0622228e-09
0000e0 da 07 0d 3a 2b 4a 2f 32 a9 ff 7e 36 0a 24 99 ba
       0.0005379893 1.02032045e-08 3.7997763e-06 -0.0011683714
0000f0 b8 17 c6 33 26 b2 02 32 76 2e ec 3a e0 17 ad ba
       9.224408e-08 7.607502e-09 0.0018019218 -0.0013205968
000100 3d b9 70 ba 39 a4 e4 34 8c 3c 00 3c 23 23 77 b6
       -0.0009182876 4.2587797e-07 0.0078269355 -3.682632e-06
000110 37 77 f4 b2 ca 86 68 32 42 14 c6 35 2f 28 1e b2
       -2.8459551e-08 1.3534825e-08 1.4758045e-06 -9.205947e-09
000120 5e 3a 4a b2 5d a1 f2 b1 18 14 b1 32 2f c5 08 b2
       -1.1771219e-08 -7.061472e-09 2.061465e-08 -7.961076e-09
000130 5b 94 a4 b5 58 5b b8 b1 26 93 9a 31 fa 66 30 b2
       -1.2262129e-06 -5.3654894e-09 4.4987187e-09 -1.02679625e-08
000140 60 76 ca 3a 63 e3 aa 31 6e cf b9 b1 40 31 f9 37
       0.0015446655 4.973502e-09 -5.4077907e-09 2.9706047e-05
000150 ea a4 5e 38 dc 3a ca b0 36 f2 56 31 a2 19 04 30
       5.3082513e-05 -1.4714163e-09 3.127878e-09 4.8057747e-10
000160 06 10 8c b2 fb f0 bc 31 73 ea 8b 39 09 02 24 b1
       -1.6305432e-08 5.4989164e-09 0.00026686824 -2.3866298e-09
000170 04 50 48 33 5f 33 5b 37 ab 29 02 b3 24 77 d4 3b
       4.6638903e-08 1.3065378e-05 -3.030588e-08 0.006483929
000180 da ef b3 31 09 05 27 b2 21 29 20 b9 27 b5 96 bb
       5.2368536e-09 -9.721824e-09 -0.00015274111 -0.0045992318
000190 1e 58 19 b2 02 4f 91 31 0c 9e 34 b0 6e 5a 8a 38
       -8.925808e-09 4.2290376e-09 -6.5708217e-10 6.5971966e-05
0001a0 72 b4 79 b0 99 34 05 33 b7 78 22 bc a5 88 59 bb
       -9.08421e-10 3.1014313e-08 -0.009916476 -0.0033193019
0001b0 f9 fa 2d 3c 5e a6 1d b4 ba f0 0f b3 73 3a 6c b3
       0.010618919 -1.4682288e-07 -3.351372e-08 -5.500119e-08
0001c0 6b 95 67 32 7a 72 7d 35 ff 52 39 b4 76 07 71 b2
       1.3479943e-08 9.441643e-07 -1.7259661e-07 -1.4029743e-08
0001d0 59 2a 3f b4 18 96 d1 30 a0 a6 49 af f9 54 2a 31
       -1.7803667e-07 1.5249411e-09 -1.834004e-10 2.4786557e-09
0001e0 32 38 18 32 24 bb 28 31 46 ae 09 34 c5 96 f6 31
       8.860342e-09 2.4553595e-09 1.282252e-07 7.176683e-09
0001f0 f8 85 71 2f bf 0b e2 b1 31 9a f4 33 24 62 c4 32
       2.1966418e-10 -6.578801e-09 1.1390183e-07 2.2862032e-08
000200 bf 0c b4 31 33 4e 92 34 cb 94 c1 37 b1 81 ad b4
       5.2401385e-09 2.7251517e-07 2.307668e-05 -3.2318124e-07
000210 2c 43 60 b1 67 1e c7 31 97 10 65 32 c9 94 83 3b
       -3.2634473e-09 5.7951186e-09 1.3333326e-08 0.0040155393
000220 d1 cf 7a b3 f5 b6 20 34 39 65 e1 3a e5 68 dc 3d
       -5.839667e-08 1.496772e-07 0.0017196304 0.107621945
000230 c4 1d 90 bb 61 fc f4 b3 e0 69 08 33 8e 5d b3 34
       -0.0043980796 -1.1408043e-07 3.176126e-08 3.3409418e-07
000240 1a af b0 b5 56 3e 60 33 95 ee b2 b1 01 89 60 b9
       -1.3163983e-06 5.221076e-08 -5.2076055e-09 -0.00021413343
000250 e6 3f 89 b8 9e 82 27 32 ba b4 6c b3 c0 7d d8 32
       -6.544571e-05 9.750378e-09 -5.51124e-08 2.5202894e-08
000260 2a b4 a6 b2 e9 42 d9 31 10 25 c5 31 dc 87 61 3c
       -1.9406873e-08 6.323138e-09 5.737668e-09 0.013765302
000270 cc 49 d8 38 2c fb a4 33 04 c3 2f 3c c3 4d c0 bc
       0.00010313428 7.682533e-08 0.010727648 -0.02347458
000280 ad 3f 0b b6 28 7a 9b b0 13 12 8b 31 69 d7 95 ba
       -2.0749678e-06 -1.1312453e-09 4.0474872e-09 -0.0011431995
000290 be 20 8b b3 fa 04 a3 b2 a3 84 36 39 08 c5 66 b6
       -6.478648e-08 -1.897796e-08 0.00017406284 -3.4387358e-06
0002a0 41 e6 d7 b2 e6 04 8a 3c 09 8b 70 b2 33 6f ad bc
       -2.5134002e-08 0.016848039 -1.40014516e-08 -0.021171188
0002b0 6b 6a b8 34 d8 b3 5a ba da 04 08 37 1e 37 ec 3a
       3.43501e-07 -0.0008342839 8.107361e-06 0.0018021797
0002c0 52 03 17 b4 9f c0 05 b4 44 0f 4d b1 34 c5 6f b2
       -1.4064179e-07 -1.2456665e-07 -2.9840104e-09 -1.395647e-08
0002d0 7d 35 3a 32 04 cf 7d b3 54 d0 5a b2 eb fa 5a 34
       1.0838787e-08 -5.9094432e-08 -1.2736638e-08 2.0394116e-07
0002e0 74 9d cb 31 7c fb 3f b3 13 7a 6d b1 60 d0 2d 39
       5.925978e-09 -4.4699377e-08 -3.455743e-09 0.00016576191
0002f0 e7 24 95 31 44 24 57 b0 3d ab 3c 33 91 12 36 b2
       4.340666e-09 -7.826808e-10 4.39279e-08 -1.0598016e-08
000300 a3 7a 2c 38 10 f3 c0 bb 50 f4 0e 32 b0 ca 03 b1
       4.112221e-05 -0.0058883503 8.321038e-09 -1.9178223e-09
000310 b5 6a 28 33 fc 07 05 b0 1b 8b 98 3b ba 72 47 ba
       3.9212598e-08 -4.8396465e-10 0.0046552545 -0.0007608343
000320 a9 04 15 33 04 bf da b4 58 d7 04 b2 40 ea 4b b2
       3.4696004e-08 -4.0744646e-07 -7.732375e-09 -1.18694174e-08
000330 23 54 4c 34 1a 6a 17 32 91 09 36 b1 33 2c 7c 32
       1.9029589e-07 8.8134815e-09 -2.6489924e-09 1.467838e-08
000340 d2 07 f2 34 e2 00 97 3c 30 c4 9a b1 bc ce 71 32
       4.5081703e-07 0.018433038 -4.504294e-09 1.4075052e-08
000350 fb 9e 8c 36 97 ba 9e b2 4a fe 15 b2 22 4d a9 33
       4.190833e-06 -1.8478472e-08 -8.73076e-09 7.883706e-08
000360 2f 24 06 33 fc 30 28 33 59 69 0a 39 ac c7 b6 32
       3.1232215e-08 3.91601e-08 0.0001319995 2.1278389e-08
000370 33 78 76 33 c6 8f 77 31 34 95 c5 35 64 37 c2 b2
       5.738566e-08 3.6024956e-09 1.4721068e-06 -2.2609761e-08
000380 0c ba 9e 34 bd 4e 4f b1 ad 5f cc b2 b7 31 a3 33
       2.956516e-07 -3.0167222e-09 -2.3792234e-08 7.599322e-08
000390 ea a1 35 b1 02 c5 f8 31 65 2a e7 b3 56 97 f1 31
       -2.6431004e-09 7.240147e-09 -1.0764487e-07 7.031228e-09
0003a0 38 ab e2 31 b7 44 b5 b2 be 1e 88 b2 c1 ea 97 bb
       6.596931e-09 -2.1102421e-08 -1.5846464e-08 -0.004636139
0003b0 1e 4c df 31 ca c2 9a 31 41 dc ad b3 c4 50 8c b2
       6.4988077e-09 4.504135e-09 -8.096004e-08 -1.6334873e-08
0003c0 4a a0 47 30 12 82 8c 32 90 c0 12 30 df f4 df b4
       7.262356e-10 1.6357294e-08 5.338814e-10 -4.1715154e-07
0003d0 ce ff bb b2 27 e1 aa 35 b7 f5 9c b2 84 f9 27 32
       -2.1885992e-08 1.2731515e-06 -1.8272528e-08 9.777413e-09
0003e0 38 81 e7 32 9a 73 70 31 1c ef 0c b8 a9 4a 37 31
       2.6950701e-08 3.4990308e-09 -3.360129e-05 2.6672444e-09
0003f0 aa 30 26 32 b0 52 0b b2 53 4a 19 32 db c5 cd 32
       9.673537e-09 -8.109666e-09 8.9226715e-09 2.3955115e-08

bias f4 [16]
000000 e2 06 00 b0 3a 67 1b b0 26 17 73 b0 8e 74 ee 30
       -4.657591e-10 -5.6535365e-10 -8.843578e-10 1.7349906e-09
000010 eb fc 23 30 94 f6 bd af 1e fc be af 51 26 4d b0
       5.965847e-10 -3.4554104e-10 -3.473994e-10 -7.4633016e-10
000020 de cc 81 30 70 8d 15 30 7b f0 27 b0 c4 9e 99 30
       9.444212e-10 5.440688e-10 -6.109599e-10 1.1177339e-09
000030 25 37 aa b0 c0 45 61 30 de 77 17 30 5d e7 44 30
       -1.2384801e-09 8.1953644e-10 5.510382e-10 7.163317e-10

weight f4 [16]
000000 f1 f4 8b b3 2e d2 54 33 87 75 97 38 cc 26 88 34
       -6.5172465e-08 4.9551254e-08 7.222132e-05 2.5360202e-07
000010 b5 d7 cf b5 40 fa ac 31 cd f0 a1 31 e4 89 43 b3
       -1.5485481e-06 5.034309e-09 4.7130926e-09 -4.5527386e-08
000020 fd 4b a9 b2 53 dd ea 3c b9 1a 94 b3 63 c3 05 32
       -1.9708745e-08 0.028669989 -6.896648e-08 7.786045e-09
000030 6f 21 57 30 d6 3c 8d 32 bf 07 3a 31 f2 56 0d b2
       7.8264056e-10 1.6442225e-08 2.7070965e-09 -8.227049e-09

bias f4 [16]
000000 a8 03 87 b1 85 27 6a b2 05 9f d9 35 c7 8a 75 32
       -3.929433e-09 -1.3629578e-08 1.6214041e-06 1.4292431e-08
000010 d1 c2 ea 35 6f 97 00 b5 e6 76 c4 b0 c9 0b 81 32
       1.7491058e-06 -4.790408e-07 -1.429467e-09 1.5022936e-08
000020 9e 35 0f b6 f3 eb 6c 37 fa 34 00 b2 b0 71 f0 b1
       -2.133987e-06 1.4121632e-05 -7.462626e-09 -6.997844e-09
000030 79 2f 80 31 26 c9 33 36 8d a2 23 b2 1e 9a 74 32
       3.7306873e-09 2.6790162e-06 -9.5248085e-09 1.42377115e-08

running_mean f4 [16]
000000 dc 9c cd 30 eb c4 10 af 1b 01 dc 31 c5 39 2b b0
       1.4960295e-09 -1.3166683e-10 6.4029684e-09 -6.2291533e-10
000010 5b 60 38 32 bc c7 fd 2f c0 b4 c4 b2 dd 90 94 ae
       1.0732118e-08 4.6162352e-10 -2.2899599e-08 -6.755994e-11
000020 5d ea 62 32 9a cf 1e 31 2e 87 24 b2 8f 04 26 30
       1.3208219e-08 2.3110034e-09 -9.576793e-09 6.0396926e-10
000030 dd 2c 5a af ef 70 2f 2f ff ba f9 b0 b3 4c 4b 2e
       -1.9842923e-10 1.595628e-10 -1.8170282e-09 4.622498e-11

running_var f4 [16]
000000 72 42 8b 2d 9b 88 8b 29 18 af b6 2e 0e f3 0e 2d
       1.5831978e-11 6.196537e-14 8.307505e-11 8.1257345e-12
000010 56 3c a5 27 9f 16 bd 27 3d 76 b3 2d 7f 4f 48 28
       4.5862116e-15 5.2482564e-15 2.0402452e-11 1.1119468e-14
000020 2d 4f 18 2f b9 8f 1f 2e 69 f9 3c 2e 49 55 78 2c
       1.3852448e-10 3.6280066e-11 4.296777e-11 3.5290262e-12
000030 45 0b 96 29 8d e1 e3 29 b2 2d a3 2d 8f af d0 27
       6.663293e-14 1.0119952e-13 1.8551247e-11 5.792194e-15

weight f4 [4, 16, 1]
000000 9c d0 e2 b3 af 15 6a b3 b5 80 1b 3b a6 ce 16 b8
       -1.0561891e-07 -5.450209e-08 0.0023727838 -3.5955243e-05
000010 85 f3 12 ba 39 ab c3 31 15 ab b8 b2 4a 05 67 3b
       -0.0005605745 5.6947127e-09 -2.1498218e-08 0.0035250955
000020 03 cb 74 3c 28 45 41 3e df e3 c9 b6 d7 1c 50 3b
       0.01494098 0.18874037 -6.0167945e-06 0.003175547
000030 17 a4 ce bb 8b d9 29 32 22 5c 6c b9 ac 4f 0b b1
       -0.006306182 9.886558e-09 -0.00022541036 -2.027245e-09
000040 8a 8b f2 b2 aa 27 83 ba 9b a0 d3 b1 16 0d 14 b2
       -2.8235963e-08 -0.0010006328 -6.159167e-09 -8.617709e-09
000050 1f 30 75 b6 71 0f 27 31 aa 00 d2 34 80 8b 13 b3
       -3.6535855e-06 2.4310476e-09 3.911603e-07 -3.435298e-08
000060 8a f4 b9 34 92 e1 9f b5 ff b2 98 b3 d2 b3 82 b2
       3.463686e-07 -1.1912073e-06 -7.110611e-08 -1.5215765e-08
000070 fb fe 3a 34 86 93 2c 32 50 5c 98 31 3a 58 3f 37
       1.7415361e-07 1.0045261e-08 4.434277e-09 1.1405029e-05
000080 12 e7 8b 34 75 69 14 b3 ce b7 c3 b2 a9 f8 18 ba
       2.6058893e-07 -3.4554848e-08 -2.2784572e-08 -0.0005835393
000090 b2 1a 8e 3b 63 2a fe 35 72 d3 0b b6 43 06 e5 31
       0.0043366784 1.8936811e-06 -2.0835691e-06 6.665489e-09
0000a0 82 24 11 bc 1e cf 0d 34 94 85 1e b5 59 77 8b 33
       -0.008858802 1.3206997e-07 -5.905397e-07 6.494401e-08
0000b0 67 2c 2c b6 ca 53 05 34 72 c5 ef 32 13 ee d1 b1
       -2.5655843e-06 1.2417073e-07 2.791305e-08 -6.1097665e-09
0000c0 ac f1 c4 3d dc 7b 42 bc c4 f3 45 3e c3 ef 1b 3d
       0.09616408 -0.011870351 0.1933127 0.03807045
0000d0 37 b3 9d bd 7b c9 8b bc 95 05 79 32 36 db e8 3d
       -0.07700198 -0.017063847 1.4494977e-08 0.11369936
0000e0 be 1e 33 3d 4c 15 44 3e 17 4d af 3a 43 ec 12 3e
       0.04373049 0.19148749 0.0013374415 0.14347939
0000f0 05 34 8d 32 ef c7 24 bd 85 91 a4 3c 01 09 c3 ba
       1.6438216e-08 -0.040229734 0.02008892 -0.0014880003

bias f4 [4]
000000 b5 7f ac af b0 94 5d b0 00 57 13 2c 28 0c c5 2f
       -3.137736e-10 -8.061063e-10 2.0938251e-12 3.584273e-10

weight f4 [4]
000000 ea 05 fe 39 46 14 d8 31 73 c2 05 3c 5c d1 78 3e
       0.00048451062 6.288732e-09 0.008164036 0.24298614

bias f4 [4]
000000 32 ce 79 bd 91 24 9b 35 d0 a1 37 bc f1 ef 81 bc
       -0.06098766 1.1559042e-06 -0.011208013 -0.015861483

running_mean f4 [4]
000000 02 00 f7 36 67 e4 9d ae 33 60 9c 32 45 22 ff 36
       7.3611745e-06 -7.180106e-11 1.8204537e-08 7.6035817e-06

running_var f4 [4]
000000 3b cb 19 32 1c b8 67 2c d8 ad a4 2a 32 08 29 32
       8.951981e-09 3.2929276e-12 2.925288e-13 9.838958e-09

weight f4 [2, 4, 1]
000000 89 89 8c 35 8e 1e 8c b4 a5 31 8c bd d1 97 cb bd
       1.0470841e-06 -2.6099264e-07 -0.068454064 -0.09941066
000010 4a 27 1c be be 22 08 bd d7 86 96 3d 6c 90 9c be
       -0.15249363 -0.033236258 0.073499374 -0.30578935

bias f4 [2]
000000 ac 7c e6 30 51 fc b7 b0
       1.6770136e-09 -1.3386715e-09

weight f4 [2]
000000 f1 bc 68 3e 5e 3c 47 3e
       0.22728325 0.19456622

bias f4 [2]
000000 13 28 90 be 0a 27 94 be
       -0.28155574 -0.28936034

running_mean f4 [2]
000000 27 96 44 b5 c1 2f cd b5
       -7.323419e-07 -1.5287588e-06

running_var f4 [2]
000000 c1 03 c9 34 a6 2c ad 35
       3.74419e-07 1.2902499e-06

weight f4 [1, 2]
000000 7e a2 86 3d 5e 7d fe 3c
       0.06573962 0.03106564
