experiments_generated_data/obs_5_pred_2/models/tcn.pt (torch, 5832 bytes, 7 tensors)

weight f4 [2, 5, 1]
00000000: 1ff5 d1b9 1c09 2cba 47bc abb8 31f7 5539
00000010: e5d8 8aba 71f7 493a 06b6 cc39 97ca a339
00000020: 5dc6 2e3a 2be6 1b39
-0.00040046216 -0.00065626367 -8.188985e-05 0.00020405349 -0.0010593204 0.0007704413 0.0003904553 0.00031240724
0.00066671317 0.00014867696

bias f4 [2]
00000000: 5f8c 869c 7911 0280
-8.903661e-22 -1.89939e-40

weight f4 [2]
00000000: 3608 ad3a e3c0 fabb
0.00132013 -0.0076523884

bias f4 [2]
00000000: 316f 6cbb 68cf 50bc
-0.0036077017 -0.012744762

running_mean f4 [2]
00000000: 86d3 b3b9 a868 cd39
-0.00034299138 0.00039178622

running_var f4 [2]
00000000: 1059 8735 4378 a835
1.0084204e-06 1.2551976e-06

weight f4 [1, 2]
00000000: 759f dabd 2b6f 863e
-0.10674945 0.2625669
