experiments_generated_data/obs_5_pred_2/models/tcn_lstm.pt (torch, 272222 bytes, 53 tensors)

weight f4 [20, 5, 1]
-1.0395e-41 -7.2118e-41 -1.8571e-41 -3.2793e-41 2.032e-42 -3.0906e-41 3.6532e-41 3.64607e-40
9.8036e-41 -1.68841e-40 2.5011e-40 -2.81653e-40 3.134178e-39 -5.5263e-41 3.09136e-38 -1.9206e-41
-1.7558e-41 -7.9187e-41 2.166e-42 2.6414e-41 -8.3132e-41 5.9425e-41 -2.5743e-41 1.15262e-40
2.4383e-41 -5.92884e-40 -4.2328e-41 -4.59126e-40 3.73532e-40 -1.56398e-40 1.679e-40 -2.07935e-39
-3.413734e-39 1.21771e-40 5.9314e-41 -1.54408e-40 1.5407e-40 -8.1369e-41 -6.9007e-41 -7.7468e-41
1.5266863e-35 -1.0004e-40 3.3988e-41 2.434319e-39 -5.3374e-41 8.4065e-41 -5.0154e-41 7.796e-41
-6.5198e-41 1.165e-41 3.2978e-41 2.7164e-41 -8.999804e-39 6.227e-42 -2.5099e-41 -7.6144e-41
-9.512e-42 6.1588e-41 -8.65163e-40 6.798e-42 -2.632e-41 5.8497e-41 -1.7431e-41 -3.116e-41
7.0267e-41 3.596e-42 -2.605e-42 -1.4688e-41 2.5766e-41 -2.51711e-40 5.0826e-41 1.3558e-41
5.3413e-41 -7.2464e-41 1.5661e-41 4.8154e-41 -1.17287e-40 -6.5132e-41 8.3272e-41 -1.60004e-40
-9.9086e-41 -7.031e-41 2.3194e-41 2.68703e-40 4.9658e-40 -1.1345e-41 -2.593e-41 -6.04e-42
-1.2837e-41 -1.41035e-40 -6.9678e-41 8.4165e-41 -3.8262e-41 -6.5581e-41 -1.0399e-41 -2.391e-41
-2.1629e-41 1.5631e-41 4.7843e-41 7.3738e-41
00000000: fa1c 0080 09c9 0080 c533 0080 6a5b 0080
00000010: aa05 0000 2756 0080 d665 0000 60f8 0300
00000020: 4911 0100 a9d6 0180 34b9 0200 2211 0380
00000030: d020 2200 0d9a 0080 454f 2801 8a35 0080
00000040: f230 0080 bedc 0080 0a06 0000 a249 0000
00000050: bde7 0080 a7a5 0000 c347 0080 4e41 0100
00000060: f843 0000 b874 0680 fe75 0080 dbff 0480
00000070: 4111 0400 f9b3 0180 09d4 0100 62a4 1680
00000080: 1a2c 2580 7353 0100 58a5 0000 6dae 0180
00000090: 7cad 0100 d3e2 0080 5dc0 0080 f3d7 0080
000000a0: 5b58 a205 df16 0180 bf5e 0000 e481 1a00
000000b0: c994 0080 57ea 0000 cf8b 0080 52d9 0000
000000c0: bfb5 0080 7a20 0000 ee5b 0000 b94b 0000
000000d0: cbff 6180 5c11 0000 f745 0080 42d4 0080
000000e0: 841a 0080 afab 0000 b96b 0980 f312 0000
000000f0: 5f49 0080 11a3 0000 9730 0080 dd56 0080
00000100: e0c3 0000 060a 0000 4307 0080 f228 0080
00000110: d347 0000 abbd 0280 af8d 0000 cb25 0000
00000120: e594 0000 00ca 0080 a82b 0000 3c86 0000
00000130: f346 0180 90b5 0080 21e8 0000 07be 0180
00000140: 3614 0180 ffc3 0080 a840 0000 09ed 0200
00000150: 4368 0500 a01f 0080 4848 0080 d610 0080
00000160: c923 0080 2689 0180 3cc2 0080 9eea 0000
00000170: a96a 0080 d0b6 0080 fd1c 0080 a742 0080
00000180: 4b3c 0080 932b 0000 5e85 0000 8dcd 0000

bias f4 [20]
-5.101616e-39 3.03985e-40 8.19203e-40 3.8938e-41 -6.0678e-41 -1.227495e-39 -1.28152e-40 -1.58132e-40
-1.450047e-39 -4.3199e-41 -3.17e-43 -1.03206e-39 1.36833e-40 -1.12133e-40 3.98426e-40 8.231991e-39
-1.901346e-39 9.92373e-40 3.1458e-41 3.506333e-39
00000000: 3b8d 3780 634f 0300 9beb 0800 8b6c 0000
00000010: 25a9 0080 c25d 0d80 3c65 0180 cfb8 0180
00000020: 24ca 0f80 6c78 0080 e200 0080 f73c 0b80
00000030: 6f7d 0100 9538 0180 a656 0400 71a3 5900
00000040: 2eb4 1480 55ce 0a00 b157 0000 3b2e 2600

weight f4 [20]
-5.204e-41 2.87605e-40 -9.3998e-41 -9.0146e-41 -1.4405e-41 -4.0178e-41 -8.4676e-41 7.276e-42
9.96766e-40 9.16e-43 1.196e-41 3.2953e-41 -8.236e-41 2.7562e-41 -4.9619e-41 -7.5545e-41
1.5351e-41 -1.24606e-40 6.1845e-41 -2.6197e-41
00000000: 1191 0080 ba21 0300 0706 0180 4afb 0080
00000010: 2828 0080 0070 0080 0bec 0080 4814 0000
00000020: 94da 0a00 8e02 0000 5721 0000 dc5b 0000
00000030: 96e5 0080 d54c 0000 518a 0080 97d2 0080
00000040: cb2a 0000 5a5b 0180 66ac 0000 0749 0080

bias f4 [20]
-9.0197e-41 -6.5249e-41 2.03606e-40 -3.41006e-40 -7.629e-41 -2.3749e-41 2.938e-41 -2.343e-41
-4.2793e-41 -7.5337e-41 3.7218e-41 -8.063e-42 4.9773e-41 -2.8019e-41 4.0126e-41 7.873e-41
-8.8903e-41 2.6604e-41 -6.2347e-41 -9.9698e-41
00000000: 6ffb 0080 e3b5 0080 9237 0200 96b6 0380
00000010: aad4 0080 3442 0080 e651 0000 5041 0080
00000020: 4a77 0080 02d2 0080 c067 0000 7a16 0080
00000030: bf8a 0000 1b4e 0080 db6f 0000 78db 0000
00000040: d3f7 0080 294a 0000 ccad 0080 eb15 0180

running_mean f4 [20]
-1.51e-43 -9.77e-43 2.06009e-39 -1.1e-44 -7.3e-44 6e-45 -4.4522e-41 9.2e-44
3.2695234e-36 -6e-45 3.47507e-40 -1.43e-43 6e-45 6e-45 -2e-44 1.0573e-41
-8.23e-43 1.4e-44 6e-45 3.9e-44
00000000: 6c00 0080 b902 0080 b16e 1600 0800 0080
00000010: 3400 0080 0400 0000 1c7c 0080 4200 0000
00000020: f511 8b04 0400 0080 b5c8 0300 6600 0080
00000030: 0400 0000 0400 0000 0e00 0080 791d 0000
00000040: 4b02 0080 0a00 0000 0400 0000 1c00 0000

running_var f4 [20]
6e-45 6e-45 6e-45 6e-45 6e-45 6e-45 6e-45 6e-45
6e-45 6e-45 6e-45 6e-45 6e-45 6e-45 6e-45 6e-45
6e-45 6e-45 6e-45 6e-45
00000000: 0400 0000 0400 0000 0400 0000 0400 0000
00000010: 0400 0000 0400 0000 0400 0000 0400 0000
00000020: 0400 0000 0400 0000 0400 0000 0400 0000
00000030: 0400 0000 0400 0000 0400 0000 0400 0000
00000040: 0400 0000 0400 0000 0400 0000 0400 0000

weight f4 [12, 20, 1]
2.0489e-40 3.77117e-40 1.7636875e-30 -2.2834e-41 5.45182e-39 -8.26e-41 7.4197e-41 -3.5827e-41
9.443099e-34 -1.057075e-39 2.503006e-39 2.22127e-40 1.0822e-41 -6.0302e-41 -7.5618e-41 -1.614706e-39
-1.1292e-41 -9.61092e-40 9.081e-41 -1.20369e-40 -1.096872e-39 -5.7923e-41 -1.3348748e-33 -7.9315e-40
-2.201629e-39 -5.556e-42 -1.00027e-40 -5.3722e-41 1.6955503e-36 -7.2058e-41 -7.6339e-41 1.33398e-40
7.965e-42 -2.6871e-41 1.0074e-41 7.3204e-41 8.698e-42 2.847e-40 -1.8285324e-38 -1.89289e-39
-3.0751e-41 2.379e-41 6.1022e-41 6.8315e-41 -2.11428e-40 -1.9897e-41 6.0958e-41 4.2458e-41
-3.1931e-41 6.5466e-41 -4.02e-41 -8.9407e-41 -1.8259e-41 5.876e-41 7.7475e-41 -1.6729e-41
3.9699e-41 -3.821e-42 -5.7389e-41 -1.23377e-40 1.2769617e-38 -8.0905e-41 -1.615808e-38 4.892e-41
-2.595e-41 2.95338e-40 -5.8696e-41 9.813e-42 7.9091247e-38 -7.761e-41 4.6334e-41 5.5717e-41
2.0247e-41 4.5825e-41 -2.55094e-40 -1.76997e-40 -1.66843e-40 -1.30161e-40 -7.203e-41 -2.04627e-40
6.2845e-41 1.47248e-40 -2.52681e-40 2.593e-41 1.013e-41 1.6844e-41 -6.0753e-41 -1.6115e-41
3.0435e-41 -5.8974e-41 4.33038e-40 5.1133e-41 1.704e-42 -4.668e-41 -1.55526e-40 -3.2425e-41
8.0512e-41 6.0673e-41 -3.38659e-39 -3.07284e-40 -8.9006e-41 1.54056e-40 2.702e-42 1.41982e-40
-3.634e-42 -4.6708e-41 -9.7309e-41 7.1498e-41 7.0136e-41 -3.31229e-40 5.0657e-41 2.1478e-41
-8.4673e-41 -4.4637e-41 -2.74734e-40 5.2317e-41 1.7331e-41 -7.4817e-41 -6.3725e-41 -7.65918e-40
-1.1024e-41 -8.5825e-41 -2.3204e-41 8.2866e-41 -1.0958e-41 1.8483e-41 7.6103e-41 -4.7535e-41
-1.5029e-41 -1.52194e-40 2.4447e-41 -2.4289e-41 -2.5782e-41 1.0553e-41 1.69832e-40 -5.8912e-41
-2.2118e-41 -4.5403e-41 -5.9159e-41 1.06017e-40 -1.1781323e-30 -1.0952638e-38 -2.6134e-41 1.1701493e-35
1.19672e-40 3.7147e-41 2.9766e-41 -2.73121e-40 -3.1887468e-37 -2.64e-41 -5.030905e-39 1.26313e-40
-6.4412e-41 -1.233e-41 3.2376e-41 3.728541e-39 5.2776e-41 -7.4298e-41 4.7415e-40 1.86768e-40
-7.399e-42 5.675e-42 -5.3345e-41 -8.123e-41 3.2289e-41 1.40682e-40 1.7614e-41 -3.011e-42
-1.802e-42 3.8104e-41 -3.7241e-41 -1.02585e-40 1.63889e-40 -1.9688e-41 -8.956e-42 2e-41
1.2127e-41 5.803e-41 -2.532e-42 -1.8756e-41 -4.93135e-40 -7.2405e-41 -2.05701e-40 -8.3142e-41
7.7095e-41 -2.6347e-41 6.414e-42 -1.71564e-40 3.4534e-41 -1.27295e-40 -4.983e-42 5.7544e-41
1.43e-41 4.7676e-41 -1.43224e-40 6.278e-41 8.524e-42 7.5953e-41 -2.73686e-40 7.997e-41
-8.0174e-41 -2.0589867e-35 -1.836068e-39 6.1972e-41 -4.75895e-40 3.8672e-41 2.2341e-41 5.1594e-41
3.058836e-38 -1.62032e-40 3.2794e-40 7.642e-41 7.0674e-41 1.7603e-41 -3.2384e-41 8.228215e-35
-3.646e-42 1.380083e-39 4.5305e-41 7.8212123e-38 -1.6577e-41 -8.221676e-39 -7.436e-41 -5.0943e-41
-1.3482e-41 -6.057937e-36 6.91143e-40 1.328e-42 1.28676e-40 4.3213e-41 -6.681e-42 1.6091e-41
7.522219e-39 1.7317e-41 -8.9613e-41 1.1404895e-33 -1.15468e-40 2.22252e-40 3.746e-42 3.14817e-40
00000000: 263b 0200 401b 0400 5b16 0f0e a73f 0080
00000010: 755d 3b00 41e6 0080 d5ce 0000 df63 0080
00000020: 80e6 9c08 b282 0b80 5d41 1b00 336b 0200
00000030: 2b1e 0000 19a8 0080 cbd2 0080 2595 1180
00000040: 7a1f 0080 2277 0a80 24fd 0000 8a4f 0180
00000050: a2f1 0b80 77a1 0080 4bcb dd88 fba2 0880
00000060: 3ff9 1780 7d0f 0080 d616 0180 c195 0080
00000070: d13d 1004 dec8 0080 cdd4 0080 dc73 0100
00000080: 3416 0000 e84a 0080 151c 0000 10cc 0000
00000090: 3f18 0000 a119 0300 0b1c c780 9b9c 1480
000000a0: b955 0080 5142 0000 1baa 0000 6fbe 0000
000000b0: 604d 0280 7737 0080 eda9 0000 5b76 0000
000000c0: 0359 0080 7eb6 0000 1070 0080 3bf9 0080
000000d0: e632 0080 cda3 0000 f8d7 0000 a22e 0080
000000e0: aa6e 0000 a70a 0080 fa9f 0080 ed57 0180
000000f0: 7f0c 8b00 88e1 0080 27f2 af80 5e88 0000
00000100: 5748 0080 4837 0300 9fa3 0080 5b1b 0000
00000110: 8e4e d701 58d8 0080 2981 0000 519b 0000
00000120: 7138 0000 be7f 0000 19c7 0280 65ed 0180
00000130: 17d1 0180 d66a 0180 cac8 0080 6b3a 0280
00000140: 30af 0000 789a 0100 5fc0 0280 4848 0000
00000150: 3d1c 0000 f42e 0000 5ba9 0080 ec2c 0080
00000160: d754 0000 65a4 0080 22b7 0400 8a8e 0000
00000170: c004 0000 2082 0080 8bb1 0180 635a 0080
00000180: 6fe0 0000 22a9 0000 6fe0 2480 9558 0380
00000190: 1df8 0080 72ad 0100 8807 0000 ca8b 0100
000001a0: 210a 0080 3482 0080 420f 0180 4fc7 0000
000001b0: 83c3 0000 559b 0380 368d 0000 df3b 0000
000001c0: 09ec 0080 6e7c 0080 d9fd 0280 d791 0000
000001d0: 5030 0000 8fd0 0080 a4b1 0080 1157 0880
000001e0: bb1e 0080 3fef 0080 af40 0080 ffe6 0000
000001f0: 8c1e 0080 8633 0000 25d4 0000 8284 0080
00000200: e529 0080 41a8 0180 2644 0000 b543 0080
00000210: df47 0080 6b1d 0000 6cd9 0100 39a4 0080
00000220: a83d 0080 917e 0080 e9a4 0080 8827 0100
00000230: b329 bf8d 8043 7780 da48 0080 fddc 7805
00000240: 994d 0100 8d67 0000 fa52 0000 5af9 0280
00000250: ce03 d982 9849 0080 1ec8 3680 1c60 0100
00000260: 8eb3 0080 5f22 0080 405a 0000 a899 2800
00000270: 1e93 0000 1dcf 0080 bd29 0500 a208 0200
00000280: a014 0080 d20f 0000 b494 0080 70e2 0080
00000290: 025a 0000 2a88 0100 1a31 0000 6508 0080
000002a0: 0605 0080 386a 0000 d067 0080 f71d 0180
000002b0: dbc8 0100 e236 0080 f718 0080 c037 0000
000002c0: ce21 0000 c4a1 0000 0f07 0080 4934 0080
000002d0: a95e 0580 d6c9 0080 693d 0280 c4e7 0080
000002e0: e9d6 0000 7249 0080 e111 0000 40de 0180
000002f0: 4460 0000 d962 0180 e40d 0080 69a0 0000
00000300: dd27 0000 e784 0000 408f 0180 01af 0000
00000310: c317 0000 bad3 0000 edfa 0280 ecde 0000
00000320: 7edf 0080 f3f2 da85 36fe 1380 c1ac 0000
00000330: 9a2e 0580 cd6b 0000 473e 0000 d38f 0000
00000340: f489 2601 aec3 0180 2a92 0300 07d5 0000
00000350: 03c5 0000 1231 0000 465a 0080 54be da06
00000360: 2a0a 0080 1c07 0f00 4b7e 0000 e5e9 d401
00000370: 362e 0080 b086 5980 49cf 0080 028e 0080
00000380: 9525 0080 8cd6 0085 a086 0700 b403 0000
00000390: b266 0100 7678 0000 a012 0080 db2c 0000
000003a0: e3e8 5100 4630 0000 cef9 0080 0f7f bd08
000003b0: e141 0180 8c6b 0200 710a 0000 956d 0300

bias f4 [12]
-4.485502e-39 -1.42012e-39 9.011886e-39 1.651369e-39 4.99398e-40 -3.5541e-40 -4.49443e-40 2.029212e-39
-1.009878e-39 2.5775e-40 5.522852e-39 1.081781e-39
00000000: c1d7 3080 b776 0f80 7921 6200 58fb 1100
00000010: 1e70 0500 bdde 0380 dde4 0480 9e18 1600
00000020: 21ff 0a80 81ce 0200 7723 3c00 91c7 0b00

weight f4 [12]
1.5263202e-38 9.113869e-39 -7.5621e-41 6.116e-41 -5.3825e-41 8.7475e-41 -6.5508e-41 5.6395e-41
-2.8104e-41 -2.7261e-41 -2.78787e-40 -4.565e-41
00000000: 9933 a600 c23d 6300 cdd2 0080 7daa 0000
00000010: 0b96 0080 d8f3 0000 9cb6 0080 359d 0000
00000020: 584e 0080 fe4b 0080 2509 0380 417f 0080

bias f4 [12]
6.9081e-41 -1.23732e-40 -3.9787e-41 7.3642e-41 -1.0801e-41 -3.5177e-41 1.2022e-41 9.7128e-41
6.935e-42 -8.8293e-41 3.4075e-41 2.1147e-41
00000000: 92c0 0000 ea58 0180 e96e 0080 49cd 0000
00000010: 1c1e 0080 0f62 0080 8321 0000 c10e 0100
00000020: 5513 0000 20f6 0080 fd5e 0000 f33a 0000

running_mean f4 [12]
6e-45 -6e-45 -6e-45 -6e-45 -6e-45 -6e-45 -6e-45 -6e-45
-6e-45 6e-45 6e-45 6e-45
00000000: 0400 0000 0400 0080 0400 0080 0400 0080
00000010: 0400 0080 0400 0080 0400 0080 0400 0080
00000020: 0400 0080 0400 0000 0400 0000 0400 0000

running_var f4 [12]
6e-45 6e-45 6e-45 6e-45 6e-45 6e-45 6e-45 6e-45
6e-45 6e-45 6e-45 6e-45
00000000: 0400 0000 0400 0000 0400 0000 0400 0000
00000010: 0400 0000 0400 0000 0400 0000 0400 0000
00000020: 0400 0000 0400 0000 0400 0000 0400 0000

weight f4 [8, 12, 1]
1.4651742e-19 4.0301654e-18 -1.403e-42 2.46343e-40 5.1242815e-19 1.7393e-41 -6.0246e-41 3.4903253e-37
9.467118e-34 7.9741e-41 1.342604e-34 -4.2846e-41 -7.2079e-41 -2.633804e-39 2.1502e-41 1.18916e-40
8.01397e-40 4.5677e-41 2.53564e-40 -2.0793e-40 8.4016e-41 3.1097e-40 -6.3187e-41 5.7404e-41
-9.635e-42 7.58e-42 -6.774e-42 7.4105e-41 8.0492e-41 -4.8645e-41 -8.8509e-41 -2.136e-41
7.1266e-41 -3.4703e-41 -3.3983e-41 -5.555e-42 -5.6391845e-15 -1.90766e-40 -2.17e-41 8.4999e-41
2.0969e-41 7.7799e-41 -1.6813e-41 -2.321996e-38 -8.604e-42 -3.731594e-38 -3.3220628e-38 -2.0897278e-35
1.847e-42 7.0305e-41 1.1322e-41 1.1534406e-38 -1.3189e-41 6.3137e-41 -2.3575e-41 5.381e-42
4.5856e-41 -1.51075e-40 8.4664e-41 7.5672e-41 -6.969e-41 -4.4788e-41 -3.0333e-41 -1.118e-41
5.7655e-41 1.9258e-41 -2.9064e-41 7.4604e-41 -1.6453e-41 -7.1454e-41 2.2578e-41 3.1714e-41
-6.3337e-41 -9.24e-42 -5.765e-41 -8.9996e-41 3.6196e-41 -4.8601e-41 8.0269e-41 -1.15044e-40
1.635624e-39 7.9727e-41 -1.664895e-39 -7.876e-41 -6.80525e-40 1.49195e-40 -2.162e-42 -2.81e-41
5.1943e-41 -9.1959e-41 3.7254e-41 -1.27312e-40 7.2283e-41 2.93003e-40 7.9469e-41 -2.4104e-41
00000000: 2cfa 2c20 d6af 9422 e903 0080 b4ae 0200
00000010: fa3d 1721 7c30 0000 f1a7 0080 0b8a ed02
00000020: ab4c 9d08 49de 0000 7276 3207 7077 0080
00000030: edc8 0080 f9ad 1c80 f03b 0000 7d4b 0100
00000040: f8b9 0800 547f 0000 d5c2 0200 a043 0280
00000050: 34ea 0000 dc62 0300 24b0 0080 05a0 0000
00000060: dc1a 0080 2115 0000 e212 0080 93ce 0000
00000070: 61e0 0000 9a87 0080 baf6 0080 8b3b 0080
00000080: a9c6 0000 bd60 0080 bb5e 0080 7c0f 0080
00000090: 4c2c cba7 c713 0280 7e3c 0080 f1ec 0000
000000a0: 743a 0000 dfd8 0000 de2e 0080 cdd7 fc80
000000b0: fc17 0080 d42a 4b81 ccde 3481 cd37 de85
000000c0: 2605 0000 fbc3 0000 901f 0000 3b99 7d00
000000d0: c424 0080 00b0 0000 b841 0080 000f 0000
000000e0: d47f 0000 23a5 0180 02ec 0000 f1d2 0000
000000f0: 44c2 0080 da7c 0080 8e54 0080 2a1f 0080
00000100: b8a0 0000 af35 0000 0551 0080 f7cf 0000
00000110: dd2d 0080 2fc7 0080 f03e 0000 6858 0000
00000120: 8fb0 0080 c219 0080 b4a0 0080 dffa 0080
00000130: e664 0000 7b87 0080 c2df 0000 b240 0180
00000140: 74cf 1100 3fde 0000 0d21 1280 8ddb 0080
00000150: 0769 0780 e59f 0100 0706 0080 554e 0080
00000160: cc90 0000 5800 0180 d967 0000 e562 0180
00000170: 7fc9 0000 c630 0300 87dd 0000 3143 0080

bias f4 [8]
-6.89537e-39 1.03688e-40 -2.28676e-40 -6.9786e-41 -1.311313e-39 -4.066225e-39 -6.058559e-39 4.28277e-40
00000000: 7c15 4b80 0a21 0100 757d 0280 89c2 0080
00000010: 6847 0e80 fb46 2c80 ccf8 4180 dda9 0400

weight f4 [8]
4.7972e-41 -5.3661e-41 4.4805e-41 7.417e-42 8.5301e-41 6.5117e-41 -2.5442e-41 8.2744e-41
00000000: ba85 0000 9695 0080 e67c 0000 ad14 0000
00000010: c9ed 0000 85b5 0000 ec46 0080 a8e6 0000

bias f4 [8]
3.9026e-41 -7.0028e-41 7.9782e-41 -1.70984e-40 3.845e-42 -2.0217e-41 -1.926e-40 7.7731e-41
00000000: ca6c 0000 36c3 0080 66de 0000 a2dc 0180
00000010: b80a 0000 5b38 0080 e418 0280 afd8 0000

running_mean f4 [8]
7.33301e-40 6e-45 6e-45 6e-45 6e-45 -6e-45 -6e-45 -6e-45
00000000: 25fc 0700 0400 0000 0400 0000 0400 0000
00000010: 0400 0000 0400 0080 0400 0080 0400 0080

running_var f4 [8]
6e-45 6e-45 6e-45 6e-45 6e-45 6e-45 6e-45 6e-45
00000000: 0400 0000 0400 0000 0400 0000 0400 0000
00000010: 0400 0000 0400 0000 0400 0000 0400 0000

weight f4 [6, 8, 1]
6.871113e-39 -3.3812e-41 6.7714e-41 -4.4041e-41 -8.79e-41 -1.366e-42 -8.1281e-41 1.6008e-41
7.4227e-41 -9.2096e-41 4.1345e-41 9.0494e-41 -1.47887e-40 -6.641e-41 1.0996e-41 8.3524e-41
-1.869223e-39 -8.0975e-41 4.8883e-41 2.45226e-40 -1.8263096e-37 -3.1978e-41 -2.449251e-39 1.2533e-41
-1.7506793e-38 8.6732e-41 3.5461e-41 1.5933e-41 4.384e-41 -8.5308e-41 -2.5038e-41 9.32432e-40
-1.16189e-40 2.17344e-40 -4.1846e-41 1.122659e-39 -7.1658e-41 2.4274777e-38 1.033868e-39 1.7444375e-38
-3.1089e-41 -1.8248e-41 3.3043e-41 8.1812e-41 3.065e-41 5.517e-42 8.3244e-41 -5.5652e-40
00000000: ded1 4a00 415e 0080 c2bc 0000 c57a 0080
00000010: 08f5 0080 cf03 0080 94e2 0080 a02c 0000
00000020: eace 0000 ba00 0180 4173 0000 43fc 0000
00000030: 409c 0180 20b9 0080 a71e 0000 d5e8 0000
00000040: a25a 1480 bae1 0080 4488 0000 97ab 0200
00000050: 9a95 7882 2459 0080 84ab 1a80 f022 0000
00000060: d1a1 be80 c6f1 0000 da62 0000 6a2c 0000
00000070: 357a 0000 ceed 0080 cc45 0080 3e27 0a00
00000080: e343 0180 de5d 0200 a674 0080 8439 0c00
00000090: c1c7 0080 1a2a 0401 0142 0b00 d2f3 bd00
000000a0: aa56 0080 de32 0080 1c5c 0000 0fe4 0000
000000b0: 7155 0000 610f 0000 0de8 0000 5a0f 0680

bias f4 [6]
-1.17118e-39 -3.87549e-40 6.64364e-40 -1.394824e-39 -6.74095e-40 -2.18104e-40
00000000: c6c0 0c80 5438 0480 fa3b 0700 3430 0f80
00000010: 1a57 0780 fc5f 0280

weight f4 [6]
1.2542e-41 -7.68769e-40 5.7008e-41 2.741e-41 -1.92477e-40 -6.3763e-41
00000000: f622 0000 045f 0880 ea9e 0000 684c 0000
00000010: 8c18 0280 bfb1 0080

bias f4 [6]
8.6578e-41 2.0551e-41 -2.6707e-41 8.9299e-41 5.688e-42 -1.8487e-40
00000000: 58f1 0000 4a39 0000 734a 0080 eef8 0000
00000010: db0f 0000 5803 0280

running_mean f4 [6]
-6e-45 6e-45 6e-45 -6e-45 -6e-45 6e-45
00000000: 0400 0080 0400 0000 0400 0000 0400 0080
00000010: 0400 0080 0400 0000

running_var f4 [6]
6e-45 6e-45 6e-45 6e-45 6e-45 6e-45
00000000: 0400 0000 0400 0000 0400 0000 0400 0000
00000010: 0400 0000 0400 0000

weight f4 [10, 6, 1]
1.102e-41 -6.7922e-41 2.6997e-40 5.2599e-41 -8.8055e-41 2.2017e-41 1.02268e-40 8.2124e-41
-5.7595e-41 -5.9793e-41 -9.7572e-41 -6.2925e-41 2.066e-42 4.1843e-41 2.40316e-40 -5.7253e-41
-1.2109e-41 -2.5843e-41 1.019882e-39 4.4131e-41 2.1848e-40 -1.9841e-41 -2.179e-41 2.28423e-40
-7.1923e-41 -8.3554e-41 1.4411e-40 -5.4534e-41 -5.5283e-41 1.3783e-41 -2.79259e-40 -2.9057e-41
2.9733e-41 -1.12339e-40 -8.3768e-41 -3.8906e-41 -2.5644e-41 7.7284e-41 -4.9973e-41 -7.7587e-41
6.0397e-41 1.09298e-40 3.7907e-41 -1.69308e-40 -1.6989e-40 -4.32731e-40 -5.3535e-41 1.28746e-40
6.1668e-41 -5.0589656e-32 -6.238551e-34 -7.621113e-38 -1.258499e-39 -5.9533e-41 -9.153e-42 -7.9875e-41
1.14527e-40 1.9503e-41 -2.22266e-40 6.4091e-41
00000000: b81e 0000 57bd 0080 91f0 0200 a092 0000
00000010: 76f5 0080 603d 0000 151d 0100 eee4 0000
00000020: 8da0 0080 aea6 0080 fe0f 0180 69af 0080
00000030: c205 0000 a474 0000 e79d 0200 999f 0080
00000040: c121 0080 0a48 0080 041b 0b00 057b 0000
00000050: 0961 0200 4f37 0080 be3c 0080 c07c 0200
00000060: 7ec8 0080 eae8 0080 b891 0100 0598 0080
00000070: 1b9a 0080 6c26 0000 760a 0380 0051 0080
00000080: e252 0000 2839 0180 83e9 0080 746c 0080
00000090: 7c47 0080 70d7 0000 4e8b 0080 48d8 0080
000000a0: 5da8 0000 ae30 0100 ab69 0000 f6d7 0180
000000b0: 96d9 0180 47b6 0480 3c95 0080 e466 0100
000000c0: e8ab 0000 9856 838b b94f 4f88 6877 cf81
000000d0: 2fb4 0d80 f4a5 0080 8419 0080 a9de 0080
000000e0: 413f 0100 5e36 0000 966b 0280 a9b2 0000

bias f4 [10]
-4.63192e-40 1.483298e-39 -5.7403e-41 -2.31473e-40 3.022008e-39 -9.51304e-40 2.486945e-39 5.582075e-39
2.567026e-39 2.785825e-39
00000000: 310b 0580 d526 1000 04a0 0080 4185 0280
00000010: 21e8 2000 d95b 0a80 9714 1b00 8ec8 3c00
00000020: d3f3 1b00 bf55 1e00

weight f4 [10]
-1.75447e-40 3.6954e-41 7.4574e-41 -4.5738e-41 -8.4418e-41 5.373e-41 8.3531e-41 -2.0893e-41
-2.009954e-39 4.7804e-41
00000000: 13e9 0180 0367 0000 e2cf 0000 807f 0080
00000010: 53eb 0080 c795 0000 dae8 0000 3e3a 0080
00000020: efe2 1580 4285 0000

bias f4 [10]
-7.602e-42 7.2933e-41 8.3016e-41 2.2529e-41 3.27161e-40 6.744e-42 -1.13898e-40 7.0033e-41
-6.8072e-41 -6.082e-41
00000000: 3115 0080 4fcb 0000 6ae7 0000 cd3e 0000
00000010: fe8f 0300 cd12 0000 803d 0180 39c3 0000
00000020: c2bd 0080 8ba9 0080

running_mean f4 [10]
-6e-45 6e-45 -6e-45 -6e-45 6e-45 -6e-45 6e-45 -6e-45
6e-45 -6e-45
00000000: 0400 0080 0400 0000 0400 0080 0400 0080
00000010: 0400 0000 0400 0080 0400 0000 0400 0080
00000020: 0400 0000 0400 0080

running_var f4 [10]
6e-45 6e-45 6e-45 6e-45 6e-45 6e-45 6e-45 6e-45
6e-45 6e-45
00000000: 0400 0000 0400 0000 0400 0000 0400 0000
00000010: 0400 0000 0400 0000 0400 0000 0400 0000
00000020: 0400 0000 0400 0000

weight f4 [18, 10, 1]
-4.8304e-41 6.523e-42 3.9566e-41 8.0825e-41 8.7437e-41 -1.08606e-40 -1.23456e-40 -2.3158e-41
7.5199e-41 -6.3e-41 -1.53994e-40 -2.0156e-41 4.045e-41 2.283e-41 7.043e-41 7.1653e-41
-8.3723e-41 1.495595e-39 -2.6332e-41 -4.7533e-41 -7.5076e-41 -1.3901e-41 6.41774e-40 -1.01359e-40
-6.4433e-41 -4.1172e-41 -1.3256e-41 -2.65351e-40 6.3818e-41 -3.4321e-40 -7.5362e-41 -2.426e-41
2.1259e-41 -1.36953e-40 1.08472e-40 -1.54694e-40 2.8517e-40 3.63e-43 2.9797e-41 1.7654e-41
-2.4834e-41 -3.2177e-41 -7.1176e-41 1.6078e-41 -6.7436e-41 -4.9635e-41 7.1392e-41 -1.34337e-40
1.44844e-40 -4.1324e-41 9.54645e-39 1.58131e-40 -9.0822e-41 -2.7608e-41 2.4981e-41 -6.7652e-41
2.7485e-41 6.2338e-41 8.2542e-41 6.9471e-41 5.6195e-41 -2.5008e-41 2.0778e-41 8.8185e-41
-9.102e-41 5.2218e-40 5.19694e-40 -7.158e-41 7.956e-41 2.86942e-40 -8.9165e-41 -4.7693e-40
-6.8339e-41 8.7144e-41 3.7073e-40 -9.1257e-41 7.5316e-41 -3.2917e-41 1.33902e-40 6.2865e-41
9.8461e-41 -8.8453e-41 4.128e-42 2.5854e-41 -7.7968e-41 -1.0591e-41 3.3897e-40 -8.2336e-41
-2.15956e-40 -1.11434e-40 -1.63433e-40 -2.5483e-41 3.80778e-40 5.2731e-41 3.6551e-41 -3.80153e-40
1.40329e-40 -1.51047e-40 -2.04894e-40 2.46921e-40 -1.7993e-41 -6.3821e-41 -3.6296e-41 8.816e-42
2.5684e-41 -2.2042e-41 -2.458e-41 4.5951e-41 -1.6042e-41 1.7295e-41 -1.01978e-40 -8.203e-42
8.833e-41 1.53874e-40 -1.84672e-40 5.146e-41 2.4513e-41 1.08884e-40 5.1416e-41 -3.8729e-41
-8.8992e-41 -4.886e-42 -9.005e-42 -5.72948e-40 9.4868e-41 -1.5731e-41 9.861e-42 -2.3242e-41
-4.1149e-41 -2.8324e-41 2.5988e-41 -2.22e-41 -7.32e-42 -5.398e-41 5.4812e-41 2.6867e-41
2.9602e-41 7.59916e-40 -4.76447e-40 -1.1145e-41 -4.014e-41 7.4602e-41 4.804e-41 4.8747e-41
9.4396e-41 -8.9397e-41 -5.352e-41 -4.212e-42 4.06007e-40 6.6864e-41 4.51908e-40 1.259288e-39
-8.2242e-41 -2.1405e-41 1.9202e-41 3.68108e-40 -2.2021e-41 -6.0696e-41 -4.3146e-41 -2.5701e-40
-2.5605e-40 -5.7117e-41 -2.96445e-40 -4.1177e-41 -2.2833e-41 -1.03015e-40 9.878e-42 -7.6012e-41
-4.0876e-41 -2.90879e-40 6.7534e-41 -7.205e-42 -1.2408e-41 -5.6879e-41 -7.6521e-41 -2.8414e-41
-9.2194e-41 4.017242e-39 -7.724524e-38 3.6558e-41
00000000: a786 0080 2f12 0000 4b6e 0000 4fe1 0000
00000010: bdf3 0000 c02e 0180 2558 0180 8e40 0080
00000020: a0d1 0000 9eaf 0080 46ad 0180 3038 0080
00000030: c270 0000 a43f 0000 55c4 0000 bdc7 0000
00000040: 63e9 0080 1c49 1000 6749 0080 8184 0080
00000050: 48d1 0080 c026 0080 01fd 0600 8c1a 0180
00000060: 9db3 0080 c572 0080 f424 0080 b1e3 0280
00000070: e6b1 0000 bbbc 0380 14d2 0080 a143 0080
00000080: 433b 0000 c57d 0180 602e 0100 39af 0180
00000090: f01a 0300 0301 0000 1053 0000 3631 0000
000000a0: 3a45 0080 b259 0080 69c6 0080 d22c 0000
000000b0: fcbb 0080 5d8a 0080 03c7 0000 7a76 0180
000000c0: c493 0100 3273 0080 9ef3 6700 ceb8 0100
000000d0: 2dfd 0080 f64c 0080 a345 0000 96bc 0080
000000e0: 9e4c 0000 c6ad 0000 18e6 0000 a8c1 0000
000000f0: a69c 0000 b645 0080 ec39 0000 d3f5 0000
00000100: bafd 0080 a0af 0500 b2a8 0500 89c7 0080
00000110: c8dd 0000 e11f 0300 8ef8 0080 7d31 0580
00000120: 80be 0080 ecf2 0000 7209 0400 63fe 0080
00000130: f3d1 0000 c25b 0080 4475 0100 3eaf 0000
00000140: 7812 0100 92f6 0080 820b 0000 1248 0000
00000150: 58d9 0080 861d 0080 e9b0 0300 85e5 0080
00000160: ff59 0280 a236 0180 96c7 0180 0947 0080
00000170: 7425 0400 fe92 0000 e465 0000 b623 0480
00000180: 2e87 0100 0fa5 0180 293b 0280 51b0 0200
00000190: 2832 0080 e8b1 0080 2e65 0080 9318 0000
000001a0: 9947 0000 723d 0080 8544 0080 1880 0000
000001b0: b82c 0080 3630 0000 461c 0180 de16 0080
000001c0: 3af6 0000 f0ac 0100 ca02 0280 738f 0000
000001d0: 5544 0000 862f 0100 548f 0000 f66b 0080
000001e0: 13f8 0080 9f0d 0080 1a19 0080 253d 0680
000001f0: 7408 0100 da2b 0080 7d1b 0000 ca40 0080
00000200: b572 0080 f54e 0080 7248 0000 e23d 0080
00000210: 6814 0080 7996 0080 cb98 0000 e54a 0000
00000220: 8552 0000 5646 0800 2430 0580 111f 0080
00000230: e56f 0080 f6cf 0000 ea85 0000 e387 0000
00000240: 2307 0100 34f9 0080 3195 0080 be0b 0080
00000250: c86b 0400 64ba 0000 bceb 0400 62b6 0d00
00000260: 42e5 0080 ab3b 0080 8735 0000 2302 0400
00000270: 633d 0080 32a9 0080 4678 0080 70cc 0280
00000280: c3c9 0280 389f 0080 5e3a 0380 c972 0080
00000290: a63f 0080 2a1f 0180 891b 0000 e4d3 0080
000002a0: f271 0080 da2a 0380 42bc 0000 1614 0080
000002b0: 9722 0080 8e9e 0080 4fd5 0080 354f 0080
000002c0: 0001 0180 70be 2b00 1348 d281 e965 0000

bias f4 [18]
-7.46554e-40 -6.59657e-40 -5.4949e-40 -2.47843e-40 -7.52139e-40 2.8715e-41 4.24532e-40 9.87634e-40
-1.13956e-40 4.35432e-40 6.69775e-39 2.165533e-39 -7.54198e-40 -9.9774e-41 4.161827e-39 -6.53204e-40
1.644893e-39 8.26934e-40
00000000: 1721 0880 db2e 0780 c1fb 0580 e3b2 0280
00000010: a830 0880 0c50 0000 6c9f 0400 1fc1 0a00
00000020: aa3d 0180 cfbd 0400 9aee 4800 a094 1700
00000030: 6636 0880 2116 0180 7b51 2d00 de1c 0780
00000040: 4be9 1100 2801 0900

weight f4 [18]
9.8975e-41 -9.529e-41 3.266e-42 5.8751e-41 7.47e-41 -8.88761e-40 -7.2684e-41 -2.046e-42
2.72376e-40 6.6116e-41 -1.07346e-40 2.2454e-41 -6.9919e-41 3.377e-42 -2.7643e-41 -8.0747e-41
-6.5955e-41 7.31e-42
00000000: e713 0100 a109 0180 1b09 0000 c6a3 0000
00000010: 3cd0 0000 81ad 0980 9dca 0080 b405 0080
00000020: 46f7 0200 4eb8 0000 3d2b 0180 983e 0000
00000030: e8c2 0080 6a09 0000 0f4d 0080 17e1 0080
00000040: dbb7 0080 6114 0000

bias f4 [18]
-1.852e-41 6.4521e-41 8.7497e-41 -1.2071e-41 -5.2441e-41 2.0351e-41 6.4014e-41 -7.5496e-41
2.19808e-40 1.3294e-41 -7.417e-42 5.3378e-41 1.8265e-41 7.6222e-41 5.501e-41 5.8878e-41
9.0615e-41 7.585e-42
00000000: a033 0080 dcb3 0000 e8f3 0000 a621 0080
00000010: 2f92 0080 bb38 0000 72b2 0000 74d2 0080
00000020: bc64 0200 0f25 0000 ad14 0080 cc94 0000
00000030: ea32 0000 7ad4 0000 5899 0000 21a4 0000
00000040: 99fc 0000 2515 0000

running_mean f4 [18]
-6e-45 6e-45 -6e-45 6e-45 6e-45 6e-45 -6e-45 -6e-45
6e-45 -6e-45 -7.93365e-40 -6e-45 6e-45 -6e-45 6e-45 -6e-45
6e-45 -6e-45
00000000: 0400 0080 0400 0000 0400 0080 0400 0000
00000010: 0400 0000 0400 0000 0400 0080 0400 0080
00000020: 0400 0000 0400 0080 94a3 0880 0400 0080
00000030: 0400 0000 0400 0080 0400 0000 0400 0080
00000040: 0400 0000 0400 0080

running_var f4 [18]
6e-45 6e-45 6e-45 6e-45 6e-45 6e-45 6e-45 6e-45
6e-45 6e-45 6e-45 6e-45 6e-45 6e-45 6e-45 6e-45
6e-45 6e-45
00000000: 0400 0000 0400 0000 0400 0000 0400 0000
00000010: 0400 0000 0400 0000 0400 0000 0400 0000
00000020: 0400 0000 0400 0000 0400 0000 0400 0000
00000030: 0400 0000 0400 0000 0400 0000 0400 0000
00000040: 0400 0000 0400 0000

weight f4 [6, 18, 1]
-1.16908e-40 -3.50494e-40 2.49794e-40 1.3663e-40 5.1313e-41 1.27552e-40 6.9433e-41 2.564675e-39
-9.8176e-41 2.7597e-41 2.12515e-40 -7.9661e-41 1.01678e-40 -3.3745e-41 -4.732e-41 4.0526e-41
-4.34052e-40 -2.6126e-41 1.0055724e-36 6.903127e-36 1.6559431e-38 -1.4330996e-27 -7.0705e-41 8.2548015e-32
4.87856e-40 -1.23226e-40 -1.63999e-36 6.9405e-41 -1.9585556e-38 1.00438e-39 3.2868072e-37 -3.3581375e-38
-6.7215e-41 -6.5865e-41 -4.351e-42 -3.131117e-36 2.854828e-35 -3.1939e-40 4.4125e-41 4.581653e-36
-3.7499e-41 -1.83127e-40 -4.5874e-41 -9.1054e-41 -4.2350853e-34 -1.8628e-40 4.4465e-41 -2.928721e-39
-1.2987987e-34 -2.221403e-39 -3.3257e-41 -2.13463e-40 -5.3615e-41 -3.9e-42 -1.4861e-41 9.988e-42
5.3947e-41 -2.57898e-40 8.062e-42 -6.96165e-40 -7.0963e-41 -4.2765e-41 -2.7084e-41 1.0953e-41
7.2383e-41 1.679e-41 -6.4729e-41 1.28128e-40 -1.20419e-40 -8.0076e-41 1.966e-42 3.32546e-40
1.25129e-40 4.5541e-41 -5.8028e-41 -4.46073e-40 -1.32301e-40 -2.8134e-41 -1.8706e-41 8.8339e-41
-1.91017e-40 7.2583e-41 -1.38427e-40 -3.24853e-40 6.0537e-41 6.1074e-41 6.278e-41 3.7052e-41
-5.1021e-41 7.85e-43 -1.2792e-41 -4.418e-41 -1.1293e-41 5.101e-42 -1.1837e-40 6.5138e-41
4.4636e-41 -2.65913e-40 -6.2064e-41 -1.02921e-40 2.1853e-41 -8.0643e-41 1.5571e-41 -6.685e-41
-4.0149e-41 -8.5524e-41 -3.33248e-40 -2.13346e-40
00000000: e445 0180 09d1 0380 53b8 0200 de7c 0100
00000010: 0a8f 0000 9063 0100 8dc1 0000 45ed 1b00
00000020: ad11 0180 ee4c 0000 6850 0200 10de 0080
00000030: 701b 0100 115e 0080 e983 0080 f870 0000
00000040: f6b9 0480 d448 0080 db16 ab03 33d0 1205
00000050: f550 b400 6d15 e392 19c5 0080 914e d60b
00000060: f24f 0500 8157 0180 d283 0b84 79c1 0000
00000070: 9044 d580 ceef 0a00 42b0 df02 9bd5 3681
00000080: 5ebb 0080 9bb7 0080 210c 0080 d82e 8584
00000090: e8c9 1706 547a 0380 017b 0000 c9e1 c204
000000a0: 8868 0080 7cfe 0180 e17f 0080 d2fd 0080
000000b0: 1fbc 0c88 4607 0280 f37b 0000 15e4 1f80
000000c0: d4a3 2c87 5e30 1880 b55c 0080 0c53 0280
000000d0: 7595 0080 df0a 0080 6d29 0080 d81b 0000
000000e0: 6296 0000 eace 0280 7916 0000 a094 0780
000000f0: d1c5 0080 3677 0080 804b 0080 881e 0000
00000100: c6c9 0000 ce2e 0000 70b4 0080 2b65 0100
00000110: ae4f 0180 38df 0080 7b05 0000 019f 0300
00000120: cf5c 0100 f37e 0000 c2a1 0080 78db 0480
00000130: cd70 0180 6d4e 0080 2534 0080 41f6 0000
00000140: 7a14 0280 55ca 0000 e181 0180 8f89 0380
00000150: c1a8 0000 40aa 0000 01af 0000 4967 0000
00000160: 3a8e 0080 3002 0000 a923 0080 287b 0080
00000170: 7b1f 0080 380e 0000 f849 0180 94b5 0000
00000180: 6d7c 0000 42e5 0280 02ad 0080 e71e 0180
00000190: eb3c 0000 cde0 0080 682b 0000 5aba 0080
000001a0: eb6f 0080 68ee 0080 f6a0 0380 b952 0280

bias f4 [6]
2.83177e-40 2.012506e-39 7.82824e-40 -8.27778e-40 -2.4239e-40 -7.14861e-39
00000000: 6215 0300 0cea 1500 3286 0800 8203 0980
00000010: afa3 0280 6bd7 4d80

weight f4 [6]
-1.55194e-40 5.5653266e-37 4.031136e-39 2.1322e-41 -3.406472e-38 5.8884e-41
00000000: 9eb0 0180 d560 3d03 2be5 2b00 703b 0000
00000010: 4a77 3981 25a4 0000

bias f4 [6]
8.87976e-40 5.98006e-40 1.03506e-40 -1.394669e-39 8.677941e-38 3.5596e-41
00000000: 51ab 0900 ff82 0600 8820 0100 c52f 0f80
00000010: 6c3c ec01 3a63 0000

running_mean f4 [6]
6e-45 -6e-45 6e-45 6e-45 -6e-45 6e-45
00000000: 0400 0000 0400 0080 0400 0000 0400 0000
00000010: 0400 0080 0400 0000

running_var f4 [6]
6e-45 6e-45 6e-45 6e-45 6e-45 6e-45
00000000: 0400 0000 0400 0000 0400 0000 0400 0000
00000010: 0400 0000 0400 0000

weight f4 [2, 6, 1]
1.444596e-33 -7.5871944e-17 6.51364e-38 6.378592e-34 -5.2493387e-08 -8.834604e-39 3.0056e-40 -6.528193e-09
-3.0140558e-28 -1.7794185e-11 8.324267e-31 -1.3550126e-10
00000000: 5106 f008 e4f2 aea4 7251 b101 0ff7 5308
00000010: 1775 61b3 4833 6080 d745 0300 984e e0b1
00000020: da09 bf91 f184 9cad a711 870d 37fc 14af

bias f4 [2]
8.09317e-40 -1.038286e-39
00000000: 0cd0 0800 524e 0b80

weight f4 [2]
-3.30666e-28 -1.0011977e-37
00000000: a095 d191 a646 0882

bias f4 [2]
-2.58933e-09 -7.0506545e-22
00000000: faef 31b1 cc17 559c

running_mean f4 [2]
-6e-45 6e-45
00000000: 0400 0080 0400 0000

running_var f4 [2]
6e-45 6e-45
00000000: 0400 0000 0400 0000

weight_ih_l0 f4 [480, 2]
1.7368e-41 -2.68049e-40 -3.187e-42 4.72551e-40 -1.7558e-41 -5.2594e-41 4.4951e-40 1.29759e-40
4.36e-43 4.27329e-40 1.5417e-41 3.5823e-41 -6.066e-41 -8.6548e-41 5.50405e-40 2.63594e-40
2.876e-40 -8.544e-41 -3.3397e-41 -9.6166e-41 -2.098e-41 -3.8686e-41 -8.3173e-41 -2.87214e-40
7.6982e-41 -1.82525e-40 7.133e-42 1.3995e-41 1.5137e-41 -1.65918e-40 8.9326e-41 7.8148e-41
5.1819e-41 1.3503e-40 -8.8957e-41 -1.64874e-40 9.857e-42 -9.1041e-41 2.0956e-41 4.33242e-40
-1.09325e-40 3.79609e-40 -2.5285e-41 1.4784e-41 -4.9347e-41 -1.2177e-41 -1.692e-41 -4.311e-41
2.2698e-41 -2.19831e-40 -1.4991e-41 7.242e-41 -1.89996e-40 4.06709e-40 -5.1156e-41 -2.925e-42
6.0858e-41 -1.405e-40 1.9772e-41 4.22845e-40 -5.42588e-40 -1.13678e-40 -5.3174e-41 -6.29297e-40
1.6765e-41 -2.9966e-40 -4.228e-41 1.09464e-40 3.0761e-41 -4.1865e-40 7.323e-41 -2.63317e-40
5.1666e-41 -5.96117e-40 8.25e-42 -2.1192e-40 -2.4434e-41 -1.08281e-40 3.8648e-41 8.2489e-41
-8.9368e-41 1.21571e-40 2.305e-42 -8.784e-41 7.1399e-41 5.409e-41 -1.9366e-41 -2.4427e-41
5.2226e-41 -9.1027e-41 1.8833e-41 8.4892e-41 8.0505e-41 4.7139e-40 -1.13481e-40 9.1045e-41
6.4872e-41 -2.8354e-41 -1.3272e-41 -5.947e-42 -3.3729e-41 -4.92583e-40 -1.28898e-40 -1.31138e-40
-1.33768e-40 9.9726e-41 -8.8624e-41 -6.3065e-41 1.5997e-41 2.74723e-40 -4.3128e-41 6.17554e-40
4.3486e-41 -5.3207e-41 3.7615e-41 -8.5699e-41 -2.8221e-40 -1.31545e-40 -5.7516e-41 -2.7768e-41
-5.8682e-41 6.88294e-40 8.433e-42 2.1183e-41 -6.4335e-41 1.27452e-40 -2.0139e-40 -2.63687e-40
-8.987e-42 -6.57e-43 9.6982e-41 1.7673e-40 -4.8477e-41 -2.35003e-40 -7.3816e-41 1.3025e-41
2.7636e-41 -3.40146e-40 6.2756e-41 9.9094e-40 3.87186e-40 2.4897e-40 -1.0235e-41 -8.9288e-41
-3.9005e-41 -1.6228e-41 3.407e-42 1.72958e-40 -6.2057e-41 2.2044e-41 -5.8902e-41 -7.477e-42
-1.8939e-41 -1.2082e-41 -8.7724e-41 -7.039e-42 -5.6612e-41 9.046e-41 -6.3465e-41 2.3427e-41
6.08389e-40 4.18536e-40 -1.0441e-41 -1.17633e-40 2.304e-42 -7.3341e-41 -2.95632e-40 -1.70602e-40
-6.7863e-41 1.19925e-40 4.3729e-41 1.3064e-40 2.641e-41 -2.598e-42 -2.24147e-40 -1.67302e-40
-6.576e-41 -8.6627e-41 6.5034e-41 3.82472e-40 -4.6686e-41 1.4126e-41 -3.2167e-41 -1.9908e-41
-1.08833e-40 -4.32721e-40 1.909e-41 -7.85105e-40 2.4432e-41 1.32599e-40 -1.32445e-40 -1.07154e-40
-2.48798e-40 5.6922e-41 -3.017e-41 -6.03982e-40 -1.17748e-40 -2.23231e-40 3.2926e-41 -1.55218e-40
4.8545e-41 -2.4598e-41 -9.9582e-41 -7.22843e-40 -8.8102e-41 4.90949e-40 1.646e-41 -1.253e-42
-7.8223e-41 -1.10729e-40 -1.20142e-40 -5.715e-41 -3.1585e-41 2.90608e-40 2.40641e-40 1.911e-41
4.74447e-40 -2.0322e-41 -2.9028e-41 6.7136e-41 -5.6552e-41 -2.21967e-40 -8.727e-41 -3.575e-42
-3.1386e-41 5.62644e-40 4.9403e-41 -5.377e-41 2.81632e-40 -1.39188e-40 -1.721e-41 4.1988e-40
9.8483e-41 -1.91113e-40 5.7735e-41 8.9291e-41 2.7395e-41 -2.33741e-40 -2.6861e-41 1.95391e-40
-4.48738e-40 -1.278996e-39 4.274468e-39 3.64696e-40 -1.56278e-40 -7.77297e-40 -3.247578e-39 -1.704666e-39
3.95158e-40 -6.475105e-39 5.21478e-40 -3.588975e-39 -3.0321e-41 4.70493e-40 -1.83799e-40 -7.94333e-39
00000000: 6a30 0000 36eb 0280 e208 0080 4825 0500
00000010: f230 0080 9c92 0080 0de5 0400 b769 0100
00000020: 3701 0000 38a7 0400 fa2a 0000 dc63 0000
00000030: 18a9 0080 43f1 0080 4efe 0500 cbde 0200
00000040: b621 0300 2cee 0080 195d 0080 120c 0180
00000050: 7c3a 0080 d76b 0080 dae7 0080 a320 0380
00000060: 98d6 0000 cefc 0180 e213 0000 0327 0000
00000070: 322a 0000 83ce 0180 01f9 0000 d8d9 0000
00000080: 7390 0000 6978 0100 faf7 0080 9acb 0180
00000090: 7a1b 0000 c9fd 0080 6b3a 0000 b4b7 0400
000000a0: c130 0180 3222 0400 7c46 0080 3629 0000
000000b0: 8f89 0080 f221 0080 2b2f 0080 2c78 0080
000000c0: 463f 0000 cd64 0280 ca29 0080 e1c9 0000
000000d0: a211 0280 bd6d 0400 9a8e 0080 2708 0080
000000e0: a6a9 0000 a887 0180 1e37 0000 b89a 0400
000000f0: 84e8 0580 e33c 0180 3a94 0080 39da 0680
00000100: bc2e 0000 5543 0380 dc75 0080 2431 0100
00000110: c055 0000 078f 0480 23cc 0000 05de 0280
00000120: 0690 0000 bb7d 0680 ff16 0000 bf4e 0280
00000130: 1d44 0080 d82d 0180 bc6b 0000 f2e5 0000
00000140: 1ff9 0080 e452 0100 6d06 0000 ddf4 0080
00000150: 08c7 0000 c896 0000 fc35 0080 1844 0080
00000160: 9691 0000 bffd 0080 8034 0000 a5ec 0000
00000170: 6ae0 0000 0b22 0500 573c 0180 ccfd 0000
00000180: d6b4 0000 0a4f 0080 ff24 0080 9410 0080
00000190: 065e 0080 1f5d 0580 5167 0180 8f6d 0180
000001a0: e474 0180 ff15 0100 0cf7 0080 cdaf 0080
000001b0: 982c 0000 d1fd 0200 3978 0080 7db9 0600
000001c0: 3979 0000 5294 0080 db68 0000 e5ee 0080
000001d0: b012 0380 b26e 0180 55a0 0080 684d 0080
000001e0: 95a3 0080 af7e 0700 8217 0000 0d3b 0000
000001f0: 57b3 0080 4963 0100 6531 0280 0ddf 0280
00000200: 0d19 0080 d501 0080 590e 0100 a7ec 0100
00000210: 2287 0080 188f 0280 c5cd 0080 4f24 0000
00000220: 0a4d 0000 30b4 0380 f0ae 0000 56ca 0a00
00000230: 5137 0400 07b6 0200 881c 0080 e6f8 0080
00000240: bb6c 0080 3d2d 0080 7f09 0000 23e2 0100
00000250: fdac 0080 733d 0000 32a4 0080 d814 0080
00000260: cb34 0080 ae21 0080 8af4 0080 9f13 0080
00000270: d09d 0080 2afc 0000 eab0 0080 4e41 0000
00000280: f19f 0600 b58e 0400 1b1d 0080 ea47 0180
00000290: 6c06 0000 72cc 0080 1a38 0380 92db 0180
000002a0: 2dbd 0080 4d4e 0100 e679 0000 2c6c 0100
000002b0: 9f49 0000 3e07 0080 d570 0280 5fd2 0180
000002c0: 50b7 0080 7bf1 0080 4ab5 0000 2d2a 0400
000002d0: 2482 0080 6127 0000 ab59 0080 7f37 0080
000002e0: 622f 0180 40b6 0480 3735 0000 8e8c 0880
000002f0: 1b44 0000 a271 0100 3471 0180 b42a 0180
00000300: 8cb5 0280 ad9e 0000 1a54 0080 a893 0680
00000310: 3c48 0180 476e 0280 c95b 0000 afb0 0180
00000320: 5387 0000 9244 0080 9815 0180 fede 0780
00000330: 98f5 0080 9158 0500 e22d 0000 7e03 0080
00000340: 0eda 0080 ab34 0180 e84e 0180 509f 0080
00000350: 0c58 0080 192a 0300 cf9e 0200 4535 0000
00000360: 912a 0500 a638 0080 eb50 0080 26bb 0000
00000370: a59d 0080 c16a 0280 46f3 0080 f709 0080
00000380: 7e57 0080 6c20 0600 b789 0000 e495 0080
00000390: 1311 0300 0084 0180 f92f 0080 7492 0400
000003a0: 8812 0100 bf14 0280 f1a0 0000 e8f8 0000
000003b0: 5e4c 0000 938b 0280 e14a 0080 ac20 0200
000003c0: e6e2 0480 52ed 0d80 7a8b 2e00 a0f8 0300
000003d0: a4b3 0180 ca76 0880 ed5c 2380 ea8f 1280
000003e0: 8a4d 0400 f581 4680 abad 0500 9a14 2780
000003f0: 8654 0080 8b1f 0500 5b00 0280 c67e 5680

weight_hh_l0 f4 [480, 120]
4.5071e-41 9.43882e-40 -1.039328e-39 7.2366e-41 7.18205e-40 2.1655e-40 -1.641827e-39 2.54786e-39
-9.0351e-40 -4.21927e-40 5.52407e-40 -9.6767e-41 8.0866e-41 -1.00852e-39 -3.01362e-40 -3.902228e-39
1.130359e-39 2.032505e-39 9.90941e-40 -6.00941e-40 1.58526e-39 3.748223e-39 1.142944e-39 -1.479739e-39
-8.72482e-40 2.507684e-39 1.914817e-39 1.339532e-39 2.300171e-39 1.481493e-39 -2.58747e-40 2.4474e-41
5.34943e-40 -4.08984e-40 -1.183335e-39 6.92603e-40 -1.848031e-39 3.04368e-40 7.27382e-40 -2.861785e-39
5.2432e-41 1.903646e-39 1.109301e-39 -1.801568e-39 -1.997129e-39 -7.98217e-40 7.0432e-41 7.38204e-40
-3.45144e-40 -1.123976e-39 -9.88397e-40 -1.851627e-39 -6.83856e-40 -4.48902e-40 3.40129e-40 7.54575e-40
1.642105e-39 1.4e-43 9.6265e-41 5.57972e-40 -2.101869e-39 2.31607e-40 1.586242e-39 7.10463e-40
-3.528196e-39 1.14965e-40 1.199401e-39 -3.23252e-40 1.74497e-40 -2.85124e-40 -8.01274e-40 6.58543e-39
-1.38001e-40 2.33686e-40 1.21408e-40 -9.50697e-40 4.78604e-40 -5.53556e-40 -8.8774e-41 3.616192e-39
-2.800784e-39 -1.199049e-39 -7.7874e-41 1.086657e-39 2.007391e-39 1.56084e-40 -5.573432e-39 1.263048e-39
-5.0483e-41 -8.6512e-41 1.071646e-39 1.911794e-39 -3.83961e-40 1.847723e-39 4.26338e-39 7.131e-41
8.35733e-40 -8.119e-40 -6.06298e-40 -2.967908e-39 1.516054e-39 -1.07562e-40 1.52964e-40 -3.1846e-41
-3.349431e-39 -3.01786e-40 4.0037e-40 3.83229e-40 -8.13794e-40 -6.03068e-40 2.41214e-39 -6.54621e-40
-9.77714e-40 2.48384e-40 1.982e-40 1.094934e-39 -1.9903e-40 3.76466e-40 -2.38172e-40 3.128203e-39
1.332369e-38 4.355895e-37 -1.110755e-37 3.1017e-40 5.366e-40 8.0306e-41 -3.3488365e-37 4.4784136e-37
-5.779381e-39 -1.34689e-39 -1.61482e-37 9.330879e-38 3.19153e-40 -9.524446e-38 -2.2955638e-38 6.766273e-37
-1.7854494e-36 -2.9165635e-37 -8.420445e-38 -2.3174506e-38 -8.723206e-37 2.9393841e-36 -1.05044795e-36 3.5435932e-37
8.368319e-37 -1.31469625e-36 -7.673833e-37 2.702451e-37 -3.1622307e-38 -1.4829998e-37 -2.1438e-41 1.1045595e-37
-4.1067946e-37 -4.1964575e-37 6.0780964e-37 -1.4917844e-36 7.6734655e-37 -2.85687e-40 -1.2109126e-37 1.0922979e-36
-6.9788296e-38 -1.2485547e-37 6.34564e-38 -4.790518e-37 2.9969156e-36 -1.44432465e-36 5.682817e-38 2.5665645e-37
1.4235787e-36 -7.924e-41 2.1753174e-38 -7.035747e-37 -3.141973e-37 1.2574911e-36 -4.0766817e-37 1.7488763e-37
-8.230671e-38 -1.5928e-40 3.18193e-40 2.5036854e-38 1.1269758e-37 -5.7955e-40 -3.017509e-38 -5.394685e-37
1.0643038e-36 1.2655093e-37 2.7800488e-37 3.4669725e-37 -7.194846e-39 -1.15283e-40 -7.860658e-37 2.7255667e-36
-2.8673188e-37 -3.6579585e-38 8.995706e-37 -1.2478848e-36 3.829221e-37 -7.644384e-37 -6.2263713e-37 1.4642631e-36
-2.8999013e-37 -6.102747e-38 4.60738e-37 2.2622618e-37 -7.985724e-38 -1.199694e-39 5.3987985e-37 7.1688456e-38
-3.090641e-38 2.7162422e-38 -1.9345018e-36 1.9654784e-36 -1.907026e-38 7.71326e-37 -5.5398898e-37 1.7836633e-38
-7.315652e-39 -2.5460064e-37 -3.9432633e-37 8.920306e-37 9.479469e-37 -5.01048e-38 8.02029e-40 -4.723037e-37
-2.2213482e-37 3.47005e-40 4.3442e-41 6.81458e-40 1.7858528e-37 -3.11797e-40 -7.744392e-37 -4.377105e-37
-4.730314e-38 1.2774519e-37 7.2928e-41 4.630354e-37 3.454996e-37 -1.3842e-40 -7.56882e-40 -6.692924e-37
-8.6498e-41 4.21104e-40 -2.11379e-40 -3.079e-42 3.35189e-40 -2.707e-41 6.93986e-40 -1.048868e-39
1.06696e-40 1.58188e-40 8.42431e-40 -1.43713e-40 -1.6905e-41 -4.56214e-40 3.03394e-40 -7.11913e-40
00000000: a47d 0000 2947 0a00 3951 0b80 bac9 0000
00000010: 10d2 0700 a75b 0200 bfe0 1180 66be 1b00
00000020: 9ed6 0980 2998 0480 e303 0600 bf0d 0180
00000030: 6ce1 0000 58fb 0a80 1348 0380 d37d 2a80
00000040: fb4e 0c00 cc21 1600 57ca 0a00 2e8b 0680
00000050: 0f43 1100 85d0 2800 1072 0c00 e91c 1080
00000060: 2080 0980 674e 1b00 bbd9 1400 1296 0e00
00000070: f10b 1900 cd21 1000 48d1 0280 3944 0000
00000080: 34d3 0500 1574 0480 a8e2 0c80 b28a 0700
00000090: 8f1f 1480 7450 0300 a5eb 0700 7e29 1f80
000000a0: 2992 0000 97ba 1400 4814 0c00 0a9e 1380
000000b0: 2fbf 1580 1bb1 0880 56c4 0000 d009 0800
000000c0: 1fc2 0380 303d 0c80 40c3 0a80 9529 1480
000000d0: 5072 0780 5be3 0480 24b4 0300 7337 0800
000000e0: 85e1 1100 6400 0000 590c 0100 6613 0600
000000f0: 28e3 1680 a085 0200 cc45 1100 7bbc 0700
00000100: 2d6b 2680 7a40 0100 710f 0d00 1885 0380
00000110: 6de6 0100 cf1a 0380 a0b9 0880 80b5 4700
00000120: b180 0180 6c8b 0200 7052 0100 285a 0a80
00000130: 2736 0500 1707 0680 77f7 0080 7960 2700
00000140: 727f 1e80 760e 0d80 15d9 0080 28d5 0b00
00000150: cadb 1500 19b3 0100 76b0 3c80 ddc0 0d00
00000160: ba8c 0080 29f1 0080 50ab 0b00 4ed1 1400
00000170: 542e 0480 b31e 1400 926c 2e00 c9c6 0000
00000180: af19 0900 3fd7 0880 1d9a 0680 5251 2080
00000190: 2482 1000 d72b 0180 67aa 0100 c658 0080
000001a0: da78 2480 4249 0380 125c 0400 492c 0400
000001b0: 87dc 0880 1c91 0680 1144 1a00 d120 0780
000001c0: 78a5 0a80 65b4 0200 8028 0200 3bec 0b00
000001d0: d12a 0280 6f19 0400 ed97 0280 2810 2200
000001e0: 0715 9100 3239 1403 2a30 1782 a160 0300
000001f0: d3d7 0500 dcdf 0000 f6e8 e382 7c64 1803
00000200: 90ee 3e80 95aa 0e80 44cc 5b82 bc02 fe01
00000210: ab79 0300 daa3 0182 fbf6 f980 8d3e 6603
00000220: a5e3 1784 b47d c682 f039 e581 1859 fc80
00000230: ec6a 9483 1e0e 7a04 76b9 b283 1a2a f102
00000240: 2b61 8e03 19af df83 4290 8283 56eb b702
00000250: 102b 2c81 00db 4982 c33b 0080 4858 1602
00000260: 3abf 0b83 4dcc 0e83 b0d3 4e03 60d0 fd83
00000270: a88e 8203 611c 0380 25d2 2482 49d8 b903
00000280: 58fb bd81 c8f1 2982 a8be ac01 4c03 2383
00000290: 0bf3 7e04 36bd f583 74b3 9a01 dcab ae02
000002a0: 9935 f203 e4dc 0080 00df ec00 006a 6f83
000002b0: e4d4 d582 76f3 d503 e8b8 0a83 720b 6e02
000002c0: 680f e081 02bc 0180 fe76 0300 4850 0801
000002d0: 6065 1902 8d4f 0680 f049 2481 5692 3783
000002e0: f814 b503 9040 2c02 4833 bd02 2ef3 eb02
000002f0: 4e58 4e80 5d41 0180 ffbd 8583 96dd 6704
00000300: bd23 c382 8028 4781 d30d 9903 0c51 d483
00000310: 384d 0203 fd0f 8283 58df 5383 a721 f903
00000320: 685b c582 f021 a681 f1c7 1c03 29f6 9902
00000330: 6064 d981 4210 0d80 2bb6 3703 9027 c301
00000340: 4045 2881 e4e2 1301 b891 2484 5434 2704
00000350: 20a8 cf80 fc3b 8303 3f83 3c83 4739 c200
00000360: 10a9 4f80 b045 ad82 ab2e 0683 6ac5 9703
00000370: e948 a103 f365 8881 bbbb 0800 74b7 2083
00000380: 582d 9782 4fc7 0300 1979 0000 a16b 0700
00000390: e313 7302 2a65 0380 96c3 8383 f6f1 1483
000003a0: 7ac5 8081 b4e0 2d02 4bcb 0000 1290 1d03
000003b0: 8522 eb02 dc81 0180 e13d 0880 97bf 6383
000003c0: 1ff1 0080 de95 0400 3d4d 0280 9508 0080
000003d0: 5fa6 0300 764b 0080 8d8e 0700 d16b 0b80
000003e0: 6d29 0100 f7b8 0100 5b2c 0900 9d90 0180
000003f0: 202f 0080 bdf7 0480 bd4d 0300 86c0 0780

bias_ih_l0 f4 [480]
-4.0626914e-33 -1.1693374e-28 -2.3340992e-27 -7.744247e-36 -1.5035137e-31 -6.731817e-33 -2.8947268e-25 -4.136568e-30
-3.7132222e-35 -7.4199413e-32 -2.378232e-32 -1.8172528e-28 -3.5907625e-37 -1.4372026e-27 -4.109352e-34 -2.3009231e-29
-3.8189638e-29 -3.6205755e-25 -6.8137957e-29 -1.32526565e-33 -5.8661287e-31 -2.1481646e-25 -3.749922e-30 -5.402227e-27
-5.5704045e-29 -2.1640772e-26 -1.1791919e-28 -1.7444792e-27 -7.955656e-27 -4.0550158e-23 1.527944e-39 -2.1576913e-35
-2.1120624e-27 -3.9473013e-28 -1.7124198e-28 -2.7724827e-29 -2.5180598e-25 1.019648e-39 -3.0438953e-27 -6.652888e-28
-2.5273266e-27 -1.0475271e-27 -1.3402529e-30 -9.326329e-25 -1.6078631e-23 -9.444394e-24 -6.4511115e-33 -9.13642e-23
-1.8466382e-25 3.33494e-33 -5.070662e-27 -8.230577e-27 -1.0330905e-27 -1.0582701e-25 -5.646964e-30 -1.2872651e-28
-4.694257e-31 -1.879783e-39 1.8761888e-38 -2.8039176e-28 -3.9718547e-29 -2.6945593e-38 -1.8782056e-28 -5.082644e-31
-3.7020643e-25 -4.8983365e-30 -3.973454e-29 -7.521227e-31 -9.900033e-32 -4.974233e-34 -9.882519e-30 -2.0044735e-30
-1.5736071e-28 -8.45592e-27 -2.6621186e-28 -3.1739817e-27 -2.3041687e-29 -1.0837584e-26 -6.6961704e-25 -2.153602e-28
-1.685794e-27 -1.564715e-32 -4.504261e-28 -7.094723e-33 -1.3931456e-27 -1.893368e-36 -1.471078e-30 -7.389129e-28
-3.0648909e-31 -1.3914116e-29 -7.1471345e-25 -2.2899921e-27 -2.1797574e-24 -1.5338937e-26 -5.7162044e-24 -5.9556915e-35
5.8822194e-38 -1.2667519e-28 -3.1169144e-28 -1.6647588e-25 -4.79836e-26 -1.6254476e-32 8.0999575e-38 -4.546995e-26
-2.6515338e-25 -7.591464e-39 -5.347597e-38 -9.25013e-35 -1.1221671e-29 2.2786173e-36 -8.783046e-28 -1.5930434e-26
-1.0243899e-28 -2.2363162e-28 -8.36786e-37 -6.2536504e-29 -4.6400298e-34 2.59787e-40 -9.943889e-38 -7.0579735e-21
1.23407015e-33 1.9727893e-29 -2.3217567e-29 -9.728612e-35 -1.2890874e-31 3.4300413e-31 5.653799e-26 9.608969e-32
-3.1757274e-35 -4.4296974e-32 8.220037e-33 7.042147e-30 3.835718e-39 1.7793907e-29 -1.7295673e-34 5.6564942e-30
1.2368661e-29 1.0509343e-25 2.5001937e-29 3.377886e-34 1.0063388e-31 6.78928e-26 1.3820928e-30 1.5154207e-27
-2.8157152e-31 4.3515886e-27 -3.0505402e-30 3.9057998e-29 1.0931054e-28 -6.979869e-24 -1.20415e-40 5.1817555e-36
-7.925367e-29 9.238522e-29 -4.6482816e-30 4.964037e-30 -1.62528e-26 -9.30934e-40 7.5289657e-28 6.858471e-30
7.54562e-28 2.5006137e-28 2.9126716e-31 2.3083293e-25 3.6334653e-24 8.866349e-25 1.708652e-33 -1.7969554e-23
3.7770974e-26 -1.676523e-33 -2.1044393e-28 -3.0742192e-28 -5.2062436e-29 2.75904e-26 3.5985133e-31 6.9263565e-30
7.214537e-32 -2.563891e-39 -4.617335e-38 7.045059e-29 2.7971035e-30 3.816237e-38 1.8782099e-29 6.0021764e-32
9.086767e-26 9.091835e-31 5.5638066e-31 1.3340233e-31 2.8563134e-32 -1.8014149e-34 7.8418634e-31 6.0413465e-31
4.1692026e-29 1.528236e-27 -1.135433e-29 5.179241e-28 5.8238346e-30 3.4909672e-27 1.5815203e-25 3.2840942e-29
-4.0376255e-29 4.9776007e-33 1.4354117e-28 1.244019e-33 3.952667e-28 -3.2477903e-36 4.0106687e-31 2.775929e-29
-1.8559344e-31 5.2234214e-30 1.6239973e-25 5.772419e-28 -1.9966994e-25 -1.2980974e-27 1.2501197e-24 1.7805466e-35
1.192955e-39 3.006815e-29 1.2161847e-29 4.0209152e-26 -4.6217835e-27 3.5173344e-33 -4.436373e-37 1.3395043e-26
6.145267e-26 -3.180627e-39 -1.7232254e-37 -1.0429365e-34 1.9353185e-30 -8.4071845e-36 -3.6010827e-30 5.258766e-28
-1.663168e-29 4.4300815e-29 1.7571096e-35 5.7485435e-32 1.0327604e-34 -8.0185e-41 8.687484e-38 -1.8614547e-21
1.4050047e-12 -1.5901735e-10 1.511859e-10 -1.402594e-15 1.4748195e-13 6.4012565e-13 -2.9813418e-09 -5.247132e-11
5.4876676e-13 -1.0217141e-12 -5.874122e-12 9.057086e-11 4.595849e-20 -9.3383135e-11 1.3450612e-12 -1.1399975e-10
00000000: f2c1 a889 2b3b 1491 28ed 3893 b1b3 2485
00000010: d02a 438c 7ad0 0b8a c72c b396 94cc a78e
00000020: c36d 4586 f8a1 c08b 40f8 f68a 3a5d 6691
00000030: e85f f482 ddbb e392 808e 0888 6157 e98f
00000040: fca4 4190 4f1a e096 10c0 ac90 9132 dc88
00000050: e45d 3e8d 07f7 8496 6b1d 988e 1701 d693
00000060: fe39 8d90 e051 d694 f77a 1591 3e36 0a93
00000070: f893 1d94 aa16 449a 49a3 1000 f271 e585
00000080: b755 2793 a030 fa91 3313 5991 e294 0c90
00000090: 40dc 9b96 5d1a 0b00 8829 7193 a4d6 5292
000000a0: 463c 4893 bffc a592 ed77 d98d 6551 9097
000000b0: c380 9b99 60ae 3699 fefb 058a b3e7 dc9a
000000c0: 4d9a 6496 2a87 8a09 9fde c893 fc05 2394
000000d0: 21b3 a392 eb01 0396 6d11 e58e 242e 2391
000000e0: 5d56 188d 1278 1480 834c cc00 2ab8 b191
000000f0: 9f65 4990 adb4 1281 4217 6e91 f4f0 248d
00000100: 8d25 e596 3cb3 c68e 627a 4990 e913 748d
00000110: 8182 008c 184c 2588 f970 488f 499f 228e
00000120: 787a 4791 9c7c 2794 58bb a891 ff77 7b93
00000130: a4ab e98f 14a9 5694 873c 4f97 3180 8891
00000140: f78f 0593 427d a28a e8be 0e92 055a 138a
00000150: b3c0 dc92 e711 2184 30b2 ee8d bd2b 6a92
00000160: 3cec c68c 1c1b 8d8f 6f31 5d97 8f6e 3593
00000170: 8ba6 2898 d3e8 9794 8c22 dd98 5654 9e86
00000180: 1621 a001 7394 2091 d48e c591 5016 4e96
00000190: 709a 6d95 cfcb a88a 7780 dc01 0228 6195
000001a0: 3b1f a496 eaa9 5280 5093 9181 1fe9 f586
000001b0: 3f9a 638f e4d7 4104 442c 8b92 73c4 9d94
000001c0: 5adb 0191 4ebe 8d91 2c5f 8e83 838c 9e90
000001d0: 0231 1a88 2ed4 0200 6559 0782 4452 059e
000001e0: 8a0b cd08 8a10 c80f 4074 eb8f c050 0187
000001f0: 4755 278c 569f de0c 35fb 8b15 8e76 f90b
00000200: c3d9 2886 c700 668b 37b9 2a0a ebd4 0e0f
00000210: 6cc4 2900 a073 b40f 20e6 6587 6574 e50e
00000220: c2dd 7a0f 7019 0216 bd8c fd0f c17f e007
00000230: 58a1 020c 2d18 a815 e441 e00d c420 f012
00000240: 18c0 b68c 5a62 ac13 3e7d 778e 2e0c 4610
00000250: 4c91 0a11 a302 0799 ab4f 0180 5268 dc04
00000260: 93ee c890 7039 ea10 848e bc8e 825d c90e
00000270: bef5 a094 1123 0a80 3a9a 6e12 381b 0b0f
00000280: 5821 6f12 c77e 9e11 0f0b bd0c f0e0 8e16
00000290: 1990 8c18 3a33 8917 02f3 0d09 76ca ad99
000002a0: 6608 3b15 b347 0b89 7b62 8591 0fda c291
000002b0: 74fe 8390 fd9e 0815 8f8e e90c b37b 0c0f
000002c0: d34c bb0b 16eb 1b80 4264 7b81 0c9d b210
000002d0: 91ed 620e 95c6 4f01 1e79 be0f 4ed3 9b0b
000002e0: 3afa e015 0186 930d 4c8e 340d 872a 2d0c
000002f0: eb4e 140b f972 6f87 a77b 7e0d 8b0d 440d
00000300: 5867 5310 9e28 f212 0d4b 668f ff22 2412
00000310: 283e ec0e 9d4a 8a13 61c8 4316 fb85 2610
00000320: 60bb 4c90 eec2 ce09 c6f5 3511 b7b2 ce08
00000330: b087 fa11 4e25 8a84 5527 020d 9ec1 0c10
00000340: 00ea 708c 1ce3 d30e 870a 4916 6def 3612
00000350: ee2d 7796 16b1 cd92 5872 c117 1757 bd05
00000360: 79fd 0c00 b176 1810 ecab 760f 281b 4715
00000370: 7416 b793 b71a 9209 42f6 1683 78a8 8414
00000380: 4226 9815 4ba2 2280 a48d 6a82 4aa1 0a87
00000390: fe02 1d0e 11cd 3285 c813 928e 2ea8 2612
000003a0: 4faa a88f bfa1 6010 13d9 ba05 a03d 950b
000003b0: 0447 0907 86df 0080 ed7e ec01 c5a5 0c9d
000003c0: a1bc c52b 68d7 2eaf 0c3b 262f 9622 caa6
000003d0: c70c 262a ea2d 342b 52e0 4cb1 74c5 66ae
000003e0: d076 1a2b 21cb 8fab 63ad ceac dd2a c72e
000003f0: 6808 591f 085a cdae f04c bd2b 27b0 faae
